ST Edge AI Core v2.0.0-20049
Created date          : 2025-05-03 18:30:25
Parameters            : generate --target stm32 -m C:\Users\alert\repos\stm32ai-modelzoo-services\experiments_outputs\output\quantized_models\quantized_model.tflite -v 0 --allocate-inputs --allocate-outputs --output C:\Users\alert\repos\stm32ai-modelzoo-services\experiments_outputs\output/stm32ai_files --workspace C:\Users\alert\repos\stm32ai-modelzoo-services\experiments_outputs\output/stm32ai_files --optimization balanced

Exec/report summary (generate)
-------------------------------------------------------------------------------------------------------------------------------------------
model file         :   C:\Users\alert\repos\stm32ai-modelzoo-services\experiments_outputs\output\quantized_models\quantized_model.tflite   
type               :   tflite                                                                                                              
c_name             :   network                                                                                                             
compression        :   lossless                                                                                                            
options            :   allocate-inputs, allocate-outputs                                                                                   
optimization       :   balanced                                                                                                            
target/series      :   stm32                                                                                                               
workspace dir      :   C:\Users\alert\repos\stm32ai-modelzoo-services\experiments_outputs\output\stm32ai_files                             
output dir         :   C:\Users\alert\repos\stm32ai-modelzoo-services\experiments_outputs\output\stm32ai_files                             
model_fmt          :   sa/ua per tensor                                                                                                    
model_name         :   quantized_model                                                                                                     
model_hash         :   0xd88bb700b15b68f80a5bc796b15b7a65                                                                                  
params #           :   1,140,584 items (1149.30 KiB)                                                                                       
-------------------------------------------------------------------------------------------------------------------------------------------
input 1/1          :   'serving_default_input_10', uint8(1x480x480x3), 675.00 KBytes, QLinear(0.003921569,0,uint8), activations            
output 1/3         :   'conversion_231', f32(1x15x15x24), 21.09 KBytes, activations                                                        
output 2/3         :   'conversion_171', f32(1x60x60x24), 337.50 KBytes, activations                                                       
output 3/3         :   'conversion_201', f32(1x30x30x24), 84.38 KBytes, activations                                                        
outputs (total)    :   0 Bytes                                                                                                             
macc               :   904,126,900                                                                                                         
weights (ro)       :   1,176,884 B (1149.30 KiB) (1 segment) / -3,385,452(-74.2%) vs float model                                           
activations (rw)   :   1,036,800 B (1012.50 KiB) (1 segment) *                                                                             
ram (total)        :   1,036,800 B (1012.50 KiB) = 1,036,800 + 0 + 0                                                                       
-------------------------------------------------------------------------------------------------------------------------------------------
(*) 'input'/'output' buffers can be used from the activations buffer

Model name - quantized_model
------ ---------------------------------------------- ------------------------ ----------------- ------------ -------------------------- --- -------- --------------------- ------------------------------- 
m_id   layer (type,original)                          oshape                   param/size                macc               connected to   | c_size   c_macc                c_type                          
------ ---------------------------------------------- ------------------------ ----------------- ------------ -------------------------- --- -------- --------------------- ------------------------------- 
0      serving_default_input_10 (Input, )             [b:1,h:480,w:480,c:3]                                                                |          +1,382,400(+100.0%)   Conversion_[0]                  
       conversion_0 (Conversion, QUANTIZE)            [b:1,h:480,w:480,c:3]                         1,382,400   serving_default_input_10   |          -1,382,400(-100.0%)   
------ ---------------------------------------------- ------------------------ ----------------- ------------ -------------------------- --- -------- --------------------- ------------------------------- 
1      conv2d_1 (Conv2D, CONV_2D)                     [b:1,h:240,w:240,c:12]   336/372             18,662,412               conversion_0   |                                Conv2D_[1]                      
       nl_1_nl (Nonlinearity, CONV_2D)                [b:1,h:240,w:240,c:12]                          691,200                   conv2d_1   |          -691,200(-100.0%)     
------ ---------------------------------------------- ------------------------ ----------------- ------------ -------------------------- --- -------- --------------------- ------------------------------- 
2      conv2d_2 (Conv2D, CONV_2D)                     [b:1,h:240,w:240,c:16]   1,744/1,792         99,532,816                    nl_1_nl   |                                Pad_/Conv2D_[2, 3]              
       nl_2_nl (Nonlinearity, CONV_2D)                [b:1,h:240,w:240,c:16]                          921,600                   conv2d_2   |          -921,600(-100.0%)     
------ ---------------------------------------------- ------------------------ ----------------- ------------ -------------------------- --- -------- --------------------- ------------------------------- 
3      conv2d_3 (Conv2D, DEPTHWISE_CONV_2D)           [b:1,h:120,w:120,c:16]   160/208              2,073,616                    nl_2_nl   |                                Pad_/Conv2D_[4, 5]              
       nl_3_nl (Nonlinearity, DEPTHWISE_CONV_2D)      [b:1,h:120,w:120,c:16]                          230,400                   conv2d_3   |          -230,400(-100.0%)     
------ ---------------------------------------------- ------------------------ ----------------- ------------ -------------------------- --- -------- --------------------- ------------------------------- 
4      conv2d_4 (Conv2D, CONV_2D)                     [b:1,h:120,w:120,c:32]   544/640              7,372,832                    nl_3_nl   |                                Conv2D_[6]                      
       nl_4_nl (Nonlinearity, CONV_2D)                [b:1,h:120,w:120,c:32]                          460,800                   conv2d_4   |          -460,800(-100.0%)     
------ ---------------------------------------------- ------------------------ ----------------- ------------ -------------------------- --- -------- --------------------- ------------------------------- 
5      conv2d_5 (Conv2D, CONV_2D)                     [b:1,h:120,w:120,c:16]   528/576              7,372,816                    nl_4_nl   |                                Conv2D_[9]                      
       nl_5_nl (Nonlinearity, CONV_2D)                [b:1,h:120,w:120,c:16]                          230,400                   conv2d_5   |          -230,400(-100.0%)     
------ ---------------------------------------------- ------------------------ ----------------- ------------ -------------------------- --- -------- --------------------- ------------------------------- 
6      conv2d_6 (Conv2D, CONV_2D)                     [b:1,h:120,w:120,c:16]   272/320              3,686,416                    nl_5_nl   |                                Conv2D_[10]                     
       nl_6_nl (Nonlinearity, CONV_2D)                [b:1,h:120,w:120,c:16]                          230,400                   conv2d_6   |          -230,400(-100.0%)     
------ ---------------------------------------------- ------------------------ ----------------- ------------ -------------------------- --- -------- --------------------- ------------------------------- 
7      conv2d_7 (Conv2D, DEPTHWISE_CONV_2D)           [b:1,h:120,w:120,c:16]   160/208              2,073,616                    nl_6_nl   |                                Pad_/Conv2D_[11, 12]            
       nl_7_nl (Nonlinearity, DEPTHWISE_CONV_2D)      [b:1,h:120,w:120,c:16]                          230,400                   conv2d_7   |          -230,400(-100.0%)     
------ ---------------------------------------------- ------------------------ ----------------- ------------ -------------------------- --- -------- --------------------- ------------------------------- 
8      conv2d_8 (Conv2D, CONV_2D)                     [b:1,h:120,w:120,c:16]   272/320              3,686,416                    nl_7_nl   |                                Conv2D_[13]                     
       nl_8_nl (Nonlinearity, CONV_2D)                [b:1,h:120,w:120,c:16]                          230,400                   conv2d_8   |          -230,400(-100.0%)     
------ ---------------------------------------------- ------------------------ ----------------- ------------ -------------------------- --- -------- --------------------- ------------------------------- 
9      eltwise_9 (Eltwise, ADD)                       [b:1,h:120,w:120,c:16]                          230,400                    nl_5_nl   |                                Eltwise/add_[14]                
                                                                                                                                 nl_8_nl   | 
------ ---------------------------------------------- ------------------------ ----------------- ------------ -------------------------- --- -------- --------------------- ------------------------------- 
10     conv2d_10 (Conv2D, CONV_2D)                    [b:1,h:120,w:120,c:16]   272/320              3,686,416                  eltwise_9   |                                Conv2D_[15]                     
       nl_10_nl (Nonlinearity, CONV_2D)               [b:1,h:120,w:120,c:16]                          230,400                  conv2d_10   |          -230,400(-100.0%)     
------ ---------------------------------------------- ------------------------ ----------------- ------------ -------------------------- --- -------- --------------------- ------------------------------- 
11     conv2d_11 (Conv2D, DEPTHWISE_CONV_2D)          [b:1,h:120,w:120,c:16]   160/208              2,073,616                   nl_10_nl   |                                Pad_/Conv2D_[16, 17]            
       nl_11_nl (Nonlinearity, DEPTHWISE_CONV_2D)     [b:1,h:120,w:120,c:16]                          230,400                  conv2d_11   |          -230,400(-100.0%)     
------ ---------------------------------------------- ------------------------ ----------------- ------------ -------------------------- --- -------- --------------------- ------------------------------- 
12     conv2d_12 (Conv2D, CONV_2D)                    [b:1,h:120,w:120,c:16]   272/320              3,686,416                   nl_11_nl   |                                Conv2D_[18]                     
       nl_12_nl (Nonlinearity, CONV_2D)               [b:1,h:120,w:120,c:16]                          230,400                  conv2d_12   |          -230,400(-100.0%)     
------ ---------------------------------------------- ------------------------ ----------------- ------------ -------------------------- --- -------- --------------------- ------------------------------- 
13     eltwise_13 (Eltwise, ADD)                      [b:1,h:120,w:120,c:16]                          230,400                  eltwise_9   |                                Eltwise/add_[19]                
                                                                                                                                nl_12_nl   | 
------ ---------------------------------------------- ------------------------ ----------------- ------------ -------------------------- --- -------- --------------------- ------------------------------- 
14     conv2d_14 (Conv2D, CONV_2D)                    [b:1,h:120,w:120,c:16]   272/320              3,686,416                 eltwise_13   |                                Conv2D_[20]                     
       nl_14_nl (Nonlinearity, CONV_2D)               [b:1,h:120,w:120,c:16]                          230,400                  conv2d_14   |          -230,400(-100.0%)     
------ ---------------------------------------------- ------------------------ ----------------- ------------ -------------------------- --- -------- --------------------- ------------------------------- 
15     conv2d_15 (Conv2D, DEPTHWISE_CONV_2D)          [b:1,h:120,w:120,c:16]   160/208              2,073,616                   nl_14_nl   |                                Pad_/Conv2D_[21, 22]            
       nl_15_nl (Nonlinearity, DEPTHWISE_CONV_2D)     [b:1,h:120,w:120,c:16]                          230,400                  conv2d_15   |          -230,400(-100.0%)     
------ ---------------------------------------------- ------------------------ ----------------- ------------ -------------------------- --- -------- --------------------- ------------------------------- 
16     conv2d_16 (Conv2D, CONV_2D)                    [b:1,h:120,w:120,c:16]   272/320              3,686,416                   nl_15_nl   |                                Conv2D_[23]                     
       nl_16_nl (Nonlinearity, CONV_2D)               [b:1,h:120,w:120,c:16]                          230,400                  conv2d_16   |          -230,400(-100.0%)     
------ ---------------------------------------------- ------------------------ ----------------- ------------ -------------------------- --- -------- --------------------- ------------------------------- 
17     eltwise_17 (Eltwise, ADD)                      [b:1,h:120,w:120,c:16]                          230,400                 eltwise_13   |                                Eltwise/add_[24]                
                                                                                                                                nl_16_nl   | 
------ ---------------------------------------------- ------------------------ ----------------- ------------ -------------------------- --- -------- --------------------- ------------------------------- 
18     conv2d_18 (Conv2D, CONV_2D)                    [b:1,h:120,w:120,c:16]   528/576              7,372,816                    nl_4_nl   |          +460,800(+6.2%)       Conv2D_/Nonlinearity_[7, 8]     
       nl_18_nl (Nonlinearity, CONV_2D)               [b:1,h:120,w:120,c:16]                          230,400                  conv2d_18   |          -230,400(-100.0%)     
------ ---------------------------------------------- ------------------------ ----------------- ------------ -------------------------- --- -------- --------------------- ------------------------------- 
19     concat_19 (Concat, CONCATENATION)              [b:1,h:120,w:120,c:32]                                                  eltwise_17   |                                Concat_[25]                     
                                                                                                                                nl_18_nl   | 
------ ---------------------------------------------- ------------------------ ----------------- ------------ -------------------------- --- -------- --------------------- ------------------------------- 
20     conv2d_20 (Conv2D, CONV_2D)                    [b:1,h:120,w:120,c:32]   1,056/1,152         14,745,632                  concat_19   |                                Conv2D_[26]                     
       nl_20_nl (Nonlinearity, CONV_2D)               [b:1,h:120,w:120,c:32]                          460,800                  conv2d_20   |          -460,800(-100.0%)     
------ ---------------------------------------------- ------------------------ ----------------- ------------ -------------------------- --- -------- --------------------- ------------------------------- 
21     conv2d_21 (Conv2D, DEPTHWISE_CONV_2D)          [b:1,h:60,w:60,c:32]     320/416              1,036,832                   nl_20_nl   |                                Pad_/Conv2D_[27, 28]            
       nl_21_nl (Nonlinearity, DEPTHWISE_CONV_2D)     [b:1,h:60,w:60,c:32]                            115,200                  conv2d_21   |          -115,200(-100.0%)     
------ ---------------------------------------------- ------------------------ ----------------- ------------ -------------------------- --- -------- --------------------- ------------------------------- 
22     conv2d_22 (Conv2D, CONV_2D)                    [b:1,h:60,w:60,c:64]     2,112/2,304          7,372,864                   nl_21_nl   |                                Conv2D_[29]                     
       nl_22_nl (Nonlinearity, CONV_2D)               [b:1,h:60,w:60,c:64]                            230,400                  conv2d_22   |          -230,400(-100.0%)     
------ ---------------------------------------------- ------------------------ ----------------- ------------ -------------------------- --- -------- --------------------- ------------------------------- 
23     conv2d_23 (Conv2D, CONV_2D)                    [b:1,h:60,w:60,c:32]     2,080/2,176          7,372,832                   nl_22_nl   |                                Conv2D_[32]                     
       nl_23_nl (Nonlinearity, CONV_2D)               [b:1,h:60,w:60,c:32]                            115,200                  conv2d_23   |          -115,200(-100.0%)     
------ ---------------------------------------------- ------------------------ ----------------- ------------ -------------------------- --- -------- --------------------- ------------------------------- 
24     conv2d_24 (Conv2D, CONV_2D)                    [b:1,h:60,w:60,c:32]     1,056/1,152          3,686,432                   nl_23_nl   |                                Conv2D_[33]                     
       nl_24_nl (Nonlinearity, CONV_2D)               [b:1,h:60,w:60,c:32]                            115,200                  conv2d_24   |          -115,200(-100.0%)     
------ ---------------------------------------------- ------------------------ ----------------- ------------ -------------------------- --- -------- --------------------- ------------------------------- 
25     conv2d_25 (Conv2D, DEPTHWISE_CONV_2D)          [b:1,h:60,w:60,c:32]     320/416              1,036,832                   nl_24_nl   |                                Pad_/Conv2D_[34, 35]            
       nl_25_nl (Nonlinearity, DEPTHWISE_CONV_2D)     [b:1,h:60,w:60,c:32]                            115,200                  conv2d_25   |          -115,200(-100.0%)     
------ ---------------------------------------------- ------------------------ ----------------- ------------ -------------------------- --- -------- --------------------- ------------------------------- 
26     conv2d_26 (Conv2D, CONV_2D)                    [b:1,h:60,w:60,c:32]     1,056/1,152          3,686,432                   nl_25_nl   |                                Conv2D_[36]                     
       nl_26_nl (Nonlinearity, CONV_2D)               [b:1,h:60,w:60,c:32]                            115,200                  conv2d_26   |          -115,200(-100.0%)     
------ ---------------------------------------------- ------------------------ ----------------- ------------ -------------------------- --- -------- --------------------- ------------------------------- 
27     eltwise_27 (Eltwise, ADD)                      [b:1,h:60,w:60,c:32]                            115,200                   nl_23_nl   |                                Eltwise/add_[37]                
                                                                                                                                nl_26_nl   | 
------ ---------------------------------------------- ------------------------ ----------------- ------------ -------------------------- --- -------- --------------------- ------------------------------- 
28     conv2d_28 (Conv2D, CONV_2D)                    [b:1,h:60,w:60,c:32]     1,056/1,152          3,686,432                 eltwise_27   |                                Conv2D_[38]                     
       nl_28_nl (Nonlinearity, CONV_2D)               [b:1,h:60,w:60,c:32]                            115,200                  conv2d_28   |          -115,200(-100.0%)     
------ ---------------------------------------------- ------------------------ ----------------- ------------ -------------------------- --- -------- --------------------- ------------------------------- 
29     conv2d_29 (Conv2D, DEPTHWISE_CONV_2D)          [b:1,h:60,w:60,c:32]     320/416              1,036,832                   nl_28_nl   |                                Pad_/Conv2D_[39, 40]            
       nl_29_nl (Nonlinearity, DEPTHWISE_CONV_2D)     [b:1,h:60,w:60,c:32]                            115,200                  conv2d_29   |          -115,200(-100.0%)     
------ ---------------------------------------------- ------------------------ ----------------- ------------ -------------------------- --- -------- --------------------- ------------------------------- 
30     conv2d_30 (Conv2D, CONV_2D)                    [b:1,h:60,w:60,c:32]     1,056/1,152          3,686,432                   nl_29_nl   |                                Conv2D_[41]                     
       nl_30_nl (Nonlinearity, CONV_2D)               [b:1,h:60,w:60,c:32]                            115,200                  conv2d_30   |          -115,200(-100.0%)     
------ ---------------------------------------------- ------------------------ ----------------- ------------ -------------------------- --- -------- --------------------- ------------------------------- 
31     eltwise_31 (Eltwise, ADD)                      [b:1,h:60,w:60,c:32]                            115,200                 eltwise_27   |                                Eltwise/add_[42]                
                                                                                                                                nl_30_nl   | 
------ ---------------------------------------------- ------------------------ ----------------- ------------ -------------------------- --- -------- --------------------- ------------------------------- 
32     conv2d_32 (Conv2D, CONV_2D)                    [b:1,h:60,w:60,c:32]     1,056/1,152          3,686,432                 eltwise_31   |                                Conv2D_[43]                     
       nl_32_nl (Nonlinearity, CONV_2D)               [b:1,h:60,w:60,c:32]                            115,200                  conv2d_32   |          -115,200(-100.0%)     
------ ---------------------------------------------- ------------------------ ----------------- ------------ -------------------------- --- -------- --------------------- ------------------------------- 
33     conv2d_33 (Conv2D, DEPTHWISE_CONV_2D)          [b:1,h:60,w:60,c:32]     320/416              1,036,832                   nl_32_nl   |                                Pad_/Conv2D_[44, 45]            
       nl_33_nl (Nonlinearity, DEPTHWISE_CONV_2D)     [b:1,h:60,w:60,c:32]                            115,200                  conv2d_33   |          -115,200(-100.0%)     
------ ---------------------------------------------- ------------------------ ----------------- ------------ -------------------------- --- -------- --------------------- ------------------------------- 
34     conv2d_34 (Conv2D, CONV_2D)                    [b:1,h:60,w:60,c:32]     1,056/1,152          3,686,432                   nl_33_nl   |                                Conv2D_[46]                     
       nl_34_nl (Nonlinearity, CONV_2D)               [b:1,h:60,w:60,c:32]                            115,200                  conv2d_34   |          -115,200(-100.0%)     
------ ---------------------------------------------- ------------------------ ----------------- ------------ -------------------------- --- -------- --------------------- ------------------------------- 
35     eltwise_35 (Eltwise, ADD)                      [b:1,h:60,w:60,c:32]                            115,200                 eltwise_31   |                                Eltwise/add_[47]                
                                                                                                                                nl_34_nl   | 
------ ---------------------------------------------- ------------------------ ----------------- ------------ -------------------------- --- -------- --------------------- ------------------------------- 
36     conv2d_36 (Conv2D, CONV_2D)                    [b:1,h:60,w:60,c:32]     1,056/1,152          3,686,432                 eltwise_35   |                                Conv2D_[48]                     
       nl_36_nl (Nonlinearity, CONV_2D)               [b:1,h:60,w:60,c:32]                            115,200                  conv2d_36   |          -115,200(-100.0%)     
------ ---------------------------------------------- ------------------------ ----------------- ------------ -------------------------- --- -------- --------------------- ------------------------------- 
37     conv2d_37 (Conv2D, DEPTHWISE_CONV_2D)          [b:1,h:60,w:60,c:32]     320/416              1,036,832                   nl_36_nl   |                                Pad_/Conv2D_[49, 50]            
       nl_37_nl (Nonlinearity, DEPTHWISE_CONV_2D)     [b:1,h:60,w:60,c:32]                            115,200                  conv2d_37   |          -115,200(-100.0%)     
------ ---------------------------------------------- ------------------------ ----------------- ------------ -------------------------- --- -------- --------------------- ------------------------------- 
38     conv2d_38 (Conv2D, CONV_2D)                    [b:1,h:60,w:60,c:32]     1,056/1,152          3,686,432                   nl_37_nl   |                                Conv2D_[51]                     
       nl_38_nl (Nonlinearity, CONV_2D)               [b:1,h:60,w:60,c:32]                            115,200                  conv2d_38   |          -115,200(-100.0%)     
------ ---------------------------------------------- ------------------------ ----------------- ------------ -------------------------- --- -------- --------------------- ------------------------------- 
39     eltwise_39 (Eltwise, ADD)                      [b:1,h:60,w:60,c:32]                            115,200                 eltwise_35   |                                Eltwise/add_[52]                
                                                                                                                                nl_38_nl   | 
------ ---------------------------------------------- ------------------------ ----------------- ------------ -------------------------- --- -------- --------------------- ------------------------------- 
40     conv2d_40 (Conv2D, CONV_2D)                    [b:1,h:60,w:60,c:32]     1,056/1,152          3,686,432                 eltwise_39   |                                Conv2D_[53]                     
       nl_40_nl (Nonlinearity, CONV_2D)               [b:1,h:60,w:60,c:32]                            115,200                  conv2d_40   |          -115,200(-100.0%)     
------ ---------------------------------------------- ------------------------ ----------------- ------------ -------------------------- --- -------- --------------------- ------------------------------- 
41     conv2d_41 (Conv2D, DEPTHWISE_CONV_2D)          [b:1,h:60,w:60,c:32]     320/416              1,036,832                   nl_40_nl   |                                Pad_/Conv2D_[54, 55]            
       nl_41_nl (Nonlinearity, DEPTHWISE_CONV_2D)     [b:1,h:60,w:60,c:32]                            115,200                  conv2d_41   |          -115,200(-100.0%)     
------ ---------------------------------------------- ------------------------ ----------------- ------------ -------------------------- --- -------- --------------------- ------------------------------- 
42     conv2d_42 (Conv2D, CONV_2D)                    [b:1,h:60,w:60,c:32]     1,056/1,152          3,686,432                   nl_41_nl   |                                Conv2D_[56]                     
       nl_42_nl (Nonlinearity, CONV_2D)               [b:1,h:60,w:60,c:32]                            115,200                  conv2d_42   |          -115,200(-100.0%)     
------ ---------------------------------------------- ------------------------ ----------------- ------------ -------------------------- --- -------- --------------------- ------------------------------- 
43     eltwise_43 (Eltwise, ADD)                      [b:1,h:60,w:60,c:32]                            115,200                 eltwise_39   |                                Eltwise/add_[57]                
                                                                                                                                nl_42_nl   | 
------ ---------------------------------------------- ------------------------ ----------------- ------------ -------------------------- --- -------- --------------------- ------------------------------- 
44     conv2d_44 (Conv2D, CONV_2D)                    [b:1,h:60,w:60,c:32]     1,056/1,152          3,686,432                 eltwise_43   |                                Conv2D_[58]                     
       nl_44_nl (Nonlinearity, CONV_2D)               [b:1,h:60,w:60,c:32]                            115,200                  conv2d_44   |          -115,200(-100.0%)     
------ ---------------------------------------------- ------------------------ ----------------- ------------ -------------------------- --- -------- --------------------- ------------------------------- 
45     conv2d_45 (Conv2D, DEPTHWISE_CONV_2D)          [b:1,h:60,w:60,c:32]     320/416              1,036,832                   nl_44_nl   |                                Pad_/Conv2D_[59, 60]            
       nl_45_nl (Nonlinearity, DEPTHWISE_CONV_2D)     [b:1,h:60,w:60,c:32]                            115,200                  conv2d_45   |          -115,200(-100.0%)     
------ ---------------------------------------------- ------------------------ ----------------- ------------ -------------------------- --- -------- --------------------- ------------------------------- 
46     conv2d_46 (Conv2D, CONV_2D)                    [b:1,h:60,w:60,c:32]     1,056/1,152          3,686,432                   nl_45_nl   |                                Conv2D_[61]                     
       nl_46_nl (Nonlinearity, CONV_2D)               [b:1,h:60,w:60,c:32]                            115,200                  conv2d_46   |          -115,200(-100.0%)     
------ ---------------------------------------------- ------------------------ ----------------- ------------ -------------------------- --- -------- --------------------- ------------------------------- 
47     eltwise_47 (Eltwise, ADD)                      [b:1,h:60,w:60,c:32]                            115,200                 eltwise_43   |                                Eltwise/add_[62]                
                                                                                                                                nl_46_nl   | 
------ ---------------------------------------------- ------------------------ ----------------- ------------ -------------------------- --- -------- --------------------- ------------------------------- 
48     conv2d_48 (Conv2D, CONV_2D)                    [b:1,h:60,w:60,c:32]     1,056/1,152          3,686,432                 eltwise_47   |                                Conv2D_[63]                     
       nl_48_nl (Nonlinearity, CONV_2D)               [b:1,h:60,w:60,c:32]                            115,200                  conv2d_48   |          -115,200(-100.0%)     
------ ---------------------------------------------- ------------------------ ----------------- ------------ -------------------------- --- -------- --------------------- ------------------------------- 
49     conv2d_49 (Conv2D, DEPTHWISE_CONV_2D)          [b:1,h:60,w:60,c:32]     320/416              1,036,832                   nl_48_nl   |                                Pad_/Conv2D_[64, 65]            
       nl_49_nl (Nonlinearity, DEPTHWISE_CONV_2D)     [b:1,h:60,w:60,c:32]                            115,200                  conv2d_49   |          -115,200(-100.0%)     
------ ---------------------------------------------- ------------------------ ----------------- ------------ -------------------------- --- -------- --------------------- ------------------------------- 
50     conv2d_50 (Conv2D, CONV_2D)                    [b:1,h:60,w:60,c:32]     1,056/1,152          3,686,432                   nl_49_nl   |                                Conv2D_[66]                     
       nl_50_nl (Nonlinearity, CONV_2D)               [b:1,h:60,w:60,c:32]                            115,200                  conv2d_50   |          -115,200(-100.0%)     
------ ---------------------------------------------- ------------------------ ----------------- ------------ -------------------------- --- -------- --------------------- ------------------------------- 
51     eltwise_51 (Eltwise, ADD)                      [b:1,h:60,w:60,c:32]                            115,200                 eltwise_47   |                                Eltwise/add_[67]                
                                                                                                                                nl_50_nl   | 
------ ---------------------------------------------- ------------------------ ----------------- ------------ -------------------------- --- -------- --------------------- ------------------------------- 
52     conv2d_52 (Conv2D, CONV_2D)                    [b:1,h:60,w:60,c:32]     1,056/1,152          3,686,432                 eltwise_51   |                                Conv2D_[68]                     
       nl_52_nl (Nonlinearity, CONV_2D)               [b:1,h:60,w:60,c:32]                            115,200                  conv2d_52   |          -115,200(-100.0%)     
------ ---------------------------------------------- ------------------------ ----------------- ------------ -------------------------- --- -------- --------------------- ------------------------------- 
53     conv2d_53 (Conv2D, DEPTHWISE_CONV_2D)          [b:1,h:60,w:60,c:32]     320/416              1,036,832                   nl_52_nl   |                                Pad_/Conv2D_[69, 70]            
       nl_53_nl (Nonlinearity, DEPTHWISE_CONV_2D)     [b:1,h:60,w:60,c:32]                            115,200                  conv2d_53   |          -115,200(-100.0%)     
------ ---------------------------------------------- ------------------------ ----------------- ------------ -------------------------- --- -------- --------------------- ------------------------------- 
54     conv2d_54 (Conv2D, CONV_2D)                    [b:1,h:60,w:60,c:32]     1,056/1,152          3,686,432                   nl_53_nl   |                                Conv2D_[71]                     
       nl_54_nl (Nonlinearity, CONV_2D)               [b:1,h:60,w:60,c:32]                            115,200                  conv2d_54   |          -115,200(-100.0%)     
------ ---------------------------------------------- ------------------------ ----------------- ------------ -------------------------- --- -------- --------------------- ------------------------------- 
55     eltwise_55 (Eltwise, ADD)                      [b:1,h:60,w:60,c:32]                            115,200                 eltwise_51   |                                Eltwise/add_[72]                
                                                                                                                                nl_54_nl   | 
------ ---------------------------------------------- ------------------------ ----------------- ------------ -------------------------- --- -------- --------------------- ------------------------------- 
56     conv2d_56 (Conv2D, CONV_2D)                    [b:1,h:60,w:60,c:32]     1,056/1,152          3,686,432                 eltwise_55   |                                Conv2D_[73]                     
       nl_56_nl (Nonlinearity, CONV_2D)               [b:1,h:60,w:60,c:32]                            115,200                  conv2d_56   |          -115,200(-100.0%)     
------ ---------------------------------------------- ------------------------ ----------------- ------------ -------------------------- --- -------- --------------------- ------------------------------- 
57     conv2d_57 (Conv2D, DEPTHWISE_CONV_2D)          [b:1,h:60,w:60,c:32]     320/416              1,036,832                   nl_56_nl   |                                Pad_/Conv2D_[74, 75]            
       nl_57_nl (Nonlinearity, DEPTHWISE_CONV_2D)     [b:1,h:60,w:60,c:32]                            115,200                  conv2d_57   |          -115,200(-100.0%)     
------ ---------------------------------------------- ------------------------ ----------------- ------------ -------------------------- --- -------- --------------------- ------------------------------- 
58     conv2d_58 (Conv2D, CONV_2D)                    [b:1,h:60,w:60,c:32]     1,056/1,152          3,686,432                   nl_57_nl   |                                Conv2D_[76]                     
       nl_58_nl (Nonlinearity, CONV_2D)               [b:1,h:60,w:60,c:32]                            115,200                  conv2d_58   |          -115,200(-100.0%)     
------ ---------------------------------------------- ------------------------ ----------------- ------------ -------------------------- --- -------- --------------------- ------------------------------- 
59     eltwise_59 (Eltwise, ADD)                      [b:1,h:60,w:60,c:32]                            115,200                 eltwise_55   |                                Eltwise/add_[77]                
                                                                                                                                nl_58_nl   | 
------ ---------------------------------------------- ------------------------ ----------------- ------------ -------------------------- --- -------- --------------------- ------------------------------- 
60     conv2d_60 (Conv2D, CONV_2D)                    [b:1,h:60,w:60,c:32]     2,080/2,176          7,372,832                   nl_22_nl   |          +230,400(+3.1%)       Conv2D_/Nonlinearity_[30, 31]   
       nl_60_nl (Nonlinearity, CONV_2D)               [b:1,h:60,w:60,c:32]                            115,200                  conv2d_60   |          -115,200(-100.0%)     
------ ---------------------------------------------- ------------------------ ----------------- ------------ -------------------------- --- -------- --------------------- ------------------------------- 
61     concat_61 (Concat, CONCATENATION)              [b:1,h:60,w:60,c:64]                                                    eltwise_59   |                                Concat_[78]                     
                                                                                                                                nl_60_nl   | 
------ ---------------------------------------------- ------------------------ ----------------- ------------ -------------------------- --- -------- --------------------- ------------------------------- 
62     conv2d_62 (Conv2D, CONV_2D)                    [b:1,h:60,w:60,c:64]     4,160/4,352         14,745,664                  concat_61   |                                Conv2D_[79]                     
       nl_62_nl (Nonlinearity, CONV_2D)               [b:1,h:60,w:60,c:64]                            230,400                  conv2d_62   |          -230,400(-100.0%)     
------ ---------------------------------------------- ------------------------ ----------------- ------------ -------------------------- --- -------- --------------------- ------------------------------- 
63     conv2d_63 (Conv2D, DEPTHWISE_CONV_2D)          [b:1,h:30,w:30,c:64]     640/832                518,464                   nl_62_nl   |                                Pad_/Conv2D_[80, 81]            
       nl_63_nl (Nonlinearity, DEPTHWISE_CONV_2D)     [b:1,h:30,w:30,c:64]                             57,600                  conv2d_63   |          -57,600(-100.0%)      
------ ---------------------------------------------- ------------------------ ----------------- ------------ -------------------------- --- -------- --------------------- ------------------------------- 
64     conv2d_64 (Conv2D, CONV_2D)                    [b:1,h:30,w:30,c:128]    8,320/8,704          7,372,928                   nl_63_nl   |                                Conv2D_[82]                     
       nl_64_nl (Nonlinearity, CONV_2D)               [b:1,h:30,w:30,c:128]                           115,200                  conv2d_64   |          -115,200(-100.0%)     
------ ---------------------------------------------- ------------------------ ----------------- ------------ -------------------------- --- -------- --------------------- ------------------------------- 
65     conv2d_65 (Conv2D, CONV_2D)                    [b:1,h:30,w:30,c:64]     8,256/8,448          7,372,864                   nl_64_nl   |                                Conv2D_[85]                     
       nl_65_nl (Nonlinearity, CONV_2D)               [b:1,h:30,w:30,c:64]                             57,600                  conv2d_65   |          -57,600(-100.0%)      
------ ---------------------------------------------- ------------------------ ----------------- ------------ -------------------------- --- -------- --------------------- ------------------------------- 
66     conv2d_66 (Conv2D, CONV_2D)                    [b:1,h:30,w:30,c:64]     4,160/4,352          3,686,464                   nl_65_nl   |                                Conv2D_[86]                     
       nl_66_nl (Nonlinearity, CONV_2D)               [b:1,h:30,w:30,c:64]                             57,600                  conv2d_66   |          -57,600(-100.0%)      
------ ---------------------------------------------- ------------------------ ----------------- ------------ -------------------------- --- -------- --------------------- ------------------------------- 
67     conv2d_67 (Conv2D, DEPTHWISE_CONV_2D)          [b:1,h:30,w:30,c:64]     640/832                518,464                   nl_66_nl   |                                Pad_/Conv2D_[87, 88]            
       nl_67_nl (Nonlinearity, DEPTHWISE_CONV_2D)     [b:1,h:30,w:30,c:64]                             57,600                  conv2d_67   |          -57,600(-100.0%)      
------ ---------------------------------------------- ------------------------ ----------------- ------------ -------------------------- --- -------- --------------------- ------------------------------- 
68     conv2d_68 (Conv2D, CONV_2D)                    [b:1,h:30,w:30,c:64]     4,160/4,352          3,686,464                   nl_67_nl   |                                Conv2D_[89]                     
       nl_68_nl (Nonlinearity, CONV_2D)               [b:1,h:30,w:30,c:64]                             57,600                  conv2d_68   |          -57,600(-100.0%)      
------ ---------------------------------------------- ------------------------ ----------------- ------------ -------------------------- --- -------- --------------------- ------------------------------- 
69     eltwise_69 (Eltwise, ADD)                      [b:1,h:30,w:30,c:64]                             57,600                   nl_65_nl   |                                Eltwise/add_[90]                
                                                                                                                                nl_68_nl   | 
------ ---------------------------------------------- ------------------------ ----------------- ------------ -------------------------- --- -------- --------------------- ------------------------------- 
70     conv2d_70 (Conv2D, CONV_2D)                    [b:1,h:30,w:30,c:64]     4,160/4,352          3,686,464                 eltwise_69   |                                Conv2D_[91]                     
       nl_70_nl (Nonlinearity, CONV_2D)               [b:1,h:30,w:30,c:64]                             57,600                  conv2d_70   |          -57,600(-100.0%)      
------ ---------------------------------------------- ------------------------ ----------------- ------------ -------------------------- --- -------- --------------------- ------------------------------- 
71     conv2d_71 (Conv2D, DEPTHWISE_CONV_2D)          [b:1,h:30,w:30,c:64]     640/832                518,464                   nl_70_nl   |                                Pad_/Conv2D_[92, 93]            
       nl_71_nl (Nonlinearity, DEPTHWISE_CONV_2D)     [b:1,h:30,w:30,c:64]                             57,600                  conv2d_71   |          -57,600(-100.0%)      
------ ---------------------------------------------- ------------------------ ----------------- ------------ -------------------------- --- -------- --------------------- ------------------------------- 
72     conv2d_72 (Conv2D, CONV_2D)                    [b:1,h:30,w:30,c:64]     4,160/4,352          3,686,464                   nl_71_nl   |                                Conv2D_[94]                     
       nl_72_nl (Nonlinearity, CONV_2D)               [b:1,h:30,w:30,c:64]                             57,600                  conv2d_72   |          -57,600(-100.0%)      
------ ---------------------------------------------- ------------------------ ----------------- ------------ -------------------------- --- -------- --------------------- ------------------------------- 
73     eltwise_73 (Eltwise, ADD)                      [b:1,h:30,w:30,c:64]                             57,600                 eltwise_69   |                                Eltwise/add_[95]                
                                                                                                                                nl_72_nl   | 
------ ---------------------------------------------- ------------------------ ----------------- ------------ -------------------------- --- -------- --------------------- ------------------------------- 
74     conv2d_74 (Conv2D, CONV_2D)                    [b:1,h:30,w:30,c:64]     4,160/4,352          3,686,464                 eltwise_73   |                                Conv2D_[96]                     
       nl_74_nl (Nonlinearity, CONV_2D)               [b:1,h:30,w:30,c:64]                             57,600                  conv2d_74   |          -57,600(-100.0%)      
------ ---------------------------------------------- ------------------------ ----------------- ------------ -------------------------- --- -------- --------------------- ------------------------------- 
75     conv2d_75 (Conv2D, DEPTHWISE_CONV_2D)          [b:1,h:30,w:30,c:64]     640/832                518,464                   nl_74_nl   |                                Pad_/Conv2D_[97, 98]            
       nl_75_nl (Nonlinearity, DEPTHWISE_CONV_2D)     [b:1,h:30,w:30,c:64]                             57,600                  conv2d_75   |          -57,600(-100.0%)      
------ ---------------------------------------------- ------------------------ ----------------- ------------ -------------------------- --- -------- --------------------- ------------------------------- 
76     conv2d_76 (Conv2D, CONV_2D)                    [b:1,h:30,w:30,c:64]     4,160/4,352          3,686,464                   nl_75_nl   |                                Conv2D_[99]                     
       nl_76_nl (Nonlinearity, CONV_2D)               [b:1,h:30,w:30,c:64]                             57,600                  conv2d_76   |          -57,600(-100.0%)      
------ ---------------------------------------------- ------------------------ ----------------- ------------ -------------------------- --- -------- --------------------- ------------------------------- 
77     eltwise_77 (Eltwise, ADD)                      [b:1,h:30,w:30,c:64]                             57,600                 eltwise_73   |                                Eltwise/add_[100]               
                                                                                                                                nl_76_nl   | 
------ ---------------------------------------------- ------------------------ ----------------- ------------ -------------------------- --- -------- --------------------- ------------------------------- 
78     conv2d_78 (Conv2D, CONV_2D)                    [b:1,h:30,w:30,c:64]     4,160/4,352          3,686,464                 eltwise_77   |                                Conv2D_[101]                    
       nl_78_nl (Nonlinearity, CONV_2D)               [b:1,h:30,w:30,c:64]                             57,600                  conv2d_78   |          -57,600(-100.0%)      
------ ---------------------------------------------- ------------------------ ----------------- ------------ -------------------------- --- -------- --------------------- ------------------------------- 
79     conv2d_79 (Conv2D, DEPTHWISE_CONV_2D)          [b:1,h:30,w:30,c:64]     640/832                518,464                   nl_78_nl   |                                Pad_/Conv2D_[102, 103]          
       nl_79_nl (Nonlinearity, DEPTHWISE_CONV_2D)     [b:1,h:30,w:30,c:64]                             57,600                  conv2d_79   |          -57,600(-100.0%)      
------ ---------------------------------------------- ------------------------ ----------------- ------------ -------------------------- --- -------- --------------------- ------------------------------- 
80     conv2d_80 (Conv2D, CONV_2D)                    [b:1,h:30,w:30,c:64]     4,160/4,352          3,686,464                   nl_79_nl   |                                Conv2D_[104]                    
       nl_80_nl (Nonlinearity, CONV_2D)               [b:1,h:30,w:30,c:64]                             57,600                  conv2d_80   |          -57,600(-100.0%)      
------ ---------------------------------------------- ------------------------ ----------------- ------------ -------------------------- --- -------- --------------------- ------------------------------- 
81     eltwise_81 (Eltwise, ADD)                      [b:1,h:30,w:30,c:64]                             57,600                 eltwise_77   |                                Eltwise/add_[105]               
                                                                                                                                nl_80_nl   | 
------ ---------------------------------------------- ------------------------ ----------------- ------------ -------------------------- --- -------- --------------------- ------------------------------- 
82     conv2d_82 (Conv2D, CONV_2D)                    [b:1,h:30,w:30,c:64]     4,160/4,352          3,686,464                 eltwise_81   |                                Conv2D_[106]                    
       nl_82_nl (Nonlinearity, CONV_2D)               [b:1,h:30,w:30,c:64]                             57,600                  conv2d_82   |          -57,600(-100.0%)      
------ ---------------------------------------------- ------------------------ ----------------- ------------ -------------------------- --- -------- --------------------- ------------------------------- 
83     conv2d_83 (Conv2D, DEPTHWISE_CONV_2D)          [b:1,h:30,w:30,c:64]     640/832                518,464                   nl_82_nl   |                                Pad_/Conv2D_[107, 108]          
       nl_83_nl (Nonlinearity, DEPTHWISE_CONV_2D)     [b:1,h:30,w:30,c:64]                             57,600                  conv2d_83   |          -57,600(-100.0%)      
------ ---------------------------------------------- ------------------------ ----------------- ------------ -------------------------- --- -------- --------------------- ------------------------------- 
84     conv2d_84 (Conv2D, CONV_2D)                    [b:1,h:30,w:30,c:64]     4,160/4,352          3,686,464                   nl_83_nl   |                                Conv2D_[109]                    
       nl_84_nl (Nonlinearity, CONV_2D)               [b:1,h:30,w:30,c:64]                             57,600                  conv2d_84   |          -57,600(-100.0%)      
------ ---------------------------------------------- ------------------------ ----------------- ------------ -------------------------- --- -------- --------------------- ------------------------------- 
85     eltwise_85 (Eltwise, ADD)                      [b:1,h:30,w:30,c:64]                             57,600                 eltwise_81   |                                Eltwise/add_[110]               
                                                                                                                                nl_84_nl   | 
------ ---------------------------------------------- ------------------------ ----------------- ------------ -------------------------- --- -------- --------------------- ------------------------------- 
86     conv2d_86 (Conv2D, CONV_2D)                    [b:1,h:30,w:30,c:64]     4,160/4,352          3,686,464                 eltwise_85   |                                Conv2D_[111]                    
       nl_86_nl (Nonlinearity, CONV_2D)               [b:1,h:30,w:30,c:64]                             57,600                  conv2d_86   |          -57,600(-100.0%)      
------ ---------------------------------------------- ------------------------ ----------------- ------------ -------------------------- --- -------- --------------------- ------------------------------- 
87     conv2d_87 (Conv2D, DEPTHWISE_CONV_2D)          [b:1,h:30,w:30,c:64]     640/832                518,464                   nl_86_nl   |                                Pad_/Conv2D_[112, 113]          
       nl_87_nl (Nonlinearity, DEPTHWISE_CONV_2D)     [b:1,h:30,w:30,c:64]                             57,600                  conv2d_87   |          -57,600(-100.0%)      
------ ---------------------------------------------- ------------------------ ----------------- ------------ -------------------------- --- -------- --------------------- ------------------------------- 
88     conv2d_88 (Conv2D, CONV_2D)                    [b:1,h:30,w:30,c:64]     4,160/4,352          3,686,464                   nl_87_nl   |                                Conv2D_[114]                    
       nl_88_nl (Nonlinearity, CONV_2D)               [b:1,h:30,w:30,c:64]                             57,600                  conv2d_88   |          -57,600(-100.0%)      
------ ---------------------------------------------- ------------------------ ----------------- ------------ -------------------------- --- -------- --------------------- ------------------------------- 
89     eltwise_89 (Eltwise, ADD)                      [b:1,h:30,w:30,c:64]                             57,600                 eltwise_85   |                                Eltwise/add_[115]               
                                                                                                                                nl_88_nl   | 
------ ---------------------------------------------- ------------------------ ----------------- ------------ -------------------------- --- -------- --------------------- ------------------------------- 
90     conv2d_90 (Conv2D, CONV_2D)                    [b:1,h:30,w:30,c:64]     4,160/4,352          3,686,464                 eltwise_89   |                                Conv2D_[116]                    
       nl_90_nl (Nonlinearity, CONV_2D)               [b:1,h:30,w:30,c:64]                             57,600                  conv2d_90   |          -57,600(-100.0%)      
------ ---------------------------------------------- ------------------------ ----------------- ------------ -------------------------- --- -------- --------------------- ------------------------------- 
91     conv2d_91 (Conv2D, DEPTHWISE_CONV_2D)          [b:1,h:30,w:30,c:64]     640/832                518,464                   nl_90_nl   |                                Pad_/Conv2D_[117, 118]          
       nl_91_nl (Nonlinearity, DEPTHWISE_CONV_2D)     [b:1,h:30,w:30,c:64]                             57,600                  conv2d_91   |          -57,600(-100.0%)      
------ ---------------------------------------------- ------------------------ ----------------- ------------ -------------------------- --- -------- --------------------- ------------------------------- 
92     conv2d_92 (Conv2D, CONV_2D)                    [b:1,h:30,w:30,c:64]     4,160/4,352          3,686,464                   nl_91_nl   |                                Conv2D_[119]                    
       nl_92_nl (Nonlinearity, CONV_2D)               [b:1,h:30,w:30,c:64]                             57,600                  conv2d_92   |          -57,600(-100.0%)      
------ ---------------------------------------------- ------------------------ ----------------- ------------ -------------------------- --- -------- --------------------- ------------------------------- 
93     eltwise_93 (Eltwise, ADD)                      [b:1,h:30,w:30,c:64]                             57,600                 eltwise_89   |                                Eltwise/add_[120]               
                                                                                                                                nl_92_nl   | 
------ ---------------------------------------------- ------------------------ ----------------- ------------ -------------------------- --- -------- --------------------- ------------------------------- 
94     conv2d_94 (Conv2D, CONV_2D)                    [b:1,h:30,w:30,c:64]     4,160/4,352          3,686,464                 eltwise_93   |                                Conv2D_[121]                    
       nl_94_nl (Nonlinearity, CONV_2D)               [b:1,h:30,w:30,c:64]                             57,600                  conv2d_94   |          -57,600(-100.0%)      
------ ---------------------------------------------- ------------------------ ----------------- ------------ -------------------------- --- -------- --------------------- ------------------------------- 
95     conv2d_95 (Conv2D, DEPTHWISE_CONV_2D)          [b:1,h:30,w:30,c:64]     640/832                518,464                   nl_94_nl   |                                Pad_/Conv2D_[122, 123]          
       nl_95_nl (Nonlinearity, DEPTHWISE_CONV_2D)     [b:1,h:30,w:30,c:64]                             57,600                  conv2d_95   |          -57,600(-100.0%)      
------ ---------------------------------------------- ------------------------ ----------------- ------------ -------------------------- --- -------- --------------------- ------------------------------- 
96     conv2d_96 (Conv2D, CONV_2D)                    [b:1,h:30,w:30,c:64]     4,160/4,352          3,686,464                   nl_95_nl   |                                Conv2D_[124]                    
       nl_96_nl (Nonlinearity, CONV_2D)               [b:1,h:30,w:30,c:64]                             57,600                  conv2d_96   |          -57,600(-100.0%)      
------ ---------------------------------------------- ------------------------ ----------------- ------------ -------------------------- --- -------- --------------------- ------------------------------- 
97     eltwise_97 (Eltwise, ADD)                      [b:1,h:30,w:30,c:64]                             57,600                 eltwise_93   |                                Eltwise/add_[125]               
                                                                                                                                nl_96_nl   | 
------ ---------------------------------------------- ------------------------ ----------------- ------------ -------------------------- --- -------- --------------------- ------------------------------- 
98     conv2d_98 (Conv2D, CONV_2D)                    [b:1,h:30,w:30,c:64]     4,160/4,352          3,686,464                 eltwise_97   |                                Conv2D_[126]                    
       nl_98_nl (Nonlinearity, CONV_2D)               [b:1,h:30,w:30,c:64]                             57,600                  conv2d_98   |          -57,600(-100.0%)      
------ ---------------------------------------------- ------------------------ ----------------- ------------ -------------------------- --- -------- --------------------- ------------------------------- 
99     conv2d_99 (Conv2D, DEPTHWISE_CONV_2D)          [b:1,h:30,w:30,c:64]     640/832                518,464                   nl_98_nl   |                                Pad_/Conv2D_[127, 128]          
       nl_99_nl (Nonlinearity, DEPTHWISE_CONV_2D)     [b:1,h:30,w:30,c:64]                             57,600                  conv2d_99   |          -57,600(-100.0%)      
------ ---------------------------------------------- ------------------------ ----------------- ------------ -------------------------- --- -------- --------------------- ------------------------------- 
100    conv2d_100 (Conv2D, CONV_2D)                   [b:1,h:30,w:30,c:64]     4,160/4,352          3,686,464                   nl_99_nl   |                                Conv2D_[129]                    
       nl_100_nl (Nonlinearity, CONV_2D)              [b:1,h:30,w:30,c:64]                             57,600                 conv2d_100   |          -57,600(-100.0%)      
------ ---------------------------------------------- ------------------------ ----------------- ------------ -------------------------- --- -------- --------------------- ------------------------------- 
101    eltwise_101 (Eltwise, ADD)                     [b:1,h:30,w:30,c:64]                             57,600                 eltwise_97   |                                Eltwise/add_[130]               
                                                                                                                               nl_100_nl   | 
------ ---------------------------------------------- ------------------------ ----------------- ------------ -------------------------- --- -------- --------------------- ------------------------------- 
102    conv2d_102 (Conv2D, CONV_2D)                   [b:1,h:30,w:30,c:64]     8,256/8,448          7,372,864                   nl_64_nl   |          +115,200(+1.6%)       Conv2D_/Nonlinearity_[83, 84]   
       nl_102_nl (Nonlinearity, CONV_2D)              [b:1,h:30,w:30,c:64]                             57,600                 conv2d_102   |          -57,600(-100.0%)      
------ ---------------------------------------------- ------------------------ ----------------- ------------ -------------------------- --- -------- --------------------- ------------------------------- 
103    concat_103 (Concat, CONCATENATION)             [b:1,h:30,w:30,c:128]                                                  eltwise_101   |                                Concat_[131]                    
                                                                                                                               nl_102_nl   | 
------ ---------------------------------------------- ------------------------ ----------------- ------------ -------------------------- --- -------- --------------------- ------------------------------- 
104    conv2d_104 (Conv2D, CONV_2D)                   [b:1,h:30,w:30,c:128]    16,512/16,896       14,745,728                 concat_103   |                                Conv2D_[132]                    
       nl_104_nl (Nonlinearity, CONV_2D)              [b:1,h:30,w:30,c:128]                           115,200                 conv2d_104   |          -115,200(-100.0%)     
------ ---------------------------------------------- ------------------------ ----------------- ------------ -------------------------- --- -------- --------------------- ------------------------------- 
105    conv2d_105 (Conv2D, DEPTHWISE_CONV_2D)         [b:1,h:15,w:15,c:128]    1,280/1,664            259,328                  nl_104_nl   |                                Pad_/Conv2D_[133, 134]          
       nl_105_nl (Nonlinearity, DEPTHWISE_CONV_2D)    [b:1,h:15,w:15,c:128]                            28,800                 conv2d_105   |          -28,800(-100.0%)      
------ ---------------------------------------------- ------------------------ ----------------- ------------ -------------------------- --- -------- --------------------- ------------------------------- 
106    conv2d_106 (Conv2D, CONV_2D)                   [b:1,h:15,w:15,c:256]    33,024/33,792        7,373,056                  nl_105_nl   |                                Conv2D_[135]                    
       nl_106_nl (Nonlinearity, CONV_2D)              [b:1,h:15,w:15,c:256]                            57,600                 conv2d_106   |          -57,600(-100.0%)      
------ ---------------------------------------------- ------------------------ ----------------- ------------ -------------------------- --- -------- --------------------- ------------------------------- 
107    conv2d_107 (Conv2D, CONV_2D)                   [b:1,h:15,w:15,c:128]    32,896/33,280        7,372,928                  nl_106_nl   |                                Conv2D_[136]                    
       nl_107_nl (Nonlinearity, CONV_2D)              [b:1,h:15,w:15,c:128]                            28,800                 conv2d_107   |          -28,800(-100.0%)      
------ ---------------------------------------------- ------------------------ ----------------- ------------ -------------------------- --- -------- --------------------- ------------------------------- 
108    pool_108 (Pool, MAX_POOL_2D)                   [b:1,h:15,w:15,c:128]                           720,000                  nl_107_nl   |                                Pool_[139]                      
------ ---------------------------------------------- ------------------------ ----------------- ------------ -------------------------- --- -------- --------------------- ------------------------------- 
109    pool_109 (Pool, MAX_POOL_2D)                   [b:1,h:15,w:15,c:128]                         2,332,800                  nl_107_nl   |                                Pool_[138]                      
------ ---------------------------------------------- ------------------------ ----------------- ------------ -------------------------- --- -------- --------------------- ------------------------------- 
110    pool_110 (Pool, MAX_POOL_2D)                   [b:1,h:15,w:15,c:128]                         4,867,200                  nl_107_nl   |                                Pool_[137]                      
------ ---------------------------------------------- ------------------------ ----------------- ------------ -------------------------- --- -------- --------------------- ------------------------------- 
111    concat_111 (Concat, CONCATENATION)             [b:1,h:15,w:15,c:512]                                                    nl_107_nl   |                                Concat_[140]                    
                                                                                                                                pool_108   | 
                                                                                                                                pool_109   | 
                                                                                                                                pool_110   | 
------ ---------------------------------------------- ------------------------ ----------------- ------------ -------------------------- --- -------- --------------------- ------------------------------- 
112    conv2d_112 (Conv2D, CONV_2D)                   [b:1,h:15,w:15,c:256]    131,328/132,096     29,491,456                 concat_111   |                                Conv2D_[141]                    
       nl_112_nl (Nonlinearity, CONV_2D)              [b:1,h:15,w:15,c:256]                            57,600                 conv2d_112   |          -57,600(-100.0%)      
------ ---------------------------------------------- ------------------------ ----------------- ------------ -------------------------- --- -------- --------------------- ------------------------------- 
113    conv2d_113 (Conv2D, CONV_2D)                   [b:1,h:15,w:15,c:128]    32,896/33,280        7,372,928                  nl_112_nl   |                                Conv2D_[143]                    
       nl_113_nl (Nonlinearity, CONV_2D)              [b:1,h:15,w:15,c:128]                            28,800                 conv2d_113   |          -28,800(-100.0%)      
------ ---------------------------------------------- ------------------------ ----------------- ------------ -------------------------- --- -------- --------------------- ------------------------------- 
114    conv2d_114 (Conv2D, CONV_2D)                   [b:1,h:15,w:15,c:128]    16,512/16,896        3,686,528                  nl_113_nl   |                                Conv2D_[144]                    
       nl_114_nl (Nonlinearity, CONV_2D)              [b:1,h:15,w:15,c:128]                            28,800                 conv2d_114   |          -28,800(-100.0%)      
------ ---------------------------------------------- ------------------------ ----------------- ------------ -------------------------- --- -------- --------------------- ------------------------------- 
115    conv2d_115 (Conv2D, DEPTHWISE_CONV_2D)         [b:1,h:15,w:15,c:128]    1,280/1,664            259,328                  nl_114_nl   |                                Pad_/Conv2D_[145, 146]          
       nl_115_nl (Nonlinearity, DEPTHWISE_CONV_2D)    [b:1,h:15,w:15,c:128]                            28,800                 conv2d_115   |          -28,800(-100.0%)      
------ ---------------------------------------------- ------------------------ ----------------- ------------ -------------------------- --- -------- --------------------- ------------------------------- 
116    conv2d_116 (Conv2D, CONV_2D)                   [b:1,h:15,w:15,c:128]    16,512/16,896        3,686,528                  nl_115_nl   |                                Conv2D_[147]                    
       nl_116_nl (Nonlinearity, CONV_2D)              [b:1,h:15,w:15,c:128]                            28,800                 conv2d_116   |          -28,800(-100.0%)      
------ ---------------------------------------------- ------------------------ ----------------- ------------ -------------------------- --- -------- --------------------- ------------------------------- 
117    conv2d_117 (Conv2D, CONV_2D)                   [b:1,h:15,w:15,c:128]    16,512/16,896        3,686,528                  nl_116_nl   |                                Conv2D_[148]                    
       nl_117_nl (Nonlinearity, CONV_2D)              [b:1,h:15,w:15,c:128]                            28,800                 conv2d_117   |          -28,800(-100.0%)      
------ ---------------------------------------------- ------------------------ ----------------- ------------ -------------------------- --- -------- --------------------- ------------------------------- 
118    conv2d_118 (Conv2D, DEPTHWISE_CONV_2D)         [b:1,h:15,w:15,c:128]    1,280/1,664            259,328                  nl_117_nl   |                                Pad_/Conv2D_[149, 150]          
       nl_118_nl (Nonlinearity, DEPTHWISE_CONV_2D)    [b:1,h:15,w:15,c:128]                            28,800                 conv2d_118   |          -28,800(-100.0%)      
------ ---------------------------------------------- ------------------------ ----------------- ------------ -------------------------- --- -------- --------------------- ------------------------------- 
119    conv2d_119 (Conv2D, CONV_2D)                   [b:1,h:15,w:15,c:128]    16,512/16,896        3,686,528                  nl_118_nl   |                                Conv2D_[151]                    
       nl_119_nl (Nonlinearity, CONV_2D)              [b:1,h:15,w:15,c:128]                            28,800                 conv2d_119   |          -28,800(-100.0%)      
------ ---------------------------------------------- ------------------------ ----------------- ------------ -------------------------- --- -------- --------------------- ------------------------------- 
120    conv2d_120 (Conv2D, CONV_2D)                   [b:1,h:15,w:15,c:128]    16,512/16,896        3,686,528                  nl_119_nl   |                                Conv2D_[152]                    
       nl_120_nl (Nonlinearity, CONV_2D)              [b:1,h:15,w:15,c:128]                            28,800                 conv2d_120   |          -28,800(-100.0%)      
------ ---------------------------------------------- ------------------------ ----------------- ------------ -------------------------- --- -------- --------------------- ------------------------------- 
121    conv2d_121 (Conv2D, DEPTHWISE_CONV_2D)         [b:1,h:15,w:15,c:128]    1,280/1,664            259,328                  nl_120_nl   |                                Pad_/Conv2D_[153, 154]          
       nl_121_nl (Nonlinearity, DEPTHWISE_CONV_2D)    [b:1,h:15,w:15,c:128]                            28,800                 conv2d_121   |          -28,800(-100.0%)      
------ ---------------------------------------------- ------------------------ ----------------- ------------ -------------------------- --- -------- --------------------- ------------------------------- 
122    conv2d_122 (Conv2D, CONV_2D)                   [b:1,h:15,w:15,c:128]    16,512/16,896        3,686,528                  nl_121_nl   |                                Conv2D_[155]                    
       nl_122_nl (Nonlinearity, CONV_2D)              [b:1,h:15,w:15,c:128]                            28,800                 conv2d_122   |          -28,800(-100.0%)      
------ ---------------------------------------------- ------------------------ ----------------- ------------ -------------------------- --- -------- --------------------- ------------------------------- 
123    conv2d_123 (Conv2D, CONV_2D)                   [b:1,h:15,w:15,c:128]    32,896/33,280        7,372,928                  nl_112_nl   |                                Conv2D_[142]                    
       nl_123_nl (Nonlinearity, CONV_2D)              [b:1,h:15,w:15,c:128]                            28,800                 conv2d_123   |          -28,800(-100.0%)      
------ ---------------------------------------------- ------------------------ ----------------- ------------ -------------------------- --- -------- --------------------- ------------------------------- 
124    concat_124 (Concat, CONCATENATION)             [b:1,h:15,w:15,c:256]                                                    nl_122_nl   |                                Concat_[156]                    
                                                                                                                               nl_123_nl   | 
------ ---------------------------------------------- ------------------------ ----------------- ------------ -------------------------- --- -------- --------------------- ------------------------------- 
125    conv2d_125 (Conv2D, CONV_2D)                   [b:1,h:15,w:15,c:256]    65,792/66,560       14,745,856                 concat_124   |                                Conv2D_[157]                    
       nl_125_nl (Nonlinearity, CONV_2D)              [b:1,h:15,w:15,c:256]                            57,600                 conv2d_125   |          -57,600(-100.0%)      
------ ---------------------------------------------- ------------------------ ----------------- ------------ -------------------------- --- -------- --------------------- ------------------------------- 
126    conv2d_126 (Conv2D, CONV_2D)                   [b:1,h:15,w:15,c:128]    32,896/33,280        7,372,928                  nl_125_nl   |                                Conv2D_[158]                    
       nl_126_nl (Nonlinearity, CONV_2D)              [b:1,h:15,w:15,c:128]                            28,800                 conv2d_126   |          -28,800(-100.0%)      
------ ---------------------------------------------- ------------------------ ----------------- ------------ -------------------------- --- -------- --------------------- ------------------------------- 
127    resize_127 (Resize, RESIZE_NEAREST_NEIGHBOR)   [b:1,h:30,w:30,c:128]                                                    nl_126_nl   |                                Resize_[159]                    
------ ---------------------------------------------- ------------------------ ----------------- ------------ -------------------------- --- -------- --------------------- ------------------------------- 
128    concat_128 (Concat, CONCATENATION)             [b:1,h:30,w:30,c:256]                                                   resize_127   |                                Concat_[160]                    
                                                                                                                               nl_104_nl   | 
------ ---------------------------------------------- ------------------------ ----------------- ------------ -------------------------- --- -------- --------------------- ------------------------------- 
129    conv2d_129 (Conv2D, CONV_2D)                   [b:1,h:30,w:30,c:64]     16,448/16,640       14,745,664                 concat_128   |                                Conv2D_[162]                    
       nl_129_nl (Nonlinearity, CONV_2D)              [b:1,h:30,w:30,c:64]                             57,600                 conv2d_129   |          -57,600(-100.0%)      
------ ---------------------------------------------- ------------------------ ----------------- ------------ -------------------------- --- -------- --------------------- ------------------------------- 
130    conv2d_130 (Conv2D, CONV_2D)                   [b:1,h:30,w:30,c:64]     4,160/4,352          3,686,464                  nl_129_nl   |                                Conv2D_[163]                    
       nl_130_nl (Nonlinearity, CONV_2D)              [b:1,h:30,w:30,c:64]                             57,600                 conv2d_130   |          -57,600(-100.0%)      
------ ---------------------------------------------- ------------------------ ----------------- ------------ -------------------------- --- -------- --------------------- ------------------------------- 
131    conv2d_131 (Conv2D, DEPTHWISE_CONV_2D)         [b:1,h:30,w:30,c:64]     640/832                518,464                  nl_130_nl   |                                Pad_/Conv2D_[164, 165]          
       nl_131_nl (Nonlinearity, DEPTHWISE_CONV_2D)    [b:1,h:30,w:30,c:64]                             57,600                 conv2d_131   |          -57,600(-100.0%)      
------ ---------------------------------------------- ------------------------ ----------------- ------------ -------------------------- --- -------- --------------------- ------------------------------- 
132    conv2d_132 (Conv2D, CONV_2D)                   [b:1,h:30,w:30,c:64]     4,160/4,352          3,686,464                  nl_131_nl   |                                Conv2D_[166]                    
       nl_132_nl (Nonlinearity, CONV_2D)              [b:1,h:30,w:30,c:64]                             57,600                 conv2d_132   |          -57,600(-100.0%)      
------ ---------------------------------------------- ------------------------ ----------------- ------------ -------------------------- --- -------- --------------------- ------------------------------- 
133    conv2d_133 (Conv2D, CONV_2D)                   [b:1,h:30,w:30,c:64]     4,160/4,352          3,686,464                  nl_132_nl   |                                Conv2D_[167]                    
       nl_133_nl (Nonlinearity, CONV_2D)              [b:1,h:30,w:30,c:64]                             57,600                 conv2d_133   |          -57,600(-100.0%)      
------ ---------------------------------------------- ------------------------ ----------------- ------------ -------------------------- --- -------- --------------------- ------------------------------- 
134    conv2d_134 (Conv2D, DEPTHWISE_CONV_2D)         [b:1,h:30,w:30,c:64]     640/832                518,464                  nl_133_nl   |                                Pad_/Conv2D_[168, 169]          
       nl_134_nl (Nonlinearity, DEPTHWISE_CONV_2D)    [b:1,h:30,w:30,c:64]                             57,600                 conv2d_134   |          -57,600(-100.0%)      
------ ---------------------------------------------- ------------------------ ----------------- ------------ -------------------------- --- -------- --------------------- ------------------------------- 
135    conv2d_135 (Conv2D, CONV_2D)                   [b:1,h:30,w:30,c:64]     4,160/4,352          3,686,464                  nl_134_nl   |                                Conv2D_[170]                    
       nl_135_nl (Nonlinearity, CONV_2D)              [b:1,h:30,w:30,c:64]                             57,600                 conv2d_135   |          -57,600(-100.0%)      
------ ---------------------------------------------- ------------------------ ----------------- ------------ -------------------------- --- -------- --------------------- ------------------------------- 
136    conv2d_136 (Conv2D, CONV_2D)                   [b:1,h:30,w:30,c:64]     4,160/4,352          3,686,464                  nl_135_nl   |                                Conv2D_[171]                    
       nl_136_nl (Nonlinearity, CONV_2D)              [b:1,h:30,w:30,c:64]                             57,600                 conv2d_136   |          -57,600(-100.0%)      
------ ---------------------------------------------- ------------------------ ----------------- ------------ -------------------------- --- -------- --------------------- ------------------------------- 
137    conv2d_137 (Conv2D, DEPTHWISE_CONV_2D)         [b:1,h:30,w:30,c:64]     640/832                518,464                  nl_136_nl   |                                Pad_/Conv2D_[172, 173]          
       nl_137_nl (Nonlinearity, DEPTHWISE_CONV_2D)    [b:1,h:30,w:30,c:64]                             57,600                 conv2d_137   |          -57,600(-100.0%)      
------ ---------------------------------------------- ------------------------ ----------------- ------------ -------------------------- --- -------- --------------------- ------------------------------- 
138    conv2d_138 (Conv2D, CONV_2D)                   [b:1,h:30,w:30,c:64]     4,160/4,352          3,686,464                  nl_137_nl   |                                Conv2D_[174]                    
       nl_138_nl (Nonlinearity, CONV_2D)              [b:1,h:30,w:30,c:64]                             57,600                 conv2d_138   |          -57,600(-100.0%)      
------ ---------------------------------------------- ------------------------ ----------------- ------------ -------------------------- --- -------- --------------------- ------------------------------- 
139    conv2d_139 (Conv2D, CONV_2D)                   [b:1,h:30,w:30,c:64]     16,448/16,640       14,745,664                 concat_128   |                                Conv2D_[161]                    
       nl_139_nl (Nonlinearity, CONV_2D)              [b:1,h:30,w:30,c:64]                             57,600                 conv2d_139   |          -57,600(-100.0%)      
------ ---------------------------------------------- ------------------------ ----------------- ------------ -------------------------- --- -------- --------------------- ------------------------------- 
140    concat_140 (Concat, CONCATENATION)             [b:1,h:30,w:30,c:128]                                                    nl_138_nl   |                                Concat_[175]                    
                                                                                                                               nl_139_nl   | 
------ ---------------------------------------------- ------------------------ ----------------- ------------ -------------------------- --- -------- --------------------- ------------------------------- 
141    conv2d_141 (Conv2D, CONV_2D)                   [b:1,h:30,w:30,c:128]    16,512/16,896       14,745,728                 concat_140   |                                Conv2D_[176]                    
       nl_141_nl (Nonlinearity, CONV_2D)              [b:1,h:30,w:30,c:128]                           115,200                 conv2d_141   |          -115,200(-100.0%)     
------ ---------------------------------------------- ------------------------ ----------------- ------------ -------------------------- --- -------- --------------------- ------------------------------- 
142    conv2d_142 (Conv2D, CONV_2D)                   [b:1,h:30,w:30,c:64]     8,256/8,448          7,372,864                  nl_141_nl   |                                Conv2D_[177]                    
       nl_142_nl (Nonlinearity, CONV_2D)              [b:1,h:30,w:30,c:64]                             57,600                 conv2d_142   |          -57,600(-100.0%)      
------ ---------------------------------------------- ------------------------ ----------------- ------------ -------------------------- --- -------- --------------------- ------------------------------- 
143    resize_143 (Resize, RESIZE_NEAREST_NEIGHBOR)   [b:1,h:60,w:60,c:64]                                                     nl_142_nl   |                                Resize_[178]                    
------ ---------------------------------------------- ------------------------ ----------------- ------------ -------------------------- --- -------- --------------------- ------------------------------- 
144    concat_144 (Concat, CONCATENATION)             [b:1,h:60,w:60,c:128]                                                   resize_143   |                                Concat_[179]                    
                                                                                                                                nl_62_nl   | 
------ ---------------------------------------------- ------------------------ ----------------- ------------ -------------------------- --- -------- --------------------- ------------------------------- 
145    conv2d_145 (Conv2D, CONV_2D)                   [b:1,h:60,w:60,c:32]     4,128/4,224         14,745,632                 concat_144   |                                Conv2D_[181]                    
       nl_145_nl (Nonlinearity, CONV_2D)              [b:1,h:60,w:60,c:32]                            115,200                 conv2d_145   |          -115,200(-100.0%)     
------ ---------------------------------------------- ------------------------ ----------------- ------------ -------------------------- --- -------- --------------------- ------------------------------- 
146    conv2d_146 (Conv2D, CONV_2D)                   [b:1,h:60,w:60,c:32]     1,056/1,152          3,686,432                  nl_145_nl   |                                Conv2D_[182]                    
       nl_146_nl (Nonlinearity, CONV_2D)              [b:1,h:60,w:60,c:32]                            115,200                 conv2d_146   |          -115,200(-100.0%)     
------ ---------------------------------------------- ------------------------ ----------------- ------------ -------------------------- --- -------- --------------------- ------------------------------- 
147    conv2d_147 (Conv2D, DEPTHWISE_CONV_2D)         [b:1,h:60,w:60,c:32]     320/416              1,036,832                  nl_146_nl   |                                Pad_/Conv2D_[183, 184]          
       nl_147_nl (Nonlinearity, DEPTHWISE_CONV_2D)    [b:1,h:60,w:60,c:32]                            115,200                 conv2d_147   |          -115,200(-100.0%)     
------ ---------------------------------------------- ------------------------ ----------------- ------------ -------------------------- --- -------- --------------------- ------------------------------- 
148    conv2d_148 (Conv2D, CONV_2D)                   [b:1,h:60,w:60,c:32]     1,056/1,152          3,686,432                  nl_147_nl   |                                Conv2D_[185]                    
       nl_148_nl (Nonlinearity, CONV_2D)              [b:1,h:60,w:60,c:32]                            115,200                 conv2d_148   |          -115,200(-100.0%)     
------ ---------------------------------------------- ------------------------ ----------------- ------------ -------------------------- --- -------- --------------------- ------------------------------- 
149    conv2d_149 (Conv2D, CONV_2D)                   [b:1,h:60,w:60,c:32]     1,056/1,152          3,686,432                  nl_148_nl   |                                Conv2D_[186]                    
       nl_149_nl (Nonlinearity, CONV_2D)              [b:1,h:60,w:60,c:32]                            115,200                 conv2d_149   |          -115,200(-100.0%)     
------ ---------------------------------------------- ------------------------ ----------------- ------------ -------------------------- --- -------- --------------------- ------------------------------- 
150    conv2d_150 (Conv2D, DEPTHWISE_CONV_2D)         [b:1,h:60,w:60,c:32]     320/416              1,036,832                  nl_149_nl   |                                Pad_/Conv2D_[187, 188]          
       nl_150_nl (Nonlinearity, DEPTHWISE_CONV_2D)    [b:1,h:60,w:60,c:32]                            115,200                 conv2d_150   |          -115,200(-100.0%)     
------ ---------------------------------------------- ------------------------ ----------------- ------------ -------------------------- --- -------- --------------------- ------------------------------- 
151    conv2d_151 (Conv2D, CONV_2D)                   [b:1,h:60,w:60,c:32]     1,056/1,152          3,686,432                  nl_150_nl   |                                Conv2D_[189]                    
       nl_151_nl (Nonlinearity, CONV_2D)              [b:1,h:60,w:60,c:32]                            115,200                 conv2d_151   |          -115,200(-100.0%)     
------ ---------------------------------------------- ------------------------ ----------------- ------------ -------------------------- --- -------- --------------------- ------------------------------- 
152    conv2d_152 (Conv2D, CONV_2D)                   [b:1,h:60,w:60,c:32]     1,056/1,152          3,686,432                  nl_151_nl   |                                Conv2D_[190]                    
       nl_152_nl (Nonlinearity, CONV_2D)              [b:1,h:60,w:60,c:32]                            115,200                 conv2d_152   |          -115,200(-100.0%)     
------ ---------------------------------------------- ------------------------ ----------------- ------------ -------------------------- --- -------- --------------------- ------------------------------- 
153    conv2d_153 (Conv2D, DEPTHWISE_CONV_2D)         [b:1,h:60,w:60,c:32]     320/416              1,036,832                  nl_152_nl   |                                Pad_/Conv2D_[191, 192]          
       nl_153_nl (Nonlinearity, DEPTHWISE_CONV_2D)    [b:1,h:60,w:60,c:32]                            115,200                 conv2d_153   |          -115,200(-100.0%)     
------ ---------------------------------------------- ------------------------ ----------------- ------------ -------------------------- --- -------- --------------------- ------------------------------- 
154    conv2d_154 (Conv2D, CONV_2D)                   [b:1,h:60,w:60,c:32]     1,056/1,152          3,686,432                  nl_153_nl   |                                Conv2D_[193]                    
       nl_154_nl (Nonlinearity, CONV_2D)              [b:1,h:60,w:60,c:32]                            115,200                 conv2d_154   |          -115,200(-100.0%)     
------ ---------------------------------------------- ------------------------ ----------------- ------------ -------------------------- --- -------- --------------------- ------------------------------- 
155    conv2d_155 (Conv2D, CONV_2D)                   [b:1,h:60,w:60,c:32]     4,128/4,224         14,745,632                 concat_144   |                                Conv2D_[180]                    
       nl_155_nl (Nonlinearity, CONV_2D)              [b:1,h:60,w:60,c:32]                            115,200                 conv2d_155   |          -115,200(-100.0%)     
------ ---------------------------------------------- ------------------------ ----------------- ------------ -------------------------- --- -------- --------------------- ------------------------------- 
156    concat_156 (Concat, CONCATENATION)             [b:1,h:60,w:60,c:64]                                                     nl_154_nl   |                                Concat_[194]                    
                                                                                                                               nl_155_nl   | 
------ ---------------------------------------------- ------------------------ ----------------- ------------ -------------------------- --- -------- --------------------- ------------------------------- 
157    conv2d_157 (Conv2D, CONV_2D)                   [b:1,h:60,w:60,c:64]     4,160/4,352         14,745,664                 concat_156   |                                Conv2D_[195]                    
       nl_157_nl (Nonlinearity, CONV_2D)              [b:1,h:60,w:60,c:64]                            230,400                 conv2d_157   |          -230,400(-100.0%)     
------ ---------------------------------------------- ------------------------ ----------------- ------------ -------------------------- --- -------- --------------------- ------------------------------- 
158    conv2d_158 (Conv2D, CONV_2D)                   [b:1,h:60,w:60,c:64]     4,160/4,352         14,745,664                  nl_157_nl   |                                Conv2D_[272]                    
       nl_158_nl (Nonlinearity, CONV_2D)              [b:1,h:60,w:60,c:64]                            230,400                 conv2d_158   |          -230,400(-100.0%)     
------ ---------------------------------------------- ------------------------ ----------------- ------------ -------------------------- --- -------- --------------------- ------------------------------- 
159    conv2d_159 (Conv2D, DEPTHWISE_CONV_2D)         [b:1,h:60,w:60,c:64]     640/832              2,073,664                  nl_158_nl   |                                Pad_/Conv2D_[273, 274]          
       nl_159_nl (Nonlinearity, DEPTHWISE_CONV_2D)    [b:1,h:60,w:60,c:64]                            230,400                 conv2d_159   |          -230,400(-100.0%)     
------ ---------------------------------------------- ------------------------ ----------------- ------------ -------------------------- --- -------- --------------------- ------------------------------- 
160    conv2d_160 (Conv2D, CONV_2D)                   [b:1,h:60,w:60,c:64]     4,160/4,352         14,745,664                  nl_159_nl   |                                Conv2D_[275]                    
       nl_160_nl (Nonlinearity, CONV_2D)              [b:1,h:60,w:60,c:64]                            230,400                 conv2d_160   |          -230,400(-100.0%)     
------ ---------------------------------------------- ------------------------ ----------------- ------------ -------------------------- --- -------- --------------------- ------------------------------- 
161    conv2d_161 (Conv2D, DEPTHWISE_CONV_2D)         [b:1,h:60,w:60,c:64]     640/832              2,073,664                  nl_160_nl   |                                Pad_/Conv2D_[276, 277]          
       nl_161_nl (Nonlinearity, DEPTHWISE_CONV_2D)    [b:1,h:60,w:60,c:64]                            230,400                 conv2d_161   |          -230,400(-100.0%)     
------ ---------------------------------------------- ------------------------ ----------------- ------------ -------------------------- --- -------- --------------------- ------------------------------- 
162    conv2d_162 (Conv2D, CONV_2D)                   [b:1,h:60,w:60,c:64]     4,160/4,352         14,745,664                  nl_161_nl   |                                Conv2D_[278]                    
       nl_162_nl (Nonlinearity, CONV_2D)              [b:1,h:60,w:60,c:64]                            230,400                 conv2d_162   |          -230,400(-100.0%)     
------ ---------------------------------------------- ------------------------ ----------------- ------------ -------------------------- --- -------- --------------------- ------------------------------- 
163    conv2d_163 (Conv2D, CONV_2D)                   [b:1,h:60,w:60,c:9]      585/612              2,073,609                  nl_162_nl   |                                Conv2D_[279]                    
------ ---------------------------------------------- ------------------------ ----------------- ------------ -------------------------- --- -------- --------------------- ------------------------------- 
164    conv2d_164 (Conv2D, DEPTHWISE_CONV_2D)         [b:1,h:60,w:60,c:64]     640/832              2,073,664                  nl_158_nl   |                                Pad_/Conv2D_[280, 281]          
       nl_164_nl (Nonlinearity, DEPTHWISE_CONV_2D)    [b:1,h:60,w:60,c:64]                            230,400                 conv2d_164   |          -230,400(-100.0%)     
------ ---------------------------------------------- ------------------------ ----------------- ------------ -------------------------- --- -------- --------------------- ------------------------------- 
165    conv2d_165 (Conv2D, CONV_2D)                   [b:1,h:60,w:60,c:64]     4,160/4,352         14,745,664                  nl_164_nl   |                                Conv2D_[282]                    
       nl_165_nl (Nonlinearity, CONV_2D)              [b:1,h:60,w:60,c:64]                            230,400                 conv2d_165   |          -230,400(-100.0%)     
------ ---------------------------------------------- ------------------------ ----------------- ------------ -------------------------- --- -------- --------------------- ------------------------------- 
166    conv2d_166 (Conv2D, DEPTHWISE_CONV_2D)         [b:1,h:60,w:60,c:64]     640/832              2,073,664                  nl_165_nl   |                                Pad_/Conv2D_[283, 284]          
       nl_166_nl (Nonlinearity, DEPTHWISE_CONV_2D)    [b:1,h:60,w:60,c:64]                            230,400                 conv2d_166   |          -230,400(-100.0%)     
------ ---------------------------------------------- ------------------------ ----------------- ------------ -------------------------- --- -------- --------------------- ------------------------------- 
167    conv2d_167 (Conv2D, CONV_2D)                   [b:1,h:60,w:60,c:64]     4,160/4,352         14,745,664                  nl_166_nl   |                                Conv2D_[285]                    
       nl_167_nl (Nonlinearity, CONV_2D)              [b:1,h:60,w:60,c:64]                            230,400                 conv2d_167   |          -230,400(-100.0%)     
------ ---------------------------------------------- ------------------------ ----------------- ------------ -------------------------- --- -------- --------------------- ------------------------------- 
168    conv2d_168 (Conv2D, CONV_2D)                   [b:1,h:60,w:60,c:3]      195/204                691,203                  nl_167_nl   |                                Conv2D_[287]                    
------ ---------------------------------------------- ------------------------ ----------------- ------------ -------------------------- --- -------- --------------------- ------------------------------- 
169    conv2d_169 (Conv2D, CONV_2D)                   [b:1,h:60,w:60,c:12]     780/816              2,764,812                  nl_167_nl   |                                Conv2D_[286]                    
------ ---------------------------------------------- ------------------------ ----------------- ------------ -------------------------- --- -------- --------------------- ------------------------------- 
170    concat_170 (Concat, CONCATENATION)             [b:1,h:60,w:60,c:24]                                                    conv2d_169   |                                Concat_[288]                    
                                                                                                                              conv2d_168   | 
                                                                                                                              conv2d_163   | 
------ ---------------------------------------------- ------------------------ ----------------- ------------ -------------------------- --- -------- --------------------- ------------------------------- 
171    conversion_171 (Conversion, DEQUANTIZE)        [b:1,h:60,w:60,c:24]                            172,800                 concat_170   |                                Conversion_[o][289]             
------ ---------------------------------------------- ------------------------ ----------------- ------------ -------------------------- --- -------- --------------------- ------------------------------- 
172    conv2d_172 (Conv2D, DEPTHWISE_CONV_2D)         [b:1,h:30,w:30,c:64]     640/832                518,464                  nl_157_nl   |                                Pad_/Conv2D_[196, 197]          
       nl_172_nl (Nonlinearity, DEPTHWISE_CONV_2D)    [b:1,h:30,w:30,c:64]                             57,600                 conv2d_172   |          -57,600(-100.0%)      
------ ---------------------------------------------- ------------------------ ----------------- ------------ -------------------------- --- -------- --------------------- ------------------------------- 
173    conv2d_173 (Conv2D, CONV_2D)                   [b:1,h:30,w:30,c:64]     4,160/4,352          3,686,464                  nl_172_nl   |                                Conv2D_[198]                    
       nl_173_nl (Nonlinearity, CONV_2D)              [b:1,h:30,w:30,c:64]                             57,600                 conv2d_173   |          -57,600(-100.0%)      
------ ---------------------------------------------- ------------------------ ----------------- ------------ -------------------------- --- -------- --------------------- ------------------------------- 
174    concat_174 (Concat, CONCATENATION)             [b:1,h:30,w:30,c:128]                                                    nl_173_nl   |                                Concat_[199]                    
                                                                                                                               nl_142_nl   | 
------ ---------------------------------------------- ------------------------ ----------------- ------------ -------------------------- --- -------- --------------------- ------------------------------- 
175    conv2d_175 (Conv2D, CONV_2D)                   [b:1,h:30,w:30,c:64]     8,256/8,448          7,372,864                 concat_174   |                                Conv2D_[201]                    
       nl_175_nl (Nonlinearity, CONV_2D)              [b:1,h:30,w:30,c:64]                             57,600                 conv2d_175   |          -57,600(-100.0%)      
------ ---------------------------------------------- ------------------------ ----------------- ------------ -------------------------- --- -------- --------------------- ------------------------------- 
176    conv2d_176 (Conv2D, CONV_2D)                   [b:1,h:30,w:30,c:64]     4,160/4,352          3,686,464                  nl_175_nl   |                                Conv2D_[202]                    
       nl_176_nl (Nonlinearity, CONV_2D)              [b:1,h:30,w:30,c:64]                             57,600                 conv2d_176   |          -57,600(-100.0%)      
------ ---------------------------------------------- ------------------------ ----------------- ------------ -------------------------- --- -------- --------------------- ------------------------------- 
177    conv2d_177 (Conv2D, DEPTHWISE_CONV_2D)         [b:1,h:30,w:30,c:64]     640/832                518,464                  nl_176_nl   |                                Pad_/Conv2D_[203, 204]          
       nl_177_nl (Nonlinearity, DEPTHWISE_CONV_2D)    [b:1,h:30,w:30,c:64]                             57,600                 conv2d_177   |          -57,600(-100.0%)      
------ ---------------------------------------------- ------------------------ ----------------- ------------ -------------------------- --- -------- --------------------- ------------------------------- 
178    conv2d_178 (Conv2D, CONV_2D)                   [b:1,h:30,w:30,c:64]     4,160/4,352          3,686,464                  nl_177_nl   |                                Conv2D_[205]                    
       nl_178_nl (Nonlinearity, CONV_2D)              [b:1,h:30,w:30,c:64]                             57,600                 conv2d_178   |          -57,600(-100.0%)      
------ ---------------------------------------------- ------------------------ ----------------- ------------ -------------------------- --- -------- --------------------- ------------------------------- 
179    conv2d_179 (Conv2D, CONV_2D)                   [b:1,h:30,w:30,c:64]     4,160/4,352          3,686,464                  nl_178_nl   |                                Conv2D_[206]                    
       nl_179_nl (Nonlinearity, CONV_2D)              [b:1,h:30,w:30,c:64]                             57,600                 conv2d_179   |          -57,600(-100.0%)      
------ ---------------------------------------------- ------------------------ ----------------- ------------ -------------------------- --- -------- --------------------- ------------------------------- 
180    conv2d_180 (Conv2D, DEPTHWISE_CONV_2D)         [b:1,h:30,w:30,c:64]     640/832                518,464                  nl_179_nl   |                                Pad_/Conv2D_[207, 208]          
       nl_180_nl (Nonlinearity, DEPTHWISE_CONV_2D)    [b:1,h:30,w:30,c:64]                             57,600                 conv2d_180   |          -57,600(-100.0%)      
------ ---------------------------------------------- ------------------------ ----------------- ------------ -------------------------- --- -------- --------------------- ------------------------------- 
181    conv2d_181 (Conv2D, CONV_2D)                   [b:1,h:30,w:30,c:64]     4,160/4,352          3,686,464                  nl_180_nl   |                                Conv2D_[209]                    
       nl_181_nl (Nonlinearity, CONV_2D)              [b:1,h:30,w:30,c:64]                             57,600                 conv2d_181   |          -57,600(-100.0%)      
------ ---------------------------------------------- ------------------------ ----------------- ------------ -------------------------- --- -------- --------------------- ------------------------------- 
182    conv2d_182 (Conv2D, CONV_2D)                   [b:1,h:30,w:30,c:64]     4,160/4,352          3,686,464                  nl_181_nl   |                                Conv2D_[210]                    
       nl_182_nl (Nonlinearity, CONV_2D)              [b:1,h:30,w:30,c:64]                             57,600                 conv2d_182   |          -57,600(-100.0%)      
------ ---------------------------------------------- ------------------------ ----------------- ------------ -------------------------- --- -------- --------------------- ------------------------------- 
183    conv2d_183 (Conv2D, DEPTHWISE_CONV_2D)         [b:1,h:30,w:30,c:64]     640/832                518,464                  nl_182_nl   |                                Pad_/Conv2D_[211, 212]          
       nl_183_nl (Nonlinearity, DEPTHWISE_CONV_2D)    [b:1,h:30,w:30,c:64]                             57,600                 conv2d_183   |          -57,600(-100.0%)      
------ ---------------------------------------------- ------------------------ ----------------- ------------ -------------------------- --- -------- --------------------- ------------------------------- 
184    conv2d_184 (Conv2D, CONV_2D)                   [b:1,h:30,w:30,c:64]     4,160/4,352          3,686,464                  nl_183_nl   |                                Conv2D_[213]                    
       nl_184_nl (Nonlinearity, CONV_2D)              [b:1,h:30,w:30,c:64]                             57,600                 conv2d_184   |          -57,600(-100.0%)      
------ ---------------------------------------------- ------------------------ ----------------- ------------ -------------------------- --- -------- --------------------- ------------------------------- 
185    conv2d_185 (Conv2D, CONV_2D)                   [b:1,h:30,w:30,c:64]     8,256/8,448          7,372,864                 concat_174   |                                Conv2D_[200]                    
       nl_185_nl (Nonlinearity, CONV_2D)              [b:1,h:30,w:30,c:64]                             57,600                 conv2d_185   |          -57,600(-100.0%)      
------ ---------------------------------------------- ------------------------ ----------------- ------------ -------------------------- --- -------- --------------------- ------------------------------- 
186    concat_186 (Concat, CONCATENATION)             [b:1,h:30,w:30,c:128]                                                    nl_184_nl   |                                Concat_[214]                    
                                                                                                                               nl_185_nl   | 
------ ---------------------------------------------- ------------------------ ----------------- ------------ -------------------------- --- -------- --------------------- ------------------------------- 
187    conv2d_187 (Conv2D, CONV_2D)                   [b:1,h:30,w:30,c:128]    16,512/16,896       14,745,728                 concat_186   |                                Conv2D_[215]                    
       nl_187_nl (Nonlinearity, CONV_2D)              [b:1,h:30,w:30,c:128]                           115,200                 conv2d_187   |          -115,200(-100.0%)     
------ ---------------------------------------------- ------------------------ ----------------- ------------ -------------------------- --- -------- --------------------- ------------------------------- 
188    conv2d_188 (Conv2D, CONV_2D)                   [b:1,h:30,w:30,c:64]     8,256/8,448          7,372,864                  nl_187_nl   |                                Conv2D_[254]                    
       nl_188_nl (Nonlinearity, CONV_2D)              [b:1,h:30,w:30,c:64]                             57,600                 conv2d_188   |          -57,600(-100.0%)      
------ ---------------------------------------------- ------------------------ ----------------- ------------ -------------------------- --- -------- --------------------- ------------------------------- 
189    conv2d_189 (Conv2D, DEPTHWISE_CONV_2D)         [b:1,h:30,w:30,c:64]     640/832                518,464                  nl_188_nl   |                                Pad_/Conv2D_[255, 256]          
       nl_189_nl (Nonlinearity, DEPTHWISE_CONV_2D)    [b:1,h:30,w:30,c:64]                             57,600                 conv2d_189   |          -57,600(-100.0%)      
------ ---------------------------------------------- ------------------------ ----------------- ------------ -------------------------- --- -------- --------------------- ------------------------------- 
190    conv2d_190 (Conv2D, CONV_2D)                   [b:1,h:30,w:30,c:64]     4,160/4,352          3,686,464                  nl_189_nl   |                                Conv2D_[257]                    
       nl_190_nl (Nonlinearity, CONV_2D)              [b:1,h:30,w:30,c:64]                             57,600                 conv2d_190   |          -57,600(-100.0%)      
------ ---------------------------------------------- ------------------------ ----------------- ------------ -------------------------- --- -------- --------------------- ------------------------------- 
191    conv2d_191 (Conv2D, DEPTHWISE_CONV_2D)         [b:1,h:30,w:30,c:64]     640/832                518,464                  nl_190_nl   |                                Pad_/Conv2D_[258, 259]          
       nl_191_nl (Nonlinearity, DEPTHWISE_CONV_2D)    [b:1,h:30,w:30,c:64]                             57,600                 conv2d_191   |          -57,600(-100.0%)      
------ ---------------------------------------------- ------------------------ ----------------- ------------ -------------------------- --- -------- --------------------- ------------------------------- 
192    conv2d_192 (Conv2D, CONV_2D)                   [b:1,h:30,w:30,c:64]     4,160/4,352          3,686,464                  nl_191_nl   |                                Conv2D_[260]                    
       nl_192_nl (Nonlinearity, CONV_2D)              [b:1,h:30,w:30,c:64]                             57,600                 conv2d_192   |          -57,600(-100.0%)      
------ ---------------------------------------------- ------------------------ ----------------- ------------ -------------------------- --- -------- --------------------- ------------------------------- 
193    conv2d_193 (Conv2D, CONV_2D)                   [b:1,h:30,w:30,c:9]      585/612                518,409                  nl_192_nl   |                                Conv2D_[261]                    
------ ---------------------------------------------- ------------------------ ----------------- ------------ -------------------------- --- -------- --------------------- ------------------------------- 
194    conv2d_194 (Conv2D, DEPTHWISE_CONV_2D)         [b:1,h:30,w:30,c:64]     640/832                518,464                  nl_188_nl   |                                Pad_/Conv2D_[262, 263]          
       nl_194_nl (Nonlinearity, DEPTHWISE_CONV_2D)    [b:1,h:30,w:30,c:64]                             57,600                 conv2d_194   |          -57,600(-100.0%)      
------ ---------------------------------------------- ------------------------ ----------------- ------------ -------------------------- --- -------- --------------------- ------------------------------- 
195    conv2d_195 (Conv2D, CONV_2D)                   [b:1,h:30,w:30,c:64]     4,160/4,352          3,686,464                  nl_194_nl   |                                Conv2D_[264]                    
       nl_195_nl (Nonlinearity, CONV_2D)              [b:1,h:30,w:30,c:64]                             57,600                 conv2d_195   |          -57,600(-100.0%)      
------ ---------------------------------------------- ------------------------ ----------------- ------------ -------------------------- --- -------- --------------------- ------------------------------- 
196    conv2d_196 (Conv2D, DEPTHWISE_CONV_2D)         [b:1,h:30,w:30,c:64]     640/832                518,464                  nl_195_nl   |                                Pad_/Conv2D_[265, 266]          
       nl_196_nl (Nonlinearity, DEPTHWISE_CONV_2D)    [b:1,h:30,w:30,c:64]                             57,600                 conv2d_196   |          -57,600(-100.0%)      
------ ---------------------------------------------- ------------------------ ----------------- ------------ -------------------------- --- -------- --------------------- ------------------------------- 
197    conv2d_197 (Conv2D, CONV_2D)                   [b:1,h:30,w:30,c:64]     4,160/4,352          3,686,464                  nl_196_nl   |                                Conv2D_[267]                    
       nl_197_nl (Nonlinearity, CONV_2D)              [b:1,h:30,w:30,c:64]                             57,600                 conv2d_197   |          -57,600(-100.0%)      
------ ---------------------------------------------- ------------------------ ----------------- ------------ -------------------------- --- -------- --------------------- ------------------------------- 
198    conv2d_198 (Conv2D, CONV_2D)                   [b:1,h:30,w:30,c:3]      195/204                172,803                  nl_197_nl   |                                Conv2D_[269]                    
------ ---------------------------------------------- ------------------------ ----------------- ------------ -------------------------- --- -------- --------------------- ------------------------------- 
199    conv2d_199 (Conv2D, CONV_2D)                   [b:1,h:30,w:30,c:12]     780/816                691,212                  nl_197_nl   |                                Conv2D_[268]                    
------ ---------------------------------------------- ------------------------ ----------------- ------------ -------------------------- --- -------- --------------------- ------------------------------- 
200    concat_200 (Concat, CONCATENATION)             [b:1,h:30,w:30,c:24]                                                    conv2d_199   |                                Concat_[270]                    
                                                                                                                              conv2d_198   | 
                                                                                                                              conv2d_193   | 
------ ---------------------------------------------- ------------------------ ----------------- ------------ -------------------------- --- -------- --------------------- ------------------------------- 
201    conversion_201 (Conversion, DEQUANTIZE)        [b:1,h:30,w:30,c:24]                             43,200                 concat_200   |                                Conversion_[o][271]             
------ ---------------------------------------------- ------------------------ ----------------- ------------ -------------------------- --- -------- --------------------- ------------------------------- 
202    conv2d_202 (Conv2D, DEPTHWISE_CONV_2D)         [b:1,h:15,w:15,c:128]    1,280/1,664            259,328                  nl_187_nl   |                                Pad_/Conv2D_[216, 217]          
       nl_202_nl (Nonlinearity, DEPTHWISE_CONV_2D)    [b:1,h:15,w:15,c:128]                            28,800                 conv2d_202   |          -28,800(-100.0%)      
------ ---------------------------------------------- ------------------------ ----------------- ------------ -------------------------- --- -------- --------------------- ------------------------------- 
203    conv2d_203 (Conv2D, CONV_2D)                   [b:1,h:15,w:15,c:128]    16,512/16,896        3,686,528                  nl_202_nl   |                                Conv2D_[218]                    
       nl_203_nl (Nonlinearity, CONV_2D)              [b:1,h:15,w:15,c:128]                            28,800                 conv2d_203   |          -28,800(-100.0%)      
------ ---------------------------------------------- ------------------------ ----------------- ------------ -------------------------- --- -------- --------------------- ------------------------------- 
204    concat_204 (Concat, CONCATENATION)             [b:1,h:15,w:15,c:256]                                                    nl_203_nl   |                                Concat_[219]                    
                                                                                                                               nl_126_nl   | 
------ ---------------------------------------------- ------------------------ ----------------- ------------ -------------------------- --- -------- --------------------- ------------------------------- 
205    conv2d_205 (Conv2D, CONV_2D)                   [b:1,h:15,w:15,c:128]    32,896/33,280        7,372,928                 concat_204   |                                Conv2D_[221]                    
       nl_205_nl (Nonlinearity, CONV_2D)              [b:1,h:15,w:15,c:128]                            28,800                 conv2d_205   |          -28,800(-100.0%)      
------ ---------------------------------------------- ------------------------ ----------------- ------------ -------------------------- --- -------- --------------------- ------------------------------- 
206    conv2d_206 (Conv2D, CONV_2D)                   [b:1,h:15,w:15,c:128]    16,512/16,896        3,686,528                  nl_205_nl   |                                Conv2D_[222]                    
       nl_206_nl (Nonlinearity, CONV_2D)              [b:1,h:15,w:15,c:128]                            28,800                 conv2d_206   |          -28,800(-100.0%)      
------ ---------------------------------------------- ------------------------ ----------------- ------------ -------------------------- --- -------- --------------------- ------------------------------- 
207    conv2d_207 (Conv2D, DEPTHWISE_CONV_2D)         [b:1,h:15,w:15,c:128]    1,280/1,664            259,328                  nl_206_nl   |                                Pad_/Conv2D_[223, 224]          
       nl_207_nl (Nonlinearity, DEPTHWISE_CONV_2D)    [b:1,h:15,w:15,c:128]                            28,800                 conv2d_207   |          -28,800(-100.0%)      
------ ---------------------------------------------- ------------------------ ----------------- ------------ -------------------------- --- -------- --------------------- ------------------------------- 
208    conv2d_208 (Conv2D, CONV_2D)                   [b:1,h:15,w:15,c:128]    16,512/16,896        3,686,528                  nl_207_nl   |                                Conv2D_[225]                    
       nl_208_nl (Nonlinearity, CONV_2D)              [b:1,h:15,w:15,c:128]                            28,800                 conv2d_208   |          -28,800(-100.0%)      
------ ---------------------------------------------- ------------------------ ----------------- ------------ -------------------------- --- -------- --------------------- ------------------------------- 
209    conv2d_209 (Conv2D, CONV_2D)                   [b:1,h:15,w:15,c:128]    16,512/16,896        3,686,528                  nl_208_nl   |                                Conv2D_[226]                    
       nl_209_nl (Nonlinearity, CONV_2D)              [b:1,h:15,w:15,c:128]                            28,800                 conv2d_209   |          -28,800(-100.0%)      
------ ---------------------------------------------- ------------------------ ----------------- ------------ -------------------------- --- -------- --------------------- ------------------------------- 
210    conv2d_210 (Conv2D, DEPTHWISE_CONV_2D)         [b:1,h:15,w:15,c:128]    1,280/1,664            259,328                  nl_209_nl   |                                Pad_/Conv2D_[227, 228]          
       nl_210_nl (Nonlinearity, DEPTHWISE_CONV_2D)    [b:1,h:15,w:15,c:128]                            28,800                 conv2d_210   |          -28,800(-100.0%)      
------ ---------------------------------------------- ------------------------ ----------------- ------------ -------------------------- --- -------- --------------------- ------------------------------- 
211    conv2d_211 (Conv2D, CONV_2D)                   [b:1,h:15,w:15,c:128]    16,512/16,896        3,686,528                  nl_210_nl   |                                Conv2D_[229]                    
       nl_211_nl (Nonlinearity, CONV_2D)              [b:1,h:15,w:15,c:128]                            28,800                 conv2d_211   |          -28,800(-100.0%)      
------ ---------------------------------------------- ------------------------ ----------------- ------------ -------------------------- --- -------- --------------------- ------------------------------- 
212    conv2d_212 (Conv2D, CONV_2D)                   [b:1,h:15,w:15,c:128]    16,512/16,896        3,686,528                  nl_211_nl   |                                Conv2D_[230]                    
       nl_212_nl (Nonlinearity, CONV_2D)              [b:1,h:15,w:15,c:128]                            28,800                 conv2d_212   |          -28,800(-100.0%)      
------ ---------------------------------------------- ------------------------ ----------------- ------------ -------------------------- --- -------- --------------------- ------------------------------- 
213    conv2d_213 (Conv2D, DEPTHWISE_CONV_2D)         [b:1,h:15,w:15,c:128]    1,280/1,664            259,328                  nl_212_nl   |                                Pad_/Conv2D_[231, 232]          
       nl_213_nl (Nonlinearity, DEPTHWISE_CONV_2D)    [b:1,h:15,w:15,c:128]                            28,800                 conv2d_213   |          -28,800(-100.0%)      
------ ---------------------------------------------- ------------------------ ----------------- ------------ -------------------------- --- -------- --------------------- ------------------------------- 
214    conv2d_214 (Conv2D, CONV_2D)                   [b:1,h:15,w:15,c:128]    16,512/16,896        3,686,528                  nl_213_nl   |                                Conv2D_[233]                    
       nl_214_nl (Nonlinearity, CONV_2D)              [b:1,h:15,w:15,c:128]                            28,800                 conv2d_214   |          -28,800(-100.0%)      
------ ---------------------------------------------- ------------------------ ----------------- ------------ -------------------------- --- -------- --------------------- ------------------------------- 
215    conv2d_215 (Conv2D, CONV_2D)                   [b:1,h:15,w:15,c:128]    32,896/33,280        7,372,928                 concat_204   |                                Conv2D_[220]                    
       nl_215_nl (Nonlinearity, CONV_2D)              [b:1,h:15,w:15,c:128]                            28,800                 conv2d_215   |          -28,800(-100.0%)      
------ ---------------------------------------------- ------------------------ ----------------- ------------ -------------------------- --- -------- --------------------- ------------------------------- 
216    concat_216 (Concat, CONCATENATION)             [b:1,h:15,w:15,c:256]                                                    nl_214_nl   |                                Concat_[234]                    
                                                                                                                               nl_215_nl   | 
------ ---------------------------------------------- ------------------------ ----------------- ------------ -------------------------- --- -------- --------------------- ------------------------------- 
217    conv2d_217 (Conv2D, CONV_2D)                   [b:1,h:15,w:15,c:256]    65,792/66,560       14,745,856                 concat_216   |                                Conv2D_[235]                    
       nl_217_nl (Nonlinearity, CONV_2D)              [b:1,h:15,w:15,c:256]                            57,600                 conv2d_217   |          -57,600(-100.0%)      
------ ---------------------------------------------- ------------------------ ----------------- ------------ -------------------------- --- -------- --------------------- ------------------------------- 
218    conv2d_218 (Conv2D, CONV_2D)                   [b:1,h:15,w:15,c:64]     16,448/16,640        3,686,464                  nl_217_nl   |                                Conv2D_[236]                    
       nl_218_nl (Nonlinearity, CONV_2D)              [b:1,h:15,w:15,c:64]                             14,400                 conv2d_218   |          -14,400(-100.0%)      
------ ---------------------------------------------- ------------------------ ----------------- ------------ -------------------------- --- -------- --------------------- ------------------------------- 
219    conv2d_219 (Conv2D, DEPTHWISE_CONV_2D)         [b:1,h:15,w:15,c:64]     640/832                129,664                  nl_218_nl   |                                Pad_/Conv2D_[237, 238]          
       nl_219_nl (Nonlinearity, DEPTHWISE_CONV_2D)    [b:1,h:15,w:15,c:64]                             14,400                 conv2d_219   |          -14,400(-100.0%)      
------ ---------------------------------------------- ------------------------ ----------------- ------------ -------------------------- --- -------- --------------------- ------------------------------- 
220    conv2d_220 (Conv2D, CONV_2D)                   [b:1,h:15,w:15,c:64]     4,160/4,352            921,664                  nl_219_nl   |                                Conv2D_[239]                    
       nl_220_nl (Nonlinearity, CONV_2D)              [b:1,h:15,w:15,c:64]                             14,400                 conv2d_220   |          -14,400(-100.0%)      
------ ---------------------------------------------- ------------------------ ----------------- ------------ -------------------------- --- -------- --------------------- ------------------------------- 
221    conv2d_221 (Conv2D, DEPTHWISE_CONV_2D)         [b:1,h:15,w:15,c:64]     640/832                129,664                  nl_220_nl   |                                Pad_/Conv2D_[240, 241]          
       nl_221_nl (Nonlinearity, DEPTHWISE_CONV_2D)    [b:1,h:15,w:15,c:64]                             14,400                 conv2d_221   |          -14,400(-100.0%)      
------ ---------------------------------------------- ------------------------ ----------------- ------------ -------------------------- --- -------- --------------------- ------------------------------- 
222    conv2d_222 (Conv2D, CONV_2D)                   [b:1,h:15,w:15,c:64]     4,160/4,352            921,664                  nl_221_nl   |                                Conv2D_[242]                    
       nl_222_nl (Nonlinearity, CONV_2D)              [b:1,h:15,w:15,c:64]                             14,400                 conv2d_222   |          -14,400(-100.0%)      
------ ---------------------------------------------- ------------------------ ----------------- ------------ -------------------------- --- -------- --------------------- ------------------------------- 
223    conv2d_223 (Conv2D, CONV_2D)                   [b:1,h:15,w:15,c:9]      585/612                129,609                  nl_222_nl   |                                Conv2D_[243]                    
------ ---------------------------------------------- ------------------------ ----------------- ------------ -------------------------- --- -------- --------------------- ------------------------------- 
224    conv2d_224 (Conv2D, DEPTHWISE_CONV_2D)         [b:1,h:15,w:15,c:64]     640/832                129,664                  nl_218_nl   |                                Pad_/Conv2D_[244, 245]          
       nl_224_nl (Nonlinearity, DEPTHWISE_CONV_2D)    [b:1,h:15,w:15,c:64]                             14,400                 conv2d_224   |          -14,400(-100.0%)      
------ ---------------------------------------------- ------------------------ ----------------- ------------ -------------------------- --- -------- --------------------- ------------------------------- 
225    conv2d_225 (Conv2D, CONV_2D)                   [b:1,h:15,w:15,c:64]     4,160/4,352            921,664                  nl_224_nl   |                                Conv2D_[246]                    
       nl_225_nl (Nonlinearity, CONV_2D)              [b:1,h:15,w:15,c:64]                             14,400                 conv2d_225   |          -14,400(-100.0%)      
------ ---------------------------------------------- ------------------------ ----------------- ------------ -------------------------- --- -------- --------------------- ------------------------------- 
226    conv2d_226 (Conv2D, DEPTHWISE_CONV_2D)         [b:1,h:15,w:15,c:64]     640/832                129,664                  nl_225_nl   |                                Pad_/Conv2D_[247, 248]          
       nl_226_nl (Nonlinearity, DEPTHWISE_CONV_2D)    [b:1,h:15,w:15,c:64]                             14,400                 conv2d_226   |          -14,400(-100.0%)      
------ ---------------------------------------------- ------------------------ ----------------- ------------ -------------------------- --- -------- --------------------- ------------------------------- 
227    conv2d_227 (Conv2D, CONV_2D)                   [b:1,h:15,w:15,c:64]     4,160/4,352            921,664                  nl_226_nl   |                                Conv2D_[249]                    
       nl_227_nl (Nonlinearity, CONV_2D)              [b:1,h:15,w:15,c:64]                             14,400                 conv2d_227   |          -14,400(-100.0%)      
------ ---------------------------------------------- ------------------------ ----------------- ------------ -------------------------- --- -------- --------------------- ------------------------------- 
228    conv2d_228 (Conv2D, CONV_2D)                   [b:1,h:15,w:15,c:3]      195/204                 43,203                  nl_227_nl   |                                Conv2D_[251]                    
------ ---------------------------------------------- ------------------------ ----------------- ------------ -------------------------- --- -------- --------------------- ------------------------------- 
229    conv2d_229 (Conv2D, CONV_2D)                   [b:1,h:15,w:15,c:12]     780/816                172,812                  nl_227_nl   |                                Conv2D_[250]                    
------ ---------------------------------------------- ------------------------ ----------------- ------------ -------------------------- --- -------- --------------------- ------------------------------- 
230    concat_230 (Concat, CONCATENATION)             [b:1,h:15,w:15,c:24]                                                    conv2d_229   |                                Concat_[252]                    
                                                                                                                              conv2d_228   | 
                                                                                                                              conv2d_223   | 
------ ---------------------------------------------- ------------------------ ----------------- ------------ -------------------------- --- -------- --------------------- ------------------------------- 
231    conversion_231 (Conversion, DEQUANTIZE)        [b:1,h:15,w:15,c:24]                             10,800                 concat_230   |                                Conversion_[o][253]             
------ ---------------------------------------------- ------------------------ ----------------- ------------ -------------------------- --- -------- --------------------- ------------------------------- 
model/c-model: macc=921,392,500/904,126,900 -17,265,600(-1.9%) weights=1,176,884/1,176,884  activations=--/1,036,800 io=--/0



Generated C-graph summary
------------------------------------------------------------------------------------------------------------------------
model name            : quantized_model
c-name                : network
c-node #              : 290
c-array #             : 849
activations size      : 1036800 (1 segment)
weights size          : 1176884 (1 segment)
macc                  : 904126900
inputs                : ['serving_default_input_10_output']
outputs               : ['conversion_231_output', 'conversion_171_output', 'conversion_201_output']

C-Arrays (849)
------ --------------------------------- --------------- ------------------------- ----------- --------- 
c_id   name (*_array)                    item/size       domain/mem-pool           c-type      comment   
------ --------------------------------- --------------- ------------------------- ----------- --------- 
0      concat_103_output                 115200/115200   activations/**default**   s8                    
1      concat_111_output                 115200/115200   activations/**default**   s8                    
2      concat_124_output                 57600/57600     activations/**default**   s8                    
3      concat_128_output                 230400/230400   activations/**default**   s8                    
4      concat_140_output                 115200/115200   activations/**default**   s8                    
5      concat_144_output                 460800/460800   activations/**default**   s8                    
6      concat_156_output                 230400/230400   activations/**default**   s8                    
7      concat_170_output                 86400/86400     activations/**default**   s8                    
8      concat_174_output                 115200/115200   activations/**default**   s8                    
9      concat_186_output                 115200/115200   activations/**default**   s8                    
10     concat_19_output                  460800/460800   activations/**default**   s8                    
11     concat_200_output                 21600/21600     activations/**default**   s8                    
12     concat_204_output                 57600/57600     activations/**default**   s8                    
13     concat_216_output                 57600/57600     activations/**default**   s8                    
14     concat_230_output                 5400/5400       activations/**default**   s8                    
15     concat_61_output                  230400/230400   activations/**default**   s8                    
16     conv2d_100_bias                   64/256          weights/weights           const s32             
17     conv2d_100_output                 57600/57600     activations/**default**   s8                    
18     conv2d_100_scratch0               896/896         activations/**default**   s8                    
19     conv2d_100_weights                4096/4096       weights/weights           const s8              
20     conv2d_102_bias                   64/256          weights/weights           const s32             
21     conv2d_102_output                 57600/57600     activations/**default**   s8                    
22     conv2d_102_scratch0               1152/1152       activations/**default**   s8                    
23     conv2d_102_weights                8192/8192       weights/weights           const s8              
24     conv2d_104_bias                   128/512         weights/weights           const s32             
25     conv2d_104_output                 115200/115200   activations/**default**   s8                    
26     conv2d_104_scratch0               1792/1792       activations/**default**   s8                    
27     conv2d_104_weights                16384/16384     weights/weights           const s8              
28     conv2d_105_bias                   128/512         weights/weights           const s32             
29     conv2d_105_output                 28800/28800     activations/**default**   s8                    
30     conv2d_105_pad_before_output      131072/131072   activations/**default**   s8                    
31     conv2d_105_scratch0               4737/4737       activations/**default**   s8                    
32     conv2d_105_weights                1152/1152       weights/weights           const s8              
33     conv2d_106_bias                   256/1024        weights/weights           const s32             
34     conv2d_106_output                 57600/57600     activations/**default**   s8                    
35     conv2d_106_scratch0               3072/3072       activations/**default**   s8                    
36     conv2d_106_weights                32768/32768     weights/weights           const s8              
37     conv2d_107_bias                   128/512         weights/weights           const s32             
38     conv2d_107_output                 28800/28800     activations/**default**   s8                    
39     conv2d_107_scratch0               2304/2304       activations/**default**   s8                    
40     conv2d_107_weights                32768/32768     weights/weights           const s8              
41     conv2d_10_bias                    16/64           weights/weights           const s32             
42     conv2d_10_output                  230400/230400   activations/**default**   s8                    
43     conv2d_10_scratch0                224/224         activations/**default**   s8                    
44     conv2d_10_weights                 256/256         weights/weights           const s8              
45     conv2d_112_bias                   256/1024        weights/weights           const s32             
46     conv2d_112_output                 57600/57600     activations/**default**   s8                    
47     conv2d_112_scratch0               4608/4608       activations/**default**   s8                    
48     conv2d_112_weights                131072/131072   weights/weights           const s8              
49     conv2d_113_bias                   128/512         weights/weights           const s32             
50     conv2d_113_output                 28800/28800     activations/**default**   s8                    
51     conv2d_113_scratch0               2304/2304       activations/**default**   s8                    
52     conv2d_113_weights                32768/32768     weights/weights           const s8              
53     conv2d_114_bias                   128/512         weights/weights           const s32             
54     conv2d_114_output                 28800/28800     activations/**default**   s8                    
55     conv2d_114_scratch0               1792/1792       activations/**default**   s8                    
56     conv2d_114_weights                16384/16384     weights/weights           const s8              
57     conv2d_115_bias                   128/512         weights/weights           const s32             
58     conv2d_115_output                 28800/28800     activations/**default**   s8                    
59     conv2d_115_pad_before_output      36992/36992     activations/**default**   s8                    
60     conv2d_115_scratch0               4737/4737       activations/**default**   s8                    
61     conv2d_115_weights                1152/1152       weights/weights           const s8              
62     conv2d_116_bias                   128/512         weights/weights           const s32             
63     conv2d_116_output                 28800/28800     activations/**default**   s8                    
64     conv2d_116_scratch0               1792/1792       activations/**default**   s8                    
65     conv2d_116_weights                16384/16384     weights/weights           const s8              
66     conv2d_117_bias                   128/512         weights/weights           const s32             
67     conv2d_117_output                 28800/28800     activations/**default**   s8                    
68     conv2d_117_scratch0               1792/1792       activations/**default**   s8                    
69     conv2d_117_weights                16384/16384     weights/weights           const s8              
70     conv2d_118_bias                   128/512         weights/weights           const s32             
71     conv2d_118_output                 28800/28800     activations/**default**   s8                    
72     conv2d_118_pad_before_output      36992/36992     activations/**default**   s8                    
73     conv2d_118_scratch0               4737/4737       activations/**default**   s8                    
74     conv2d_118_weights                1152/1152       weights/weights           const s8              
75     conv2d_119_bias                   128/512         weights/weights           const s32             
76     conv2d_119_output                 28800/28800     activations/**default**   s8                    
77     conv2d_119_scratch0               1792/1792       activations/**default**   s8                    
78     conv2d_119_weights                16384/16384     weights/weights           const s8              
79     conv2d_11_bias                    16/64           weights/weights           const s32             
80     conv2d_11_output                  230400/230400   activations/**default**   s8                    
81     conv2d_11_pad_before_output       238144/238144   activations/**default**   s8                    
82     conv2d_11_scratch0                593/593         activations/**default**   s8                    
83     conv2d_11_weights                 144/144         weights/weights           const s8              
84     conv2d_120_bias                   128/512         weights/weights           const s32             
85     conv2d_120_output                 28800/28800     activations/**default**   s8                    
86     conv2d_120_scratch0               1792/1792       activations/**default**   s8                    
87     conv2d_120_weights                16384/16384     weights/weights           const s8              
88     conv2d_121_bias                   128/512         weights/weights           const s32             
89     conv2d_121_output                 28800/28800     activations/**default**   s8                    
90     conv2d_121_pad_before_output      36992/36992     activations/**default**   s8                    
91     conv2d_121_scratch0               4737/4737       activations/**default**   s8                    
92     conv2d_121_weights                1152/1152       weights/weights           const s8              
93     conv2d_122_bias                   128/512         weights/weights           const s32             
94     conv2d_122_output                 28800/28800     activations/**default**   s8                    
95     conv2d_122_scratch0               1792/1792       activations/**default**   s8                    
96     conv2d_122_weights                16384/16384     weights/weights           const s8              
97     conv2d_123_bias                   128/512         weights/weights           const s32             
98     conv2d_123_output                 28800/28800     activations/**default**   s8                    
99     conv2d_123_scratch0               2304/2304       activations/**default**   s8                    
100    conv2d_123_weights                32768/32768     weights/weights           const s8              
101    conv2d_125_bias                   256/1024        weights/weights           const s32             
102    conv2d_125_output                 57600/57600     activations/**default**   s8                    
103    conv2d_125_scratch0               3584/3584       activations/**default**   s8                    
104    conv2d_125_weights                65536/65536     weights/weights           const s8              
105    conv2d_126_bias                   128/512         weights/weights           const s32             
106    conv2d_126_output                 28800/28800     activations/**default**   s8                    
107    conv2d_126_scratch0               2304/2304       activations/**default**   s8                    
108    conv2d_126_weights                32768/32768     weights/weights           const s8              
109    conv2d_129_bias                   64/256          weights/weights           const s32             
110    conv2d_129_output                 57600/57600     activations/**default**   s8                    
111    conv2d_129_scratch0               1664/1664       activations/**default**   s8                    
112    conv2d_129_weights                16384/16384     weights/weights           const s8              
113    conv2d_12_bias                    16/64           weights/weights           const s32             
114    conv2d_12_output                  230400/230400   activations/**default**   s8                    
115    conv2d_12_scratch0                224/224         activations/**default**   s8                    
…
                                                                         W: conv2d_167_weights                int8(64x1x1x64) (271)      
                                                                         W: conv2d_167_bias                   int32(64) (268)            
                                                                         O: conv2d_167_output                 int8(1x60x60x64) (269)     
------ ----------------------- ----- --------------- ---------- -------- ------------------------------------ -------------------------- 
286    conv2d_169              169   Conv2D          2764812    816      I: conv2d_167_output                 int8(1x60x60x64) (269)     
                                                                         S: conv2d_169_scratch0                                          
                                                                         W: conv2d_169_weights                int8(12x1x1x64) (279)      
                                                                         W: conv2d_169_bias                   int32(12) (276)            
                                                                         O: conv2d_169_output                 int8(1x60x60x12) (277)     
------ ----------------------- ----- --------------- ---------- -------- ------------------------------------ -------------------------- 
287    conv2d_168              168   Conv2D          691203     204      I: conv2d_167_output                 int8(1x60x60x64) (269)     
                                                                         S: conv2d_168_scratch0                                          
                                                                         W: conv2d_168_weights                int8(3x1x1x64) (275)       
                                                                         W: conv2d_168_bias                   int32(3) (272)             
                                                                         O: conv2d_168_output                 int8(1x60x60x3) (273)      
------ ----------------------- ----- --------------- ---------- -------- ------------------------------------ -------------------------- 
288    concat_170              170   Concat          0          0        I: conv2d_169_output                 int8(1x60x60x12) (277)     
                                                                         I: conv2d_168_output                 int8(1x60x60x12) (277)     
                                                                         I: conv2d_163_output                 int8(1x60x60x12) (277)     
                                                                         O: concat_170_output                 int8(1x60x60x24) (7)       
------ ----------------------- ----- --------------- ---------- -------- ------------------------------------ -------------------------- 
289    conversion_171          171   Conversion      172800     0        I: concat_170_output                 int8(1x60x60x24) (7)       
                                                                         O: conversion_171_output             f32(1x60x60x24) (816)      
------ ----------------------- ----- --------------- ---------- -------- ------------------------------------ -------------------------- 



Number of operations per c-layer
------- ------ ----------------------------- ------------- ------------- 
c_id    m_id   name (type)                             #op          type 
------- ------ ----------------------------- ------------- ------------- 
0       0      conversion_0 (Conversion)         1,382,400    smul_u8_s8 
1       1      conv2d_1 (Conv2D)                18,662,412    smul_s8_s8 
2       2      conv2d_2_pad_before (Pad)                 0    smul_s8_s8 
3       2      conv2d_2 (Conv2D)                99,532,816    smul_s8_s8 
4       3      conv2d_3_pad_before (Pad)                 0    smul_s8_s8 
5       3      conv2d_3 (Conv2D)                 2,073,616    smul_s8_s8 
6       4      conv2d_4 (Conv2D)                 7,372,832    smul_s8_s8 
7       18     conv2d_18 (Conv2D)                7,372,816    smul_s8_s8 
8       18     nl_18_nl (Nonlinearity)             460,800      op_s8_s8 
9       5      conv2d_5 (Conv2D)                 7,372,816    smul_s8_s8 
10      6      conv2d_6 (Conv2D)                 3,686,416    smul_s8_s8 
11      7      conv2d_7_pad_before (Pad)                 0    smul_s8_s8 
12      7      conv2d_7 (Conv2D)                 2,073,616    smul_s8_s8 
13      8      conv2d_8 (Conv2D)                 3,686,416    smul_s8_s8 
14      9      eltwise_9 (Eltwise/add)             230,400      op_s8_s8 
15      10     conv2d_10 (Conv2D)                3,686,416    smul_s8_s8 
16      11     conv2d_11_pad_before (Pad)                0    smul_s8_s8 
17      11     conv2d_11 (Conv2D)                2,073,616    smul_s8_s8 
18      12     conv2d_12 (Conv2D)                3,686,416    smul_s8_s8 
19      13     eltwise_13 (Eltwise/add)            230,400      op_s8_s8 
20      14     conv2d_14 (Conv2D)                3,686,416    smul_s8_s8 
21      15     conv2d_15_pad_before (Pad)                0    smul_s8_s8 
22      15     conv2d_15 (Conv2D)                2,073,616    smul_s8_s8 
23      16     conv2d_16 (Conv2D)                3,686,416    smul_s8_s8 
24      17     eltwise_17 (Eltwise/add)            230,400      op_s8_s8 
25      19     concat_19 (Concat)                        0    smul_s8_s8 
26      20     conv2d_20 (Conv2D)               14,745,632    smul_s8_s8 
27      21     conv2d_21_pad_before (Pad)                0    smul_s8_s8 
28      21     conv2d_21 (Conv2D)                1,036,832    smul_s8_s8 
29      22     conv2d_22 (Conv2D)                7,372,864    smul_s8_s8 
30      60     conv2d_60 (Conv2D)                7,372,832    smul_s8_s8 
31      60     nl_60_nl (Nonlinearity)             230,400      op_s8_s8 
32      23     conv2d_23 (Conv2D)                7,372,832    smul_s8_s8 
33      24     conv2d_24 (Conv2D)                3,686,432    smul_s8_s8 
34      25     conv2d_25_pad_before (Pad)                0    smul_s8_s8 
35      25     conv2d_25 (Conv2D)                1,036,832    smul_s8_s8 
36      26     conv2d_26 (Conv2D)                3,686,432    smul_s8_s8 
37      27     eltwise_27 (Eltwise/add)            115,200      op_s8_s8 
38      28     conv2d_28 (Conv2D)                3,686,432    smul_s8_s8 
39      29     conv2d_29_pad_before (Pad)                0    smul_s8_s8 
40      29     conv2d_29 (Conv2D)                1,036,832    smul_s8_s8 
41      30     conv2d_30 (Conv2D)                3,686,432    smul_s8_s8 
42      31     eltwise_31 (Eltwise/add)            115,200      op_s8_s8 
43      32     conv2d_32 (Conv2D)                3,686,432    smul_s8_s8 
44      33     conv2d_33_pad_before (Pad)                0    smul_s8_s8 
45      33     conv2d_33 (Conv2D)                1,036,832    smul_s8_s8 
46      34     conv2d_34 (Conv2D)                3,686,432    smul_s8_s8 
47      35     eltwise_35 (Eltwise/add)            115,200      op_s8_s8 
48      36     conv2d_36 (Conv2D)                3,686,432    smul_s8_s8 
49      37     conv2d_37_pad_before (Pad)                0    smul_s8_s8 
50      37     conv2d_37 (Conv2D)                1,036,832    smul_s8_s8 
51      38     conv2d_38 (Conv2D)                3,686,432    smul_s8_s8 
52      39     eltwise_39 (Eltwise/add)            115,200      op_s8_s8 
53      40     conv2d_40 (Conv2D)                3,686,432    smul_s8_s8 
54      41     conv2d_41_pad_before (Pad)                0    smul_s8_s8 
55      41     conv2d_41 (Conv2D)                1,036,832    smul_s8_s8 
56      42     conv2d_42 (Conv2D)                3,686,432    smul_s8_s8 
57      43     eltwise_43 (Eltwise/add)            115,200      op_s8_s8 
58      44     conv2d_44 (Conv2D)                3,686,432    smul_s8_s8 
59      45     conv2d_45_pad_before (Pad)                0    smul_s8_s8 
60      45     conv2d_45 (Conv2D)                1,036,832    smul_s8_s8 
61      46     conv2d_46 (Conv2D)                3,686,432    smul_s8_s8 
62      47     eltwise_47 (Eltwise/add)            115,200      op_s8_s8 
63      48     conv2d_48 (Conv2D)                3,686,432    smul_s8_s8 
64      49     conv2d_49_pad_before (Pad)                0    smul_s8_s8 
65      49     conv2d_49 (Conv2D)                1,036,832    smul_s8_s8 
66      50     conv2d_50 (Conv2D)                3,686,432    smul_s8_s8 
67      51     eltwise_51 (Eltwise/add)            115,200      op_s8_s8 
68      52     conv2d_52 (Conv2D)                3,686,432    smul_s8_s8 
69      53     conv2d_53_pad_before (Pad)                0    smul_s8_s8 
70      53     conv2d_53 (Conv2D)                1,036,832    smul_s8_s8 
71      54     conv2d_54 (Conv2D)                3,686,432    smul_s8_s8 
72      55     eltwise_55 (Eltwise/add)            115,200      op_s8_s8 
73      56     conv2d_56 (Conv2D)                3,686,432    smul_s8_s8 
74      57     conv2d_57_pad_before (Pad)                0    smul_s8_s8 
75      57     conv2d_57 (Conv2D)                1,036,832    smul_s8_s8 
76      58     conv2d_58 (Conv2D)                3,686,432    smul_s8_s8 
77      59     eltwise_59 (Eltwise/add)            115,200      op_s8_s8 
78      61     concat_61 (Concat)                        0    smul_s8_s8 
79      62     conv2d_62 (Conv2D)               14,745,664    smul_s8_s8 
80      63     conv2d_63_pad_before (Pad)                0    smul_s8_s8 
81      63     conv2d_63 (Conv2D)                  518,464    smul_s8_s8 
82      64     conv2d_64 (Conv2D)                7,372,928    smul_s8_s8 
83      102    conv2d_102 (Conv2D)               7,372,864    smul_s8_s8 
84      102    nl_102_nl (Nonlinearity)            115,200      op_s8_s8 
85      65     conv2d_65 (Conv2D)                7,372,864    smul_s8_s8 
86      66     conv2d_66 (Conv2D)                3,686,464    smul_s8_s8 
87      67     conv2d_67_pad_before (Pad)                0    smul_s8_s8 
88      67     conv2d_67 (Conv2D)                  518,464    smul_s8_s8 
89      68     conv2d_68 (Conv2D)                3,686,464    smul_s8_s8 
90      69     eltwise_69 (Eltwise/add)             57,600      op_s8_s8 
91      70     conv2d_70 (Conv2D)                3,686,464    smul_s8_s8 
92      71     conv2d_71_pad_before (Pad)                0    smul_s8_s8 
93      71     conv2d_71 (Conv2D)                  518,464    smul_s8_s8 
94      72     conv2d_72 (Conv2D)                3,686,464    smul_s8_s8 
95      73     eltwise_73 (Eltwise/add)             57,600      op_s8_s8 
96      74     conv2d_74 (Conv2D)                3,686,464    smul_s8_s8 
97      75     conv2d_75_pad_before (Pad)                0    smul_s8_s8 
98      75     conv2d_75 (Conv2D)                  518,464    smul_s8_s8 
99      76     conv2d_76 (Conv2D)                3,686,464    smul_s8_s8 
100     77     eltwise_77 (Eltwise/add)             57,600      op_s8_s8 
101     78     conv2d_78 (Conv2D)                3,686,464    smul_s8_s8 
102     79     conv2d_79_pad_before (Pad)                0    smul_s8_s8 
103     79     conv2d_79 (Conv2D)                  518,464    smul_s8_s8 
104     80     conv2d_80 (Conv2D)                3,686,464    smul_s8_s8 
105     81     eltwise_81 (Eltwise/add)             57,600      op_s8_s8 
106     82     conv2d_82 (Conv2D)                3,686,464    smul_s8_s8 
107     83     conv2d_83_pad_before (Pad)                0    smul_s8_s8 
108     83     conv2d_83 (Conv2D)                  518,464    smul_s8_s8 
109     84     conv2d_84 (Conv2D)                3,686,464    smul_s8_s8 
110     85     eltwise_85 (Eltwise/add)             57,600      op_s8_s8 
111     86     conv2d_86 (Conv2D)                3,686,464    smul_s8_s8 
112     87     conv2d_87_pad_before (Pad)                0    smul_s8_s8 
113     87     conv2d_87 (Conv2D)                  518,464    smul_s8_s8 
114     88     conv2d_88 (Conv2D)                3,686,464    smul_s8_s8 
115     89     eltwise_89 (Eltwise/add)             57,600      op_s8_s8 
116     90     conv2d_90 (Conv2D)                3,686,464    smul_s8_s8 
117     91     conv2d_91_pad_before (Pad)                0    smul_s8_s8 
118     91     conv2d_91 (Conv2D)                  518,464    smul_s8_s8 
119     92     conv2d_92 (Conv2D)                3,686,464    smul_s8_s8 
120     93     eltwise_93 (Eltwise/add)             57,600      op_s8_s8 
121     94     conv2d_94 (Conv2D)                3,686,464    smul_s8_s8 
122     95     conv2d_95_pad_before (Pad)                0    smul_s8_s8 
123     95     conv2d_95 (Conv2D)                  518,464    smul_s8_s8 
124     96     conv2d_96 (Conv2D)                3,686,464    smul_s8_s8 
125     97     eltwise_97 (Eltwise/add)             57,600      op_s8_s8 
126     98     conv2d_98 (Conv2D)                3,686,464    smul_s8_s8 
127     99     conv2d_99_pad_before (Pad)                0    smul_s8_s8 
128     99     conv2d_99 (Conv2D)                  518,464    smul_s8_s8 
129     100    conv2d_100 (Conv2D)               3,686,464    smul_s8_s8 
130     101    eltwise_101 (Eltwise/add)            57,600      op_s8_s8 
131     103    concat_103 (Concat)                       0    smul_s8_s8 
132     104    conv2d_104 (Conv2D)              14,745,728    smul_s8_s8 
133     105    conv2d_105_pad_before (Pad)               0    smul_s8_s8 
134     105    conv2d_105 (Conv2D)                 259,328    smul_s8_s8 
135     106    conv2d_106 (Conv2D)               7,373,056    smul_s8_s8 
136     107    conv2d_107 (Conv2D)               7,372,928    smul_s8_s8 
137     110    pool_110 (Pool)                   4,867,200    smul_s8_s8 
138     109    pool_109 (Pool)                   2,332,800    smul_s8_s8 
139     108    pool_108 (Pool)                     720,000    smul_s8_s8 
140     111    concat_111 (Concat)                       0    smul_s8_s8 
141     112    conv2d_112 (Conv2D)              29,491,456    smul_s8_s8 
142     123    conv2d_123 (Conv2D)               7,372,928    smul_s8_s8 
143     113    conv2d_113 (Conv2D)               7,372,928    smul_s8_s8 
144     114    conv2d_114 (Conv2D)               3,686,528    smul_s8_s8 
145     115    conv2d_115_pad_before (Pad)               0    smul_s8_s8 
146     115    conv2d_115 (Conv2D)                 259,328    smul_s8_s8 
147     116    conv2d_116 (Conv2D)               3,686,528    smul_s8_s8 
148     117    conv2d_117 (Conv2D)               3,686,528    smul_s8_s8 
149     118    conv2d_118_pad_before (Pad)               0    smul_s8_s8 
150     118    conv2d_118 (Conv2D)                 259,328    smul_s8_s8 
151     119    conv2d_119 (Conv2D)               3,686,528    smul_s8_s8 
152     120    conv2d_120 (Conv2D)               3,686,528    smul_s8_s8 
153     121    conv2d_121_pad_before (Pad)               0    smul_s8_s8 
154     121    conv2d_121 (Conv2D)                 259,328    smul_s8_s8 
155     122    conv2d_122 (Conv2D)               3,686,528    smul_s8_s8 
156     124    concat_124 (Concat)                       0    smul_s8_s8 
157     125    conv2d_125 (Conv2D)              14,745,856    smul_s8_s8 
158     126    conv2d_126 (Conv2D)               7,372,928    smul_s8_s8 
159     127    resize_127 (Resize)                       0    smul_s8_s8 
160     128    concat_128 (Concat)                       0    smul_s8_s8 
161     139    conv2d_139 (Conv2D)              14,745,664    smul_s8_s8 
162     129    conv2d_129 (Conv2D)              14,745,664    smul_s8_s8 
163     130    conv2d_130 (Conv2D)               3,686,464    smul_s8_s8 
164     131    conv2d_131_pad_before (Pad)               0    smul_s8_s8 
165     131    conv2d_131 (Conv2D)                 518,464    smul_s8_s8 
166     132    conv2d_132 (Conv2D)               3,686,464    smul_s8_s8 
167     133    conv2d_133 (Conv2D)               3,686,464    smul_s8_s8 
168     134    conv2d_134_pad_before (Pad)               0    smul_s8_s8 
169     134    conv2d_134 (Conv2D)                 518,464    smul_s8_s8 
170     135    conv2d_135 (Conv2D)               3,686,464    smul_s8_s8 
171     136    conv2d_136 (Conv2D)               3,686,464    smul_s8_s8 
172     137    conv2d_137_pad_before (Pad)               0    smul_s8_s8 
173     137    conv2d_137 (Conv2D)                 518,464    smul_s8_s8 
174     138    conv2d_138 (Conv2D)               3,686,464    smul_s8_s8 
175     140    concat_140 (Concat)                       0    smul_s8_s8 
176     141    conv2d_141 (Conv2D)              14,745,728    smul_s8_s8 
177     142    conv2d_142 (Conv2D)               7,372,864    smul_s8_s8 
178     143    resize_143 (Resize)                       0    smul_s8_s8 
179     144    concat_144 (Concat)                       0    smul_s8_s8 
180     155    conv2d_155 (Conv2D)              14,745,632    smul_s8_s8 
181     145    conv2d_145 (Conv2D)              14,745,632    smul_s8_s8 
182     146    conv2d_146 (Conv2D)               3,686,432    smul_s8_s8 
183     147    conv2d_147_pad_before (Pad)               0    smul_s8_s8 
184     147    conv2d_147 (Conv2D)               1,036,832    smul_s8_s8 
185     148    conv2d_148 (Conv2D)               3,686,432    smul_s8_s8 
186     149    conv2d_149 (Conv2D)               3,686,432    smul_s8_s8 
187     150    conv2d_150_pad_before (Pad)               0    smul_s8_s8 
188     150    conv2d_150 (Conv2D)               1,036,832    smul_s8_s8 
189     151    conv2d_151 (Conv2D)               3,686,432    smul_s8_s8 
190     152    conv2d_152 (Conv2D)               3,686,432    smul_s8_s8 
191     153    conv2d_153_pad_before (Pad)               0    smul_s8_s8 
192     153    conv2d_153 (Conv2D)               1,036,832    smul_s8_s8 
193     154    conv2d_154 (Conv2D)               3,686,432    smul_s8_s8 
194     156    concat_156 (Concat)                       0    smul_s8_s8 
195     157    conv2d_157 (Conv2D)              14,745,664    smul_s8_s8 
196     172    conv2d_172_pad_before (Pad)               0    smul_s8_s8 
197     172    conv2d_172 (Conv2D)                 518,464    smul_s8_s8 
198     173    conv2d_173 (Conv2D)               3,686,464    smul_s8_s8 
199     174    concat_174 (Concat)                       0    smul_s8_s8 
200     185    conv2d_185 (Conv2D)               7,372,864    smul_s8_s8 
201     175    conv2d_175 (Conv2D)               7,372,864    smul_s8_s8 
202     176    conv2d_176 (Conv2D)               3,686,464    smul_s8_s8 
203     177    conv2d_177_pad_before (Pad)               0    smul_s8_s8 
204     177    conv2d_177 (Conv2D)                 518,464    smul_s8_s8 
205     178    conv2d_178 (Conv2D)               3,686,464    smul_s8_s8 
206     179    conv2d_179 (Conv2D)               3,686,464    smul_s8_s8 
207     180    conv2d_180_pad_before (Pad)               0    smul_s8_s8 
208     180    conv2d_180 (Conv2D)                 518,464    smul_s8_s8 
209     181    conv2d_181 (Conv2D)               3,686,464    smul_s8_s8 
210     182    conv2d_182 (Conv2D)               3,686,464    smul_s8_s8 
211     183    conv2d_183_pad_before (Pad)               0    smul_s8_s8 
212     183    conv2d_183 (Conv2D)                 518,464    smul_s8_s8 
213     184    conv2d_184 (Conv2D)               3,686,464    smul_s8_s8 
214     186    concat_186 (Concat)                       0    smul_s8_s8 
215     187    conv2d_187 (Conv2D)              14,745,728    smul_s8_s8 
216     202    conv2d_202_pad_before (Pad)               0    smul_s8_s8 
217     202    conv2d_202 (Conv2D)                 259,328    smul_s8_s8 
218     203    conv2d_203 (Conv2D)               3,686,528    smul_s8_s8 
219     204    concat_204 (Concat)                       0    smul_s8_s8 
220     215    conv2d_215 (Conv2D)               7,372,928    smul_s8_s8 
221     205    conv2d_205 (Conv2D)               7,372,928    smul_s8_s8 
222     206    conv2d_206 (Conv2D)               3,686,528    smul_s8_s8 
223     207    conv2d_207_pad_before (Pad)               0    smul_s8_s8 
224     207    conv2d_207 (Conv2D)                 259,328    smul_s8_s8 
225     208    conv2d_208 (Conv2D)               3,686,528    smul_s8_s8 
226     209    conv2d_209 (Conv2D)               3,686,528    smul_s8_s8 
227     210    conv2d_210_pad_before (Pad)               0    smul_s8_s8 
228     210    conv2d_210 (Conv2D)                 259,328    smul_s8_s8 
229     211    conv2d_211 (Conv2D)               3,686,528    smul_s8_s8 
230     212    conv2d_212 (Conv2D)               3,686,528    smul_s8_s8 
231     213    conv2d_213_pad_before (Pad)               0    smul_s8_s8 
232     213    conv2d_213 (Conv2D)                 259,328    smul_s8_s8 
233     214    conv2d_214 (Conv2D)               3,686,528    smul_s8_s8 
234     216    concat_216 (Concat)                       0    smul_s8_s8 
235     217    conv2d_217 (Conv2D)              14,745,856    smul_s8_s8 
236     218    conv2d_218 (Conv2D)               3,686,464    smul_s8_s8 
237     219    conv2d_219_pad_before (Pad)               0    smul_s8_s8 
238     219    conv2d_219 (Conv2D)                 129,664    smul_s8_s8 
239     220    conv2d_220 (Conv2D)                 921,664    smul_s8_s8 
240     221    conv2d_221_pad_before (Pad)               0    smul_s8_s8 
241     221    conv2d_221 (Conv2D)                 129,664    smul_s8_s8 
242     222    conv2d_222 (Conv2D)                 921,664    smul_s8_s8 
243     223    conv2d_223 (Conv2D)                 129,609    smul_s8_s8 
244     224    conv2d_224_pad_before (Pad)               0    smul_s8_s8 
245     224    conv2d_224 (Conv2D)                 129,664    smul_s8_s8 
246     225    conv2d_225 (Conv2D)                 921,664    smul_s8_s8 
247     226    conv2d_226_pad_before (Pad)               0    smul_s8_s8 
248     226    conv2d_226 (Conv2D)                 129,664    smul_s8_s8 
249     227    conv2d_227 (Conv2D)                 921,664    smul_s8_s8 
250     229    conv2d_229 (Conv2D)                 172,812    smul_s8_s8 
251     228    conv2d_228 (Conv2D)                  43,203    smul_s8_s8 
252     230    concat_230 (Concat)                       0    smul_s8_s8 
253     231    conversion_231 (Conversion)          10,800   smul_s8_f32 
254     188    conv2d_188 (Conv2D)               7,372,864    smul_s8_s8 
255     189    conv2d_189_pad_before (Pad)               0    smul_s8_s8 
256     189    conv2d_189 (Conv2D)                 518,464    smul_s8_s8 
257     190    conv2d_190 (Conv2D)               3,686,464    smul_s8_s8 
258     191    conv2d_191_pad_before (Pad)               0    smul_s8_s8 
259     191    conv2d_191 (Conv2D)                 518,464    smul_s8_s8 
260     192    conv2d_192 (Conv2D)               3,686,464    smul_s8_s8 
261     193    conv2d_193 (Conv2D)                 518,409    smul_s8_s8 
262     194    conv2d_194_pad_before (Pad)               0    smul_s8_s8 
263     194    conv2d_194 (Conv2D)                 518,464    smul_s8_s8 
264     195    conv2d_195 (Conv2D)               3,686,464    smul_s8_s8 
265     196    conv2d_196_pad_before (Pad)               0    smul_s8_s8 
266     196    conv2d_196 (Conv2D)                 518,464    smul_s8_s8 
267     197    conv2d_197 (Conv2D)               3,686,464    smul_s8_s8 
268     199    conv2d_199 (Conv2D)                 691,212    smul_s8_s8 
269     198    conv2d_198 (Conv2D)                 172,803    smul_s8_s8 
270     200    concat_200 (Concat)                       0    smul_s8_s8 
271     201    conversion_201 (Conversion)          43,200   smul_s8_f32 
272     158    conv2d_158 (Conv2D)              14,745,664    smul_s8_s8 
273     159    conv2d_159_pad_before (Pad)               0    smul_s8_s8 
274     159    conv2d_159 (Conv2D)               2,073,664    smul_s8_s8 
275     160    conv2d_160 (Conv2D)              14,745,664    smul_s8_s8 
276     161    conv2d_161_pad_before (Pad)               0    smul_s8_s8 
277     161    conv2d_161 (Conv2D)               2,073,664    smul_s8_s8 
278     162    conv2d_162 (Conv2D)              14,745,664    smul_s8_s8 
279     163    conv2d_163 (Conv2D)               2,073,609    smul_s8_s8 
280     164    conv2d_164_pad_before (Pad)               0    smul_s8_s8 
281     164    conv2d_164 (Conv2D)               2,073,664    smul_s8_s8 
282     165    conv2d_165 (Conv2D)              14,745,664    smul_s8_s8 
283     166    conv2d_166_pad_before (Pad)               0    smul_s8_s8 
284     166    conv2d_166 (Conv2D)               2,073,664    smul_s8_s8 
285     167    conv2d_167 (Conv2D)              14,745,664    smul_s8_s8 
286     169    conv2d_169 (Conv2D)               2,764,812    smul_s8_s8 
287     168    conv2d_168 (Conv2D)                 691,203    smul_s8_s8 
288     170    concat_170 (Concat)                       0    smul_s8_s8 
289     171    conversion_171 (Conversion)         172,800   smul_s8_f32 
------- ------ ----------------------------- ------------- ------------- 
total                                          904,126,900 

Number of operation types
---------------- ------------- ----------- 
operation type               #           % 
---------------- ------------- ----------- 
smul_u8_s8           1,382,400        0.2% 
smul_s8_s8         899,464,900       99.5% 
op_s8_s8             3,052,800        0.3% 
smul_s8_f32            226,800        0.0% 

Complexity report (model)
------ -------------------------- ------------------------- ------------------------- ------------ 
m_id   name                       c_macc                    c_rom                     c_id         
------ -------------------------- ------------------------- ------------------------- ------------ 
0      serving_default_input_10   |                  0.2%   |                  0.0%   [0]          
1      conv2d_1                   |||                2.1%   |                  0.0%   [1]          
2      conv2d_2                   ||||||||||||||||  11.0%   |                  0.2%   [2, 3]       
3      conv2d_3                   |                  0.2%   |                  0.0%   [4, 5]       
4      conv2d_4                   ||                 0.8%   |                  0.1%   [6]          
5      conv2d_5                   ||                 0.8%   |                  0.0%   [9]          
6      conv2d_6                   |                  0.4%   |                  0.0%   [10]         
7      conv2d_7                   |                  0.2%   |                  0.0%   [11, 12]     
8      conv2d_8                   |                  0.4%   |                  0.0%   [13]         
9      eltwise_9                  |                  0.0%   |                  0.0%   [14]         
10     conv2d_10                  |                  0.4%   |                  0.0%   [15]         
11     conv2d_11                  |                  0.2%   |                  0.0%   [16, 17]     
12     conv2d_12                  |                  0.4%   |                  0.0%   [18]         
13     eltwise_13                 |                  0.0%   |                  0.0%   [19]         
14     conv2d_14                  |                  0.4%   |                  0.0%   [20]         
15     conv2d_15                  |                  0.2%   |                  0.0%   [21, 22]     
16     conv2d_16                  |                  0.4%   |                  0.0%   [23]         
17     eltwise_17                 |                  0.0%   |                  0.0%   [24]         
18     conv2d_18                  ||                 0.9%   |                  0.0%   [7, 8]       
19     concat_19                  |                  0.0%   |                  0.0%   [25]         
20     conv2d_20                  |||                1.6%   |                  0.1%   [26]         
21     conv2d_21                  |                  0.1%   |                  0.0%   [27, 28]     
22     conv2d_22                  ||                 0.8%   |                  0.2%   [29]         
23     conv2d_23                  ||                 0.8%   |                  0.2%   [32]         
24     conv2d_24                  |                  0.4%   |                  0.1%   [33]         
25     conv2d_25                  |                  0.1%   |                  0.0%   [34, 35]     
26     conv2d_26                  |                  0.4%   |                  0.1%   [36]         
27     eltwise_27                 |                  0.0%   |                  0.0%   [37]         
28     conv2d_28                  |                  0.4%   |                  0.1%   [38]         
29     conv2d_29                  |                  0.1%   |                  0.0%   [39, 40]     
30     conv2d_30                  |                  0.4%   |                  0.1%   [41]         
31     eltwise_31                 |                  0.0%   |                  0.0%   [42]         
32     conv2d_32                  |                  0.4%   |                  0.1%   [43]         
33     conv2d_33                  |                  0.1%   |                  0.0%   [44, 45]     
34     conv2d_34                  |                  0.4%   |                  0.1%   [46]         
35     eltwise_35                 |                  0.0%   |                  0.0%   [47]         
36     conv2d_36                  |                  0.4%   |                  0.1%   [48]         
37     conv2d_37                  |                  0.1%   |                  0.0%   [49, 50]     
38     conv2d_38                  |                  0.4%   |                  0.1%   [51]         
39     eltwise_39                 |                  0.0%   |                  0.0%   [52]         
40     conv2d_40                  |                  0.4%   |                  0.1%   [53]         
41     conv2d_41                  |                  0.1%   |                  0.0%   [54, 55]     
42     conv2d_42                  |                  0.4%   |                  0.1%   [56]         
43     eltwise_43                 |                  0.0%   |                  0.0%   [57]         
44     conv2d_44                  |                  0.4%   |                  0.1%   [58]         
45     conv2d_45                  |                  0.1%   |                  0.0%   [59, 60]     
46     conv2d_46                  |                  0.4%   |                  0.1%   [61]         
47     eltwise_47                 |                  0.0%   |                  0.0%   [62]         
48     conv2d_48                  |                  0.4%   |                  0.1%   [63]         
49     conv2d_49                  |                  0.1%   |                  0.0%   [64, 65]     
50     conv2d_50                  |                  0.4%   |                  0.1%   [66]         
51     eltwise_51                 |                  0.0%   |                  0.0%   [67]         
52     conv2d_52                  |                  0.4%   |                  0.1%   [68]         
53     conv2d_53                  |                  0.1%   |                  0.0%   [69, 70]     
54     conv2d_54                  |                  0.4%   |                  0.1%   [71]         
55     eltwise_55                 |                  0.0%   |                  0.0%   [72]         
56     conv2d_56                  |                  0.4%   |                  0.1%   [73]         
57     conv2d_57                  |                  0.1%   |                  0.0%   [74, 75]     
58     conv2d_58                  |                  0.4%   |                  0.1%   [76]         
59     eltwise_59                 |                  0.0%   |                  0.0%   [77]         
60     conv2d_60                  ||                 0.8%   |                  0.2%   [30, 31]     
61     concat_61                  |                  0.0%   |                  0.0%   [78]         
62     conv2d_62                  |||                1.6%   |                  0.4%   [79]         
63     conv2d_63                  |                  0.1%   |                  0.1%   [80, 81]     
64     conv2d_64                  ||                 0.8%   |                  0.7%   [82]         
65     conv2d_65                  ||                 0.8%   |                  0.7%   [85]         
66     conv2d_66                  |                  0.4%   |                  0.4%   [86]         
67     conv2d_67                  |                  0.1%   |                  0.1%   [87, 88]     
68     conv2d_68                  |                  0.4%   |                  0.4%   [89]         
69     eltwise_69                 |                  0.0%   |                  0.0%   [90]         
70     conv2d_70                  |                  0.4%   |                  0.4%   [91]         
71     conv2d_71                  |                  0.1%   |                  0.1%   [92, 93]     
72     conv2d_72                  |                  0.4%   |                  0.4%   [94]         
73     eltwise_73                 |                  0.0%   |                  0.0%   [95]         
74     conv2d_74                  |                  0.4%   |                  0.4%   [96]         
75     conv2d_75                  |                  0.1%   |                  0.1%   [97, 98]     
76     conv2d_76                  |                  0.4%   |                  0.4%   [99]         
77     eltwise_77                 |                  0.0%   |                  0.0%   [100]        
78     conv2d_78                  |                  0.4%   |                  0.4%   [101]        
79     conv2d_79                  |                  0.1%   |                  0.1%   [102, 103]   
80     conv2d_80                  |                  0.4%   |                  0.4%   [104]        
81     eltwise_81                 |                  0.0%   |                  0.0%   [105]        
82     conv2d_82                  |                  0.4%   |                  0.4%   [106]        
83     conv2d_83                  |                  0.1%   |                  0.1%   [107, 108]   
84     conv2d_84                  |                  0.4%   |                  0.4%   [109]        
85     eltwise_85                 |                  0.0%   |                  0.0%   [110]        
86     conv2d_86                  |                  0.4%   |                  0.4%   [111]        
87     conv2d_87                  |                  0.1%   |                  0.1%   [112, 113]   
88     conv2d_88                  |                  0.4%   |                  0.4%   [114]        
89     eltwise_89                 |                  0.0%   |                  0.0%   [115]        
90     conv2d_90                  |                  0.4%   |                  0.4%   [116]        
91     conv2d_91                  |                  0.1%   |                  0.1%   [117, 118]   
92     conv2d_92                  |                  0.4%   |                  0.4%   [119]        
93     eltwise_93                 |                  0.0%   |                  0.0%   [120]        
94     conv2d_94                  |                  0.4%   |                  0.4%   [121]        
95     conv2d_95                  |                  0.1%   |                  0.1%   [122, 123]   
96     conv2d_96                  |                  0.4%   |                  0.4%   [124]        
97     eltwise_97                 |                  0.0%   |                  0.0%   [125]        
98     conv2d_98                  |                  0.4%   |                  0.4%   [126]        
99     conv2d_99                  |                  0.1%   |                  0.1%   [127, 128]   
100    conv2d_100                 |                  0.4%   |                  0.4%   [129]        
101    eltwise_101                |                  0.0%   |                  0.0%   [130]        
102    conv2d_102                 ||                 0.8%   |                  0.7%   [83, 84]     
103    concat_103                 |                  0.0%   |                  0.0%   [131]        
104    conv2d_104                 |||                1.6%   ||                 1.4%   [132]        
105    conv2d_105                 |                  0.0%   |                  0.1%   [133, 134]   
106    conv2d_106                 ||                 0.8%   ||||               2.9%   [135]        
107    conv2d_107                 ||                 0.8%   ||||               2.8%   [136]        
108    pool_108                   |                  0.1%   |                  0.0%   [139]        
109    pool_109                   |                  0.3%   |                  0.0%   [138]        
110    pool_110                   |                  0.5%   |                  0.0%   [137]        
111    concat_111                 |                  0.0%   |                  0.0%   [140]        
112    conv2d_112                 |||||              3.3%   ||||||||||||||||  11.2%   [141]        
113    conv2d_113                 ||                 0.8%   ||||               2.8%   [143]        
114    conv2d_114                 |                  0.4%   ||                 1.4%   [144]        
115    conv2d_115                 |                  0.0%   |                  0.1%   [145, 146]   
116    conv2d_116                 |                  0.4%   ||                 1.4%   [147]        
117    conv2d_117                 |                  0.4%   ||                 1.4%   [148]        
118    conv2d_118                 |                  0.0%   |                  0.1%   [149, 150]   
119    conv2d_119                 |                  0.4%   ||                 1.4%   [151]        
120    conv2d_120                 |                  0.4%   ||                 1.4%   [152]        
121    conv2d_121                 |                  0.0%   |                  0.1%   [153, 154]   
122    conv2d_122                 |                  0.4%   ||                 1.4%   [155]        
123    conv2d_123                 ||                 0.8%   ||||               2.8%   [142]        
124    concat_124                 |                  0.0%   |                  0.0%   [156]        
125    conv2d_125                 |||                1.6%   ||||||||           5.7%   [157]        
126    conv2d_126                 ||                 0.8%   ||||               2.8%   [158]        
127    resize_127                 |                  0.0%   |                  0.0%   [159]        
128    concat_128                 |                  0.0%   |                  0.0%   [160]        
129    conv2d_129                 |||                1.6%   ||                 1.4%   [162]        
130    conv2d_130                 |                  0.4%   |                  0.4%   [163]        
131    conv2d_131                 |                  0.1%   |                  0.1%   [164, 165]   
132    conv2d_132                 |                  0.4%   |                  0.4%   [166]        
133    conv2d_133                 |                  0.4%   |                  0.4%   [167]        
134    conv2d_134                 |                  0.1%   |                  0.1%   [168, 169]   
135    conv2d_135                 |                  0.4%   |                  0.4%   [170]        
136    conv2d_136                 |                  0.4%   |                  0.4%   [171]        
137    conv2d_137                 |                  0.1%   |                  0.1%   [172, 173]   
138    conv2d_138                 |                  0.4%   |                  0.4%   [174]        
139    conv2d_139                 |||                1.6%   ||                 1.4%   [161]        
140    concat_140                 |                  0.0%   |                  0.0%   [175]        
141    conv2d_141                 |||                1.6%   ||                 1.4%   [176]        
142    conv2d_142                 ||                 0.8%   |                  0.7%   [177]        
143    resize_143                 |                  0.0%   |                  0.0%   [178]        
144    concat_144                 |                  0.0%   |                  0.0%   [179]        
145    conv2d_145                 |||                1.6%   |                  0.4%   [181]        
146    conv2d_146                 |                  0.4%   |                  0.1%   [182]        
147    conv2d_147                 |                  0.1%   |                  0.0%   [183, 184]   
148    conv2d_148                 |                  0.4%   |                  0.1%   [185]        
149    conv2d_149                 |                  0.4%   |                  0.1%   [186]        
150    conv2d_150                 |                  0.1%   |                  0.0%   [187, 188]   
151    conv2d_151                 |                  0.4%   |                  0.1%   [189]        
152    conv2d_152                 |                  0.4%   |                  0.1%   [190]        
153    conv2d_153                 |                  0.1%   |                  0.0%   [191, 192]   
154    conv2d_154                 |                  0.4%   |                  0.1%   [193]        
155    conv2d_155                 |||                1.6%   |                  0.4%   [180]        
156    concat_156                 |                  0.0%   |                  0.0%   [194]        
157    conv2d_157                 |||                1.6%   |                  0.4%   [195]        
158    conv2d_158                 |||                1.6%   |                  0.4%   [272]        
159    conv2d_159                 |                  0.2%   |                  0.1%   [273, 274]   
160    conv2d_160                 |||                1.6%   |                  0.4%   [275]        
161    conv2d_161                 |                  0.2%   |                  0.1%   [276, 277]   
162    conv2d_162                 |||                1.6%   |                  0.4%   [278]        
163    conv2d_163                 |                  0.2%   |                  0.1%   [279]        
164    conv2d_164                 |                  0.2%   |                  0.1%   [280, 281]   
165    conv2d_165                 |||                1.6%   |                  0.4%   [282]        
166    conv2d_166                 |                  0.2%   |                  0.1%   [283, 284]   
167    conv2d_167                 |||                1.6%   |                  0.4%   [285]        
168    conv2d_168                 |                  0.1%   |                  0.0%   [287]        
169    conv2d_169                 |                  0.3%   |                  0.1%   [286]        
170    concat_170                 |                  0.0%   |                  0.0%   [288]        
171    conversion_171             |                  0.0%   |                  0.0%   [289]        
172    conv2d_172                 |                  0.1%   |                  0.1%   [196, 197]   
173    conv2d_173                 |                  0.4%   |                  0.4%   [198]        
174    concat_174                 |                  0.0%   |                  0.0%   [199]        
175    conv2d_175                 ||                 0.8%   |                  0.7%   [201]        
176    conv2d_176                 |                  0.4%   |                  0.4%   [202]        
177    conv2d_177                 |                  0.1%   |                  0.1%   [203, 204]   
178    conv2d_178                 |                  0.4%   |                  0.4%   [205]        
179    conv2d_179                 |                  0.4%   |                  0.4%   [206]        
180    conv2d_180                 |                  0.1%   |                  0.1%   [207, 208]   
181    conv2d_181                 |                  0.4%   |                  0.4%   [209]        
182    conv2d_182                 |                  0.4%   |                  0.4%   [210]        
183    conv2d_183                 |                  0.1%   |                  0.1%   [211, 212]   
184    conv2d_184                 |                  0.4%   |                  0.4%   [213]        
185    conv2d_185                 ||                 0.8%   |                  0.7%   [200]        
186    concat_186                 |                  0.0%   |                  0.0%   [214]        
187    conv2d_187                 |||                1.6%   ||                 1.4%   [215]        
188    conv2d_188                 ||                 0.8%   |                  0.7%   [254]        
189    conv2d_189                 |                  0.1%   |                  0.1%   [255, 256]   
190    conv2d_190                 |                  0.4%   |                  0.4%   [257]        
191    conv2d_191                 |                  0.1%   |                  0.1%   [258, 259]   
192    conv2d_192                 |                  0.4%   |                  0.4%   [260]        
193    conv2d_193                 |                  0.1%   |                  0.1%   [261]        
194    conv2d_194                 |                  0.1%   |                  0.1%   [262, 263]   
195    conv2d_195                 |                  0.4%   |                  0.4%   [264]        
196    conv2d_196                 |                  0.1%   |                  0.1%   [265, 266]   
197    conv2d_197                 |                  0.4%   |                  0.4%   [267]        
198    conv2d_198                 |                  0.0%   |                  0.0%   [269]        
199    conv2d_199                 |                  0.1%   |                  0.1%   [268]        
200    concat_200                 |                  0.0%   |                  0.0%   [270]        
201    conversion_201             |                  0.0%   |                  0.0%   [271]        
202    conv2d_202                 |                  0.0%   |                  0.1%   [216, 217]   
203    conv2d_203                 |                  0.4%   ||                 1.4%   [218]        
204    concat_204                 |                  0.0%   |                  0.0%   [219]        
205    conv2d_205                 ||                 0.8%   ||||               2.8%   [221]        
206    conv2d_206                 |                  0.4%   ||                 1.4%   [222]        
207    conv2d_207                 |                  0.0%   |                  0.1%   [223, 224]   
208    conv2d_208                 |                  0.4%   ||                 1.4%   [225]        
209    conv2d_209                 |                  0.4%   ||                 1.4%   [226]        
210    conv2d_210                 |                  0.0%   |                  0.1%   [227, 228]   
211    conv2d_211                 |                  0.4%   ||                 1.4%   [229]        
212    conv2d_212                 |                  0.4%   ||                 1.4%   [230]        
213    conv2d_213                 |                  0.0%   |                  0.1%   [231, 232]   
214    conv2d_214                 |                  0.4%   ||                 1.4%   [233]        
215    conv2d_215                 ||                 0.8%   ||||               2.8%   [220]        
216    concat_216                 |                  0.0%   |                  0.0%   [234]        
217    conv2d_217                 |||                1.6%   ||||||||           5.7%   [235]        
218    conv2d_218                 |                  0.4%   ||                 1.4%   [236]        
219    conv2d_219                 |                  0.0%   |                  0.1%   [237, 238]   
220    conv2d_220                 |                  0.1%   |                  0.4%   [239]        
221    conv2d_221                 |                  0.0%   |                  0.1%   [240, 241]   
222    conv2d_222                 |                  0.1%   |                  0.4%   [242]        
223    conv2d_223                 |                  0.0%   |                  0.1%   [243]        
224    conv2d_224                 |                  0.0%   |                  0.1%   [244, 245]   
225    conv2d_225                 |                  0.1%   |                  0.4%   [246]        
226    conv2d_226                 |                  0.0%   |                  0.1%   [247, 248]   
227    conv2d_227                 |                  0.1%   |                  0.4%   [249]        
228    conv2d_228                 |                  0.0%   |                  0.0%   [251]        
229    conv2d_229                 |                  0.0%   |                  0.1%   [250]        
230    concat_230                 |                  0.0%   |                  0.0%   [252]        
231    conversion_231             |                  0.0%   |                  0.0%   [253]        
------ -------------------------- ------------------------- ------------------------- ------------ 
macc=904,126,900 weights=1,176,884 act=1,036,800 ram_io=0

Generated files (7)
--------------------------------------------------------------------------------------------------------------- 
C:\Users\alert\repos\stm32ai-modelzoo-services\experiments_outputs\output\stm32ai_files\network_data_params.h   
C:\Users\alert\repos\stm32ai-modelzoo-services\experiments_outputs\output\stm32ai_files\network_data_params.c   
C:\Users\alert\repos\stm32ai-modelzoo-services\experiments_outputs\output\stm32ai_files\network_data.h          
C:\Users\alert\repos\stm32ai-modelzoo-services\experiments_outputs\output\stm32ai_files\network_data.c          
C:\Users\alert\repos\stm32ai-modelzoo-services\experiments_outputs\output\stm32ai_files\network_config.h        
C:\Users\alert\repos\stm32ai-modelzoo-services\experiments_outputs\output\stm32ai_files\network.h               
C:\Users\alert\repos\stm32ai-modelzoo-services\experiments_outputs\output\stm32ai_files\network.c               
