ST Edge AI Core v2.0.0-20049
Created date          : 2025-04-25 15:53:58
Parameters            : generate --target stm32h7 -m ../../experiments_outputs/2025_04_24_22_05_29/quantized_models/quantized_model.tflite --output C:\Users\alert\repos\stm32ai-modelzoo-services\experiments_outputs\2025_04_25_15_45_27 --workspace C:\Users\alert\repos\stm32ai-modelzoo-services\experiments_outputs\2025_04_25_15_45_27 --allocate-inputs --allocate-outputs --split-weights -O balanced --memory-pool ../../application_code/object_detection/STM32H7/mempools_STM32H747I-DISCO.json

Exec/report summary (generate)
--------------------------------------------------------------------------------------------------------------------------------------------------------
model file         :   C:\Users\alert\repos\stm32ai-modelzoo-services\experiments_outputs\2025_04_24_22_05_29\quantized_models\quantized_model.tflite   
type               :   tflite                                                                                                                           
c_name             :   network                                                                                                                          
compression        :   lossless                                                                                                                         
options            :   allocate-inputs, allocate-outputs, multi-heaps, split-weights                                                                    
optimization       :   balanced                                                                                                                         
target/series      :   stm32h7                                                                                                                          
memory pool        :   C:\Users\alert\repos\stm32ai-modelzoo-services\application_code\object_detection\STM32H7\mempools_STM32H747I-DISCO.json          
workspace dir      :   C:\Users\alert\repos\stm32ai-modelzoo-services\experiments_outputs\2025_04_25_15_45_27                                           
output dir         :   C:\Users\alert\repos\stm32ai-modelzoo-services\experiments_outputs\2025_04_25_15_45_27                                           
model_fmt          :   sa/ua per tensor                                                                                                                 
model_name         :   quantized_model                                                                                                                  
model_hash         :   0x5e57c30d898368c8a9a34dcff83369fa                                                                                               
params #           :   17,655,494 items (16.98 MiB)                                                                                                     
--------------------------------------------------------------------------------------------------------------------------------------------------------
input 1/1          :   'serving_default_input_10', uint8(1x480x480x3), 675.00 KBytes, QLinear(0.003921569,0,uint8), activations                         
output 1/3         :   'conversion_232', f32(1x15x15x18), 15.82 KBytes, activations                                                                     
output 2/3         :   'conversion_172', f32(1x60x60x18), 253.12 KBytes, activations                                                                    
output 3/3         :   'conversion_202', f32(1x30x30x18), 63.28 KBytes, activations                                                                     
outputs (total)    :   0 Bytes                                                                                                                          
macc               :   12,216,026,230                                                                                                                   
weights (ro)       :   17,799,884 B (16.98 MiB) (372 segments) / -52,822,092(-74.8%) vs float model                                                     
activations (rw)   :   4,198,100 B (4.00 MiB) (3 segments) *                                                                                            
ram (total)        :   4,198,100 B (4.00 MiB) = 4,198,100 + 0 + 0                                                                                       
--------------------------------------------------------------------------------------------------------------------------------------------------------
(*) 'input'/'output' buffers can be used from the activations buffer
 
 Memory-pools summary (activations/ domain)
 -------------------------- ----- ---------------------------- --------- 
 name                       id    used                         buffer#   
 -------------------------- ----- ---------------------------- --------- 
 DTCMRAM                    0     34.96 KiB (29.1%)            186       
 AXIRAM                     1     373.50 KiB (90.0%)           78        
 SDRAM                      2     3.60 MiB (18.5%)             211       
 conv2d_1_weights_array     3     324 B (32400.0%)             1         
 conv2d_1_bias_array        4     48 B (4800.0%)               1         
 conv2d_2_weights_array     5     6.75 KiB (691200.0%)         1         
 conv2d_2_bias_array        6     256 B (25600.0%)             1         
 conv2d_3_weights_array     7     576 B (57600.0%)             1         
 conv2d_3_bias_array        8     256 B (25600.0%)             1         
 conv2d_4_weights_array     9     8.00 KiB (819200.0%)         1         
 conv2d_4_bias_array        10    512 B (51200.0%)             1         
 conv2d_18_weights_array    11    8.00 KiB (819200.0%)         1         
 conv2d_18_bias_array       12    256 B (25600.0%)             1         
 conv2d_5_weights_array     13    8.00 KiB (819200.0%)         1         
 conv2d_5_bias_array        14    256 B (25600.0%)             1         
 conv2d_6_weights_array     15    4.00 KiB (409600.0%)         1         
 conv2d_6_bias_array        16    256 B (25600.0%)             1         
 conv2d_7_weights_array     17    576 B (57600.0%)             1         
 conv2d_7_bias_array        18    256 B (25600.0%)             1         
 conv2d_8_weights_array     19    4.00 KiB (409600.0%)         1         
 conv2d_8_bias_array        20    256 B (25600.0%)             1         
 conv2d_10_weights_array    21    4.00 KiB (409600.0%)         1         
 conv2d_10_bias_array       22    256 B (25600.0%)             1         
 conv2d_11_weights_array    23    576 B (57600.0%)             1         
 conv2d_11_bias_array       24    256 B (25600.0%)             1         
 conv2d_12_weights_array    25    4.00 KiB (409600.0%)         1         
 conv2d_12_bias_array       26    256 B (25600.0%)             1         
 conv2d_14_weights_array    27    4.00 KiB (409600.0%)         1         
 conv2d_14_bias_array       28    256 B (25600.0%)             1         
 conv2d_15_weights_array    29    576 B (57600.0%)             1         
 conv2d_15_bias_array       30    256 B (25600.0%)             1         
 conv2d_16_weights_array    31    4.00 KiB (409600.0%)         1         
 conv2d_16_bias_array       32    256 B (25600.0%)             1         
 conv2d_20_weights_array    33    16.00 KiB (1638400.0%)       1         
 conv2d_20_bias_array       34    512 B (51200.0%)             1         
 conv2d_21_weights_array    35    1.12 KiB (115200.0%)         1         
 conv2d_21_bias_array       36    512 B (51200.0%)             1         
 conv2d_22_weights_array    37    32.00 KiB (3276800.0%)       1         
 conv2d_22_bias_array       38    1024 B (102400.0%)           1         
 conv2d_60_weights_array    39    32.00 KiB (3276800.0%)       1         
 conv2d_60_bias_array       40    512 B (51200.0%)             1         
 conv2d_23_weights_array    41    32.00 KiB (3276800.0%)       1         
 conv2d_23_bias_array       42    512 B (51200.0%)             1         
 conv2d_24_weights_array    43    16.00 KiB (1638400.0%)       1         
 conv2d_24_bias_array       44    512 B (51200.0%)             1         
 conv2d_25_weights_array    45    1.12 KiB (115200.0%)         1         
 conv2d_25_bias_array       46    512 B (51200.0%)             1         
 conv2d_26_weights_array    47    16.00 KiB (1638400.0%)       1         
 conv2d_26_bias_array       48    512 B (51200.0%)             1         
 conv2d_28_weights_array    49    16.00 KiB (1638400.0%)       1         
 conv2d_28_bias_array       50    512 B (51200.0%)             1         
 conv2d_29_weights_array    51    1.12 KiB (115200.0%)         1         
 conv2d_29_bias_array       52    512 B (51200.0%)             1         
 conv2d_30_weights_array    53    16.00 KiB (1638400.0%)       1         
 conv2d_30_bias_array       54    512 B (51200.0%)             1         
 conv2d_32_weights_array    55    16.00 KiB (1638400.0%)       1         
 conv2d_32_bias_array       56    512 B (51200.0%)             1         
 conv2d_33_weights_array    57    1.12 KiB (115200.0%)         1         
 conv2d_33_bias_array       58    512 B (51200.0%)             1         
 conv2d_34_weights_array    59    16.00 KiB (1638400.0%)       1         
 conv2d_34_bias_array       60    512 B (51200.0%)             1         
 conv2d_36_weights_array    61    16.00 KiB (1638400.0%)       1         
 conv2d_36_bias_array       62    512 B (51200.0%)             1         
 conv2d_37_weights_array    63    1.12 KiB (115200.0%)         1         
 conv2d_37_bias_array       64    512 B (51200.0%)             1         
 conv2d_38_weights_array    65    16.00 KiB (1638400.0%)       1         
 conv2d_38_bias_array       66    512 B (51200.0%)             1         
 conv2d_40_weights_array    67    16.00 KiB (1638400.0%)       1         
 conv2d_40_bias_array       68    512 B (51200.0%)             1         
 conv2d_41_weights_array    69    1.12 KiB (115200.0%)         1         
 conv2d_41_bias_array       70    512 B (51200.0%)             1         
 conv2d_42_weights_array    71    16.00 KiB (1638400.0%)       1         
 conv2d_42_bias_array       72    512 B (51200.0%)             1         
 conv2d_44_weights_array    73    16.00 KiB (1638400.0%)       1         
 conv2d_44_bias_array       74    512 B (51200.0%)             1         
 conv2d_45_weights_array    75    1.12 KiB (115200.0%)         1         
 conv2d_45_bias_array       76    512 B (51200.0%)             1         
 conv2d_46_weights_array    77    16.00 KiB (1638400.0%)       1         
 conv2d_46_bias_array       78    512 B (51200.0%)             1         
 conv2d_48_weights_array    79    16.00 KiB (1638400.0%)       1         
 conv2d_48_bias_array       80    512 B (51200.0%)             1         
 conv2d_49_weights_array    81    1.12 KiB (115200.0%)         1         
 conv2d_49_bias_array       82    512 B (51200.0%)             1         
 conv2d_50_weights_array    83    16.00 KiB (1638400.0%)       1         
 conv2d_50_bias_array       84    512 B (51200.0%)             1         
 conv2d_52_weights_array    85    16.00 KiB (1638400.0%)       1         
 conv2d_52_bias_array       86    512 B (51200.0%)             1         
 conv2d_53_weights_array    87    1.12 KiB (115200.0%)         1         
 conv2d_53_bias_array       88    512 B (51200.0%)             1         
 conv2d_54_weights_array    89    16.00 KiB (1638400.0%)       1         
 conv2d_54_bias_array       90    512 B (51200.0%)             1         
 conv2d_56_weights_array    91    16.00 KiB (1638400.0%)       1         
 conv2d_56_bias_array       92    512 B (51200.0%)             1         
 conv2d_57_weights_array    93    1.12 KiB (115200.0%)         1         
 conv2d_57_bias_array       94    512 B (51200.0%)             1         
 conv2d_58_weights_array    95    16.00 KiB (1638400.0%)       1         
 conv2d_58_bias_array       96    512 B (51200.0%)             1         
 conv2d_62_weights_array    97    64.00 KiB (6553600.0%)       1         
 conv2d_62_bias_array       98    1024 B (102400.0%)           1         
 conv2d_63_weights_array    99    2.25 KiB (230400.0%)         1         
 conv2d_63_bias_array       100   1024 B (102400.0%)           1         
 conv2d_64_weights_array    101   128.00 KiB (13107200.0%)     1         
 conv2d_64_bias_array       102   2.00 KiB (204800.0%)         1         
 conv2d_102_weights_array   103   128.00 KiB (13107200.0%)     1         
 conv2d_102_bias_array      104   1024 B (102400.0%)           1         
 conv2d_65_weights_array    105   128.00 KiB (13107200.0%)     1         
 conv2d_65_bias_array       106   1024 B (102400.0%)           1         
 conv2d_66_weights_array    107   64.00 KiB (6553600.0%)       1         
 conv2d_66_bias_array       108   1024 B (102400.0%)           1         
 conv2d_67_weights_array    109   2.25 KiB (230400.0%)         1         
 conv2d_67_bias_array       110   1024 B (102400.0%)           1         
 conv2d_68_weights_array    111   64.00 KiB (6553600.0%)       1         
 conv2d_68_bias_array       112   1024 B (102400.0%)           1         
 conv2d_70_weights_array    113   64.00 KiB (6553600.0%)       1         
 conv2d_70_bias_array       114   1024 B (102400.0%)           1         
 conv2d_71_weights_array    115   2.25 KiB (230400.0%)         1         
 conv2d_71_bias_array       116   1024 B (102400.0%)           1         
 conv2d_72_weights_array    117   64.00 KiB (6553600.0%)       1         
 conv2d_72_bias_array       118   1024 B (102400.0%)           1         
 conv2d_74_weights_array    119   64.00 KiB (6553600.0%)       1         
 conv2d_74_bias_array       120   1024 B (102400.0%)           1         
 conv2d_75_weights_array    121   2.25 KiB (230400.0%)         1         
 conv2d_75_bias_array       122   1024 B (102400.0%)           1         
 conv2d_76_weights_array    123   64.00 KiB (6553600.0%)       1         
 conv2d_76_bias_array       124   1024 B (102400.0%)           1         
 conv2d_78_weights_array    125   64.00 KiB (6553600.0%)       1         
 conv2d_78_bias_array       126   1024 B (102400.0%)           1         
 conv2d_79_weights_array    127   2.25 KiB (230400.0%)         1         
 conv2d_79_bias_array       128   1024 B (102400.0%)           1         
 conv2d_80_weights_array    129   64.00 KiB (6553600.0%)       1         
 conv2d_80_bias_array       130   1024 B (102400.0%)           1         
 conv2d_82_weights_array    131   64.00 KiB (6553600.0%)       1         
 conv2d_82_bias_array       132   1024 B (102400.0%)           1         
 conv2d_83_weights_array    133   2.25 KiB (230400.0%)         1         
 conv2d_83_bias_array       134   1024 B (102400.0%)           1         
 conv2d_84_weights_array    135   64.00 KiB (6553600.0%)       1         
 conv2d_84_bias_array       136   1024 B (102400.0%)           1         
 conv2d_86_weights_array    137   64.00 KiB (6553600.0%)       1         
 conv2d_86_bias_array       138   1024 B (102400.0%)           1         
 conv2d_87_weights_array    139   2.25 KiB (230400.0%)         1         
 conv2d_87_bias_array       140   1024 B (102400.0%)           1         
 conv2d_88_weights_array    141   64.00 KiB (6553600.0%)       1         
 conv2d_88_bias_array       142   1024 B (102400.0%)           1         
 conv2d_90_weights_array    143   64.00 KiB (6553600.0%)       1         
 conv2d_90_bias_array       144   1024 B (102400.0%)           1         
 conv2d_91_weights_array    145   2.25 KiB (230400.0%)         1         
 conv2d_91_bias_array       146   1024 B (102400.0%)           1         
 conv2d_92_weights_array    147   64.00 KiB (6553600.0%)       1         
 conv2d_92_bias_array       148   1024 B (102400.0%)           1         
 conv2d_94_weights_array    149   64.00 KiB (6553600.0%)       1         
 conv2d_94_bias_array       150   1024 B (102400.0%)           1         
 conv2d_95_weights_array    151   2.25 KiB (230400.0%)         1         
 conv2d_95_bias_array       152   1024 B (102400.0%)           1         
 conv2d_96_weights_array    153   64.00 KiB (6553600.0%)       1         
 conv2d_96_bias_array       154   1024 B (102400.0%)           1         
 conv2d_98_weights_array    155   64.00 KiB (6553600.0%)       1         
 conv2d_98_bias_array       156   1024 B (102400.0%)           1         
 conv2d_99_weights_array    157   2.25 KiB (230400.0%)         1         
 conv2d_99_bias_array       158   1024 B (102400.0%)           1         
 conv2d_100_weights_array   159   64.00 KiB (6553600.0%)       1         
 conv2d_100_bias_array      160   1024 B (102400.0%)           1         
 conv2d_104_weights_array   161   256.00 KiB (26214400.0%)     1         
 conv2d_104_bias_array      162   2.00 KiB (204800.0%)         1         
 conv2d_105_weights_array   163   4.50 KiB (460800.0%)         1         
 conv2d_105_bias_array      164   2.00 KiB (204800.0%)         1         
 conv2d_106_weights_array   165   512.00 KiB (52428800.0%)     1         
 conv2d_106_bias_array      166   4.00 KiB (409600.0%)         1         
 conv2d_107_weights_array   167   512.00 KiB (52428800.0%)     1         
 conv2d_107_bias_array      168   2.00 KiB (204800.0%)         1         
 conv2d_112_weights_array   169   2.00 MiB (209715200.0%)      1         
 conv2d_112_bias_array      170   4.00 KiB (409600.0%)         1         
 conv2d_123_weights_array   171   512.00 KiB (52428800.0%)     1         
 conv2d_123_bias_array      172   2.00 KiB (204800.0%)         1         
 conv2d_113_weights_array   173   512.00 KiB (52428800.0%)     1         
 conv2d_113_bias_array      174   2.00 KiB (204800.0%)         1         
 conv2d_114_weights_array   175   256.00 KiB (26214400.0%)     1         
 conv2d_114_bias_array      176   2.00 KiB (204800.0%)         1         
 conv2d_115_weights_array   177   4.50 KiB (460800.0%)         1         
 conv2d_115_bias_array      178   2.00 KiB (204800.0%)         1         
 conv2d_116_weights_array   179   256.00 KiB (26214400.0%)     1         
 conv2d_116_bias_array      180   2.00 KiB (204800.0%)         1         
 conv2d_117_weights_array   181   256.00 KiB (26214400.0%)     1         
 conv2d_117_bias_array      182   2.00 KiB (204800.0%)         1         
 conv2d_118_weights_array   183   4.50 KiB (460800.0%)         1         
 conv2d_118_bias_array      184   2.00 KiB (204800.0%)         1         
 conv2d_119_weights_array   185   256.00 KiB (26214400.0%)     1         
 conv2d_119_bias_array      186   2.00 KiB (204800.0%)         1         
 conv2d_120_weights_array   187   256.00 KiB (26214400.0%)     1         
 conv2d_120_bias_array      188   2.00 KiB (204800.0%)         1         
 conv2d_121_weights_array   189   4.50 KiB (460800.0%)         1         
 conv2d_121_bias_array      190   2.00 KiB (204800.0%)         1         
 conv2d_122_weights_array   191   256.00 KiB (26214400.0%)     1         
 conv2d_122_bias_array      192   2.00 KiB (204800.0%)         1         
 conv2d_125_weights_array   193   1024.00 KiB (104857600.0%)   1         
 conv2d_125_bias_array      194   4.00 KiB (409600.0%)         1         
 conv2d_126_weights_array   195   512.00 KiB (52428800.0%)     1         
 conv2d_126_bias_array      196   2.00 KiB (204800.0%)         1         
 conv2d_139_weights_array   197   256.00 KiB (26214400.0%)     1         
 conv2d_139_bias_array      198   1024 B (102400.0%)           1         
 conv2d_129_weights_array   199   256.00 KiB (26214400.0%)     1         
 conv2d_129_bias_array      200   1024 B (102400.0%)           1         
 conv2d_130_weights_array   201   64.00 KiB (6553600.0%)       1         
 conv2d_130_bias_array      202   1024 B (102400.0%)           1         
 conv2d_131_weights_array   203   2.25 KiB (230400.0%)         1         
 conv2d_131_bias_array      204   1024 B (102400.0%)           1         
 conv2d_132_weights_array   205   64.00 KiB (6553600.0%)       1         
 conv2d_132_bias_array      206   1024 B (102400.0%)           1         
 conv2d_133_weights_array   207   64.00 KiB (6553600.0%)       1         
 conv2d_133_bias_array      208   1024 B (102400.0%)           1         
 conv2d_134_weights_array   209   2.25 KiB (230400.0%)         1         
 conv2d_134_bias_array      210   1024 B (102400.0%)           1         
 conv2d_135_weights_array   211   64.00 KiB (6553600.0%)       1         
 conv2d_135_bias_array      212   1024 B (102400.0%)           1         
 conv2d_136_weights_array   213   64.00 KiB (6553600.0%)       1         
 conv2d_136_bias_array      214   1024 B (102400.0%)           1         
 conv2d_137_weights_array   215   2.25 KiB (230400.0%)         1         
 conv2d_137_bias_array      216   1024 B (102400.0%)           1         
 conv2d_138_weights_array   217   64.00 KiB (6553600.0%)       1         
 conv2d_138_bias_array      218   1024 B (102400.0%)           1         
 conv2d_141_weights_array   219   256.00 KiB (26214400.0%)     1         
 conv2d_141_bias_array      220   2.00 KiB (204800.0%)         1         
 conv2d_142_weights_array   221   128.00 KiB (13107200.0%)     1         
 conv2d_142_bias_array      222   1024 B (102400.0%)           1         
 conv2d_156_weights_array   223   64.00 KiB (6553600.0%)       1         
 conv2d_156_bias_array      224   512 B (51200.0%)             1         
 conv2d_146_weights_array   225   64.00 KiB (6553600.0%)       1         
 conv2d_146_bias_array      226   512 B (51200.0%)             1         
 conv2d_147_weights_array   227   16.00 KiB (1638400.0%)       1         
 conv2d_147_bias_array      228   512 B (51200.0%)             1         
 conv2d_148_weights_array   229   1.12 KiB (115200.0%)         1         
 conv2d_148_bias_array      230   512 B (51200.0%)             1         
 conv2d_149_weights_array   231   16.00 KiB (1638400.0%)       1         
 conv2d_149_bias_array      232   512 B (51200.0%)             1         
 conv2d_150_weights_array   233   16.00 KiB (1638400.0%)       1         
 conv2d_150_bias_array      234   512 B (51200.0%)             1         
 conv2d_151_weights_array   235   1.12 KiB (115200.0%)         1         
 conv2d_151_bias_array      236   512 B (51200.0%)             1         
 conv2d_152_weights_array   237   16.00 KiB (1638400.0%)       1         
 conv2d_152_bias_array      238   512 B (51200.0%)             1         
 conv2d_153_weights_array   239   16.00 KiB (1638400.0%)       1         
 conv2d_153_bias_array      240   512 B (51200.0%)             1         
 conv2d_154_weights_array   241   1.12 KiB (115200.0%)         1         
 conv2d_154_bias_array      242   512 B (51200.0%)             1         
 conv2d_155_weights_array   243   16.00 KiB (1638400.0%)       1         
 conv2d_155_bias_array      244   512 B (51200.0%)             1         
 conv2d_158_weights_array   245   64.00 KiB (6553600.0%)       1         
 conv2d_158_bias_array      246   1024 B (102400.0%)           1         
 conv2d_173_weights_array   247   2.25 KiB (230400.0%)         1         
 conv2d_173_bias_array      248   1024 B (102400.0%)           1         
 conv2d_174_weights_array   249   64.00 KiB (6553600.0%)       1         
 conv2d_174_bias_array      250   1024 B (102400.0%)           1         
 conv2d_186_weights_array   251   128.00 KiB (13107200.0%)     1         
 conv2d_186_bias_array      252   1024 B (102400.0%)           1         
 conv2d_176_weights_array   253   128.00 KiB (13107200.0%)     1         
 conv2d_176_bias_array      254   1024 B (102400.0%)           1         
 conv2d_177_weights_array   255   64.00 KiB (6553600.0%)       1         
 conv2d_177_bias_array      256   1024 B (102400.0%)           1         
 conv2d_178_weights_array   257   2.25 KiB (230400.0%)         1         
 conv2d_178_bias_array      258   1024 B (102400.0%)           1         
 conv2d_179_weights_array   259   64.00 KiB (6553600.0%)       1         
 conv2d_179_bias_array      260   1024 B (102400.0%)           1         
 conv2d_180_weights_array   261   64.00 KiB (6553600.0%)       1         
 conv2d_180_bias_array      262   1024 B (102400.0%)           1         
 conv2d_181_weights_array   263   2.25 KiB (230400.0%)         1         
 conv2d_181_bias_array      264   1024 B (102400.0%)           1         
 conv2d_182_weights_array   265   64.00 KiB (6553600.0%)       1         
 conv2d_182_bias_array      266   1024 B (102400.0%)           1         
 conv2d_183_weights_array   267   64.00 KiB (6553600.0%)       1         
 conv2d_183_bias_array      268   1024 B (102400.0%)           1         
 conv2d_184_weights_array   269   2.25 KiB (230400.0%)         1         
 conv2d_184_bias_array      270   1024 B (102400.0%)           1         
 conv2d_185_weights_array   271   64.00 KiB (6553600.0%)       1         
 conv2d_185_bias_array      272   1024 B (102400.0%)           1         
 conv2d_188_weights_array   273   256.00 KiB (26214400.0%)     1         
 conv2d_188_bias_array      274   2.00 KiB (204800.0%)         1         
 conv2d_203_weights_array   275   4.50 KiB (460800.0%)         1         
 conv2d_203_bias_array      276   2.00 KiB (204800.0%)         1         
 conv2d_204_weights_array   277   256.00 KiB (26214400.0%)     1         
 conv2d_204_bias_array      278   2.00 KiB (204800.0%)         1         
 conv2d_216_weights_array   279   512.00 KiB (52428800.0%)     1         
 conv2d_216_bias_array      280   2.00 KiB (204800.0%)         1         
 conv2d_206_weights_array   281   512.00 KiB (52428800.0%)     1         
 conv2d_206_bias_array      282   2.00 KiB (204800.0%)         1         
 conv2d_207_weights_array   283   256.00 KiB (26214400.0%)     1         
 conv2d_207_bias_array      284   2.00 KiB (204800.0%)         1         
 conv2d_208_weights_array   285   4.50 KiB (460800.0%)         1         
 conv2d_208_bias_array      286   2.00 KiB (204800.0%)         1         
 conv2d_209_weights_array   287   256.00 KiB (26214400.0%)     1         
 conv2d_209_bias_array      288   2.00 KiB (204800.0%)         1         
 conv2d_210_weights_array   289   256.00 KiB (26214400.0%)     1         
 conv2d_210_bias_array      290   2.00 KiB (204800.0%)         1         
 conv2d_211_weights_array   291   4.50 KiB (460800.0%)         1         
 conv2d_211_bias_array      292   2.00 KiB (204800.0%)         1         
 conv2d_212_weights_array   293   256.00 KiB (26214400.0%)     1         
 conv2d_212_bias_array      294   2.00 KiB (204800.0%)         1         
 conv2d_213_weights_array   295   256.00 KiB (26214400.0%)     1         
 conv2d_213_bias_array      296   2.00 KiB (204800.0%)         1         
 conv2d_214_weights_array   297   4.50 KiB (460800.0%)         1         
 conv2d_214_bias_array      298   2.00 KiB (204800.0%)         1         
 conv2d_215_weights_array   299   256.00 KiB (26214400.0%)     1         
 conv2d_215_bias_array      300   2.00 KiB (204800.0%)         1         
 conv2d_218_weights_array   301   1024.00 KiB (104857600.0%)   1         
 conv2d_218_bias_array      302   4.00 KiB (409600.0%)         1         
 conv2d_219_weights_array   303   256.00 KiB (26214400.0%)     1         
 conv2d_219_bias_array      304   1024 B (102400.0%)           1         
 conv2d_220_weights_array   305   2.25 KiB (230400.0%)         1         
 conv2d_220_bias_array      306   1024 B (102400.0%)           1         
 conv2d_221_weights_array   307   64.00 KiB (6553600.0%)       1         
 conv2d_221_bias_array      308   1024 B (102400.0%)           1         
 conv2d_222_weights_array   309   2.25 KiB (230400.0%)         1         
 conv2d_222_bias_array      310   1024 B (102400.0%)           1         
 conv2d_223_weights_array   311   64.00 KiB (6553600.0%)       1         
 conv2d_223_bias_array      312   1024 B (102400.0%)           1         
 conv2d_224_weights_array   313   768 B (76800.0%)             1         
 conv2d_224_bias_array      314   12 B (1200.0%)               1         
 conv2d_225_weights_array   315   2.25 KiB (230400.0%)         1         
 conv2d_225_bias_array      316   1024 B (102400.0%)           1         
 conv2d_226_weights_array   317   64.00 KiB (6553600.0%)       1         
 conv2d_226_bias_array      318   1024 B (102400.0%)           1         
 conv2d_227_weights_array   319   2.25 KiB (230400.0%)         1         
 conv2d_227_bias_array      320   1024 B (102400.0%)           1         
 conv2d_228_weights_array   321   64.00 KiB (6553600.0%)       1         
 conv2d_228_bias_array      322   1024 B (102400.0%)           1         
 conv2d_230_weights_array   323   3.00 KiB (307200.0%)         1         
 conv2d_230_bias_array      324   48 B (4800.0%)               1         
 conv2d_229_weights_array   325   768 B (76800.0%)             1         
 conv2d_229_bias_array      326   12 B (1200.0%)               1         
 conv2d_189_weights_array   327   128.00 KiB (13107200.0%)     1         
 conv2d_189_bias_array      328   1024 B (102400.0%)           1         
 conv2d_190_weights_array   329   2.25 KiB (230400.0%)         1         
 conv2d_190_bias_array      330   1024 B (102400.0%)           1         
 conv2d_191_weights_array   331   64.00 KiB (6553600.0%)       1         
 conv2d_191_bias_array      332   1024 B (102400.0%)           1         
 conv2d_192_weights_array   333   2.25 KiB (230400.0%)         1         
 conv2d_192_bias_array      334   1024 B (102400.0%)           1         
 conv2d_193_weights_array   335   64.00 KiB (6553600.0%)       1         
 conv2d_193_bias_array      336   1024 B (102400.0%)           1         
 conv2d_194_weights_array   337   768 B (76800.0%)             1         
 conv2d_194_bias_array      338   12 B (1200.0%)               1         
 conv2d_195_weights_array   339   2.25 KiB (230400.0%)         1         
 conv2d_195_bias_array      340   1024 B (102400.0%)           1         
 conv2d_196_weights_array   341   64.00 KiB (6553600.0%)       1         
 conv2d_196_bias_array      342   1024 B (102400.0%)           1         
 conv2d_197_weights_array   343   2.25 KiB (230400.0%)         1         
 conv2d_197_bias_array      344   1024 B (102400.0%)           1         
 conv2d_198_weights_array   345   64.00 KiB (6553600.0%)       1         
 conv2d_198_bias_array      346   1024 B (102400.0%)           1         
 conv2d_200_weights_array   347   3.00 KiB (307200.0%)         1         
 conv2d_200_bias_array      348   48 B (4800.0%)               1         
 conv2d_199_weights_array   349   768 B (76800.0%)             1         
 conv2d_199_bias_array      350   12 B (1200.0%)               1         
 conv2d_159_weights_array   351   64.00 KiB (6553600.0%)       1         
 conv2d_159_bias_array      352   1024 B (102400.0%)           1         
 conv2d_160_weights_array   353   2.25 KiB (230400.0%)         1         
 conv2d_160_bias_array      354   1024 B (102400.0%)           1         
 conv2d_161_weights_array   355   64.00 KiB (6553600.0%)       1         
 conv2d_161_bias_array      356   1024 B (102400.0%)           1         
 conv2d_162_weights_array   357   2.25 KiB (230400.0%)         1         
 conv2d_162_bias_array      358   1024 B (102400.0%)           1         
 conv2d_163_weights_array   359   64.00 KiB (6553600.0%)       1         
 conv2d_163_bias_array      360   1024 B (102400.0%)           1         
 conv2d_164_weights_array   361   768 B (76800.0%)             1         
 conv2d_164_bias_array      362   12 B (1200.0%)               1         
 conv2d_165_weights_array   363   2.25 KiB (230400.0%)         1         
 conv2d_165_bias_array      364   1024 B (102400.0%)           1         
 conv2d_166_weights_array   365   64.00 KiB (6553600.0%)       1         
 conv2d_166_bias_array      366   1024 B (102400.0%)           1         
 conv2d_167_weights_array   367   2.25 KiB (230400.0%)         1         
 conv2d_167_bias_array      368   1024 B (102400.0%)           1         
 conv2d_168_weights_array   369   64.00 KiB (6553600.0%)       1         
 conv2d_168_bias_array      370   1024 B (102400.0%)           1         
 conv2d_170_weights_array   371   3.00 KiB (307200.0%)         1         
 conv2d_170_bias_array      372   48 B (4800.0%)               1         
 conv2d_169_weights_array   373   768 B (76800.0%)             1         
 conv2d_169_bias_array      374   12 B (1200.0%)               1         
 -------------------------- ----- ---------------------------- --------- 

Model name - quantized_model
------ ---------------------------------------------- ------------------------- --------------------- ------------- -------------------------- --- -------- --------------------- ------------------------ 
m_id   layer (type,original)                          oshape                    param/size                     macc               connected to   | c_size   c_macc                c_type                   
------ ---------------------------------------------- ------------------------- --------------------- ------------- -------------------------- --- -------- --------------------- ------------------------ 
0      serving_default_input_10 (Input, )             [b:1,h:480,w:480,c:3]                                                                      |          +1,382,400(+100.0%)   Conversion_[0]           
       conversion_0 (Conversion, QUANTIZE)            [b:1,h:480,w:480,c:3]                               1,382,400   serving_default_input_10   |          -1,382,400(-100.0%)   
------ ---------------------------------------------- ------------------------- --------------------- ------------- -------------------------- --- -------- --------------------- ------------------------ 
1      conv2d_1 (Conv2D, CONV_2D)                     [b:1,h:240,w:240,c:12]    336/372                  18,662,412               conversion_0   |                                Conv2D_[1]               
       nl_1_nl (Nonlinearity, CONV_2D)                [b:1,h:240,w:240,c:12]                                691,200                   conv2d_1   |          -691,200(-100.0%)     
------ ---------------------------------------------- ------------------------- --------------------- ------------- -------------------------- --- -------- --------------------- ------------------------ 
2      conv2d_2 (Conv2D, CONV_2D)                     [b:1,h:240,w:240,c:64]    6,976/7,168             398,131,264                    nl_1_nl   |                                Pad_/Conv2D_[2, 3]       
       nl_2_nl (Nonlinearity, CONV_2D)                [b:1,h:240,w:240,c:64]                              3,686,400                   conv2d_2   |          -3,686,400(-100.0%)   
------ ---------------------------------------------- ------------------------- --------------------- ------------- -------------------------- --- -------- --------------------- ------------------------ 
3      conv2d_3 (Conv2D, DEPTHWISE_CONV_2D)           [b:1,h:120,w:120,c:64]    640/832                   8,294,464                    nl_2_nl   |                                Pad_/Conv2D_[4, 5]       
       nl_3_nl (Nonlinearity, DEPTHWISE_CONV_2D)      [b:1,h:120,w:120,c:64]                                921,600                   conv2d_3   |          -921,600(-100.0%)     
------ ---------------------------------------------- ------------------------- --------------------- ------------- -------------------------- --- -------- --------------------- ------------------------ 
4      conv2d_4 (Conv2D, CONV_2D)                     [b:1,h:120,w:120,c:128]   8,320/8,704             117,964,928                    nl_3_nl   |                                Conv2D_[6]               
       nl_4_nl (Nonlinearity, CONV_2D)                [b:1,h:120,w:120,c:128]                             1,843,200                   conv2d_4   |          -1,843,200(-100.0%)   
------ ---------------------------------------------- ------------------------- --------------------- ------------- -------------------------- --- -------- --------------------- ------------------------ 
5      conv2d_5 (Conv2D, CONV_2D)                     [b:1,h:120,w:120,c:64]    8,256/8,448             117,964,864                    nl_4_nl   |                                Conv2D_[8]               
       nl_5_nl (Nonlinearity, CONV_2D)                [b:1,h:120,w:120,c:64]                                921,600                   conv2d_5   |          -921,600(-100.0%)     
------ ---------------------------------------------- ------------------------- --------------------- ------------- -------------------------- --- -------- --------------------- ------------------------ 
6      conv2d_6 (Conv2D, CONV_2D)                     [b:1,h:120,w:120,c:64]    4,160/4,352              58,982,464                    nl_5_nl   |                                Conv2D_[9]               
       nl_6_nl (Nonlinearity, CONV_2D)                [b:1,h:120,w:120,c:64]                                921,600                   conv2d_6   |          -921,600(-100.0%)     
------ ---------------------------------------------- ------------------------- --------------------- ------------- -------------------------- --- -------- --------------------- ------------------------ 
7      conv2d_7 (Conv2D, DEPTHWISE_CONV_2D)           [b:1,h:120,w:120,c:64]    640/832                   8,294,464                    nl_6_nl   |                                Pad_/Conv2D_[10, 11]     
       nl_7_nl (Nonlinearity, DEPTHWISE_CONV_2D)      [b:1,h:120,w:120,c:64]                                921,600                   conv2d_7   |          -921,600(-100.0%)     
------ ---------------------------------------------- ------------------------- --------------------- ------------- -------------------------- --- -------- --------------------- ------------------------ 
8      conv2d_8 (Conv2D, CONV_2D)                     [b:1,h:120,w:120,c:64]    4,160/4,352              58,982,464                    nl_7_nl   |                                Conv2D_[12]              
       nl_8_nl (Nonlinearity, CONV_2D)                [b:1,h:120,w:120,c:64]                                921,600                   conv2d_8   |          -921,600(-100.0%)     
------ ---------------------------------------------- ------------------------- --------------------- ------------- -------------------------- --- -------- --------------------- ------------------------ 
9      eltwise_9 (Eltwise, ADD)                       [b:1,h:120,w:120,c:64]                                921,600                    nl_5_nl   |                                Eltwise/add_[13]         
                                                                                                                                       nl_8_nl   | 
------ ---------------------------------------------- ------------------------- --------------------- ------------- -------------------------- --- -------- --------------------- ------------------------ 
10     conv2d_10 (Conv2D, CONV_2D)                    [b:1,h:120,w:120,c:64]    4,160/4,352              58,982,464                  eltwise_9   |                                Conv2D_[14]              
       nl_10_nl (Nonlinearity, CONV_2D)               [b:1,h:120,w:120,c:64]                                921,600                  conv2d_10   |          -921,600(-100.0%)     
------ ---------------------------------------------- ------------------------- --------------------- ------------- -------------------------- --- -------- --------------------- ------------------------ 
11     conv2d_11 (Conv2D, DEPTHWISE_CONV_2D)          [b:1,h:120,w:120,c:64]    640/832                   8,294,464                   nl_10_nl   |                                Pad_/Conv2D_[15, 16]     
       nl_11_nl (Nonlinearity, DEPTHWISE_CONV_2D)     [b:1,h:120,w:120,c:64]                                921,600                  conv2d_11   |          -921,600(-100.0%)     
------ ---------------------------------------------- ------------------------- --------------------- ------------- -------------------------- --- -------- --------------------- ------------------------ 
12     conv2d_12 (Conv2D, CONV_2D)                    [b:1,h:120,w:120,c:64]    4,160/4,352              58,982,464                   nl_11_nl   |                                Conv2D_[17]              
       nl_12_nl (Nonlinearity, CONV_2D)               [b:1,h:120,w:120,c:64]                                921,600                  conv2d_12   |          -921,600(-100.0%)     
------ ---------------------------------------------- ------------------------- --------------------- ------------- -------------------------- --- -------- --------------------- ------------------------ 
13     eltwise_13 (Eltwise, ADD)                      [b:1,h:120,w:120,c:64]                                921,600                  eltwise_9   |                                Eltwise/add_[18]         
                                                                                                                                      nl_12_nl   | 
------ ---------------------------------------------- ------------------------- --------------------- ------------- -------------------------- --- -------- --------------------- ------------------------ 
14     conv2d_14 (Conv2D, CONV_2D)                    [b:1,h:120,w:120,c:64]    4,160/4,352              58,982,464                 eltwise_13   |                                Conv2D_[19]              
       nl_14_nl (Nonlinearity, CONV_2D)               [b:1,h:120,w:120,c:64]                                921,600                  conv2d_14   |          -921,600(-100.0%)     
------ ---------------------------------------------- ------------------------- --------------------- ------------- -------------------------- --- -------- --------------------- ------------------------ 
15     conv2d_15 (Conv2D, DEPTHWISE_CONV_2D)          [b:1,h:120,w:120,c:64]    640/832                   8,294,464                   nl_14_nl   |                                Pad_/Conv2D_[20, 21]     
       nl_15_nl (Nonlinearity, DEPTHWISE_CONV_2D)     [b:1,h:120,w:120,c:64]                                921,600                  conv2d_15   |          -921,600(-100.0%)     
------ ---------------------------------------------- ------------------------- --------------------- ------------- -------------------------- --- -------- --------------------- ------------------------ 
16     conv2d_16 (Conv2D, CONV_2D)                    [b:1,h:120,w:120,c:64]    4,160/4,352              58,982,464                   nl_15_nl   |                                Conv2D_[22]              
       nl_16_nl (Nonlinearity, CONV_2D)               [b:1,h:120,w:120,c:64]                                921,600                  conv2d_16   |          -921,600(-100.0%)     
------ ---------------------------------------------- ------------------------- --------------------- ------------- -------------------------- --- -------- --------------------- ------------------------ 
17     eltwise_17 (Eltwise, ADD)                      [b:1,h:120,w:120,c:64]                                921,600                 eltwise_13   |                                Eltwise/add_[23]         
                                                                                                                                      nl_16_nl   | 
------ ---------------------------------------------- ------------------------- --------------------- ------------- -------------------------- --- -------- --------------------- ------------------------ 
18     conv2d_18 (Conv2D, CONV_2D)                    [b:1,h:120,w:120,c:64]    8,256/8,448             117,964,864                    nl_4_nl   |                                Conv2D_[7]               
       nl_18_nl (Nonlinearity, CONV_2D)               [b:1,h:120,w:120,c:64]                                921,600                  conv2d_18   |          -921,600(-100.0%)     
------ ---------------------------------------------- ------------------------- --------------------- ------------- -------------------------- --- -------- --------------------- ------------------------ 
19     concat_19 (Concat, CONCATENATION)              [b:1,h:120,w:120,c:128]                                                       eltwise_17   |                                Concat_[24]              
                                                                                                                                      nl_18_nl   | 
------ ---------------------------------------------- ------------------------- --------------------- ------------- -------------------------- --- -------- --------------------- ------------------------ 
20     conv2d_20 (Conv2D, CONV_2D)                    [b:1,h:120,w:120,c:128]   16,512/16,896           235,929,728                  concat_19   |                                Conv2D_[25]              
       nl_20_nl (Nonlinearity, CONV_2D)               [b:1,h:120,w:120,c:128]                             1,843,200                  conv2d_20   |          -1,843,200(-100.0%)   
------ ---------------------------------------------- ------------------------- --------------------- ------------- -------------------------- --- -------- --------------------- ------------------------ 
21     conv2d_21 (Conv2D, DEPTHWISE_CONV_2D)          [b:1,h:60,w:60,c:128]     1,280/1,664               4,147,328                   nl_20_nl   |                                Pad_/Conv2D_[26, 27]     
       nl_21_nl (Nonlinearity, DEPTHWISE_CONV_2D)     [b:1,h:60,w:60,c:128]                                 460,800                  conv2d_21   |          -460,800(-100.0%)     
------ ---------------------------------------------- ------------------------- --------------------- ------------- -------------------------- --- -------- --------------------- ------------------------ 
22     conv2d_22 (Conv2D, CONV_2D)                    [b:1,h:60,w:60,c:256]     33,024/33,792           117,965,056                   nl_21_nl   |                                Conv2D_[28]              
       nl_22_nl (Nonlinearity, CONV_2D)               [b:1,h:60,w:60,c:256]                                 921,600                  conv2d_22   |          -921,600(-100.0%)     
------ ---------------------------------------------- ------------------------- --------------------- ------------- -------------------------- --- -------- --------------------- ------------------------ 
23     conv2d_23 (Conv2D, CONV_2D)                    [b:1,h:60,w:60,c:128]     32,896/33,280           117,964,928                   nl_22_nl   |                                Conv2D_[30]              
       nl_23_nl (Nonlinearity, CONV_2D)               [b:1,h:60,w:60,c:128]                                 460,800                  conv2d_23   |          -460,800(-100.0%)     
------ ---------------------------------------------- ------------------------- --------------------- ------------- -------------------------- --- -------- --------------------- ------------------------ 
24     conv2d_24 (Conv2D, CONV_2D)                    [b:1,h:60,w:60,c:128]     16,512/16,896            58,982,528                   nl_23_nl   |                                Conv2D_[31]              
       nl_24_nl (Nonlinearity, CONV_2D)               [b:1,h:60,w:60,c:128]                                 460,800                  conv2d_24   |          -460,800(-100.0%)     
------ ---------------------------------------------- ------------------------- --------------------- ------------- -------------------------- --- -------- --------------------- ------------------------ 
25     conv2d_25 (Conv2D, DEPTHWISE_CONV_2D)          [b:1,h:60,w:60,c:128]     1,280/1,664               4,147,328                   nl_24_nl   |                                Pad_/Conv2D_[32, 33]     
       nl_25_nl (Nonlinearity, DEPTHWISE_CONV_2D)     [b:1,h:60,w:60,c:128]                                 460,800                  conv2d_25   |          -460,800(-100.0%)     
------ ---------------------------------------------- ------------------------- --------------------- ------------- -------------------------- --- -------- --------------------- ------------------------ 
26     conv2d_26 (Conv2D, CONV_2D)                    [b:1,h:60,w:60,c:128]     16,512/16,896            58,982,528                   nl_25_nl   |                                Conv2D_[34]              
       nl_26_nl (Nonlinearity, CONV_2D)               [b:1,h:60,w:60,c:128]                                 460,800                  conv2d_26   |          -460,800(-100.0%)     
------ ---------------------------------------------- ------------------------- --------------------- ------------- -------------------------- --- -------- --------------------- ------------------------ 
27     eltwise_27 (Eltwise, ADD)                      [b:1,h:60,w:60,c:128]                                 460,800                   nl_23_nl   |                                Eltwise/add_[35]         
                                                                                                                                      nl_26_nl   | 
------ ---------------------------------------------- ------------------------- --------------------- ------------- -------------------------- --- -------- --------------------- ------------------------ 
28     conv2d_28 (Conv2D, CONV_2D)                    [b:1,h:60,w:60,c:128]     16,512/16,896            58,982,528                 eltwise_27   |                                Conv2D_[36]              
       nl_28_nl (Nonlinearity, CONV_2D)               [b:1,h:60,w:60,c:128]                                 460,800                  conv2d_28   |          -460,800(-100.0%)     
------ ---------------------------------------------- ------------------------- --------------------- ------------- -------------------------- --- -------- --------------------- ------------------------ 
29     conv2d_29 (Conv2D, DEPTHWISE_CONV_2D)          [b:1,h:60,w:60,c:128]     1,280/1,664               4,147,328                   nl_28_nl   |                                Pad_/Conv2D_[37, 38]     
       nl_29_nl (Nonlinearity, DEPTHWISE_CONV_2D)     [b:1,h:60,w:60,c:128]                                 460,800                  conv2d_29   |          -460,800(-100.0%)     
------ ---------------------------------------------- ------------------------- --------------------- ------------- -------------------------- --- -------- --------------------- ------------------------ 
30     conv2d_30 (Conv2D, CONV_2D)                    [b:1,h:60,w:60,c:128]     16,512/16,896            58,982,528                   nl_29_nl   |                                Conv2D_[39]              
       nl_30_nl (Nonlinearity, CONV_2D)               [b:1,h:60,w:60,c:128]                                 460,800                  conv2d_30   |          -460,800(-100.0%)     
------ ---------------------------------------------- ------------------------- --------------------- ------------- -------------------------- --- -------- --------------------- ------------------------ 
31     eltwise_31 (Eltwise, ADD)                      [b:1,h:60,w:60,c:128]                                 460,800                 eltwise_27   |                                Eltwise/add_[40]         
                                                                                                                                      nl_30_nl   | 
------ ---------------------------------------------- ------------------------- --------------------- ------------- -------------------------- --- -------- --------------------- ------------------------ 
32     conv2d_32 (Conv2D, CONV_2D)                    [b:1,h:60,w:60,c:128]     16,512/16,896            58,982,528                 eltwise_31   |                                Conv2D_[41]              
       nl_32_nl (Nonlinearity, CONV_2D)               [b:1,h:60,w:60,c:128]                                 460,800                  conv2d_32   |          -460,800(-100.0%)     
------ ---------------------------------------------- ------------------------- --------------------- ------------- -------------------------- --- -------- --------------------- ------------------------ 
33     conv2d_33 (Conv2D, DEPTHWISE_CONV_2D)          [b:1,h:60,w:60,c:128]     1,280/1,664               4,147,328                   nl_32_nl   |                                Pad_/Conv2D_[42, 43]     
       nl_33_nl (Nonlinearity, DEPTHWISE_CONV_2D)     [b:1,h:60,w:60,c:128]                                 460,800                  conv2d_33   |          -460,800(-100.0%)     
------ ---------------------------------------------- ------------------------- --------------------- ------------- -------------------------- --- -------- --------------------- ------------------------ 
34     conv2d_34 (Conv2D, CONV_2D)                    [b:1,h:60,w:60,c:128]     16,512/16,896            58,982,528                   nl_33_nl   |                                Conv2D_[44]              
       nl_34_nl (Nonlinearity, CONV_2D)               [b:1,h:60,w:60,c:128]                                 460,800                  conv2d_34   |          -460,800(-100.0%)     
------ ---------------------------------------------- ------------------------- --------------------- ------------- -------------------------- --- -------- --------------------- ------------------------ 
35     eltwise_35 (Eltwise, ADD)                      [b:1,h:60,w:60,c:128]                                 460,800                 eltwise_31   |                                Eltwise/add_[45]         
                                                                                                                                      nl_34_nl   | 
------ ---------------------------------------------- ------------------------- --------------------- ------------- -------------------------- --- -------- --------------------- ------------------------ 
36     conv2d_36 (Conv2D, CONV_2D)                    [b:1,h:60,w:60,c:128]     16,512/16,896            58,982,528                 eltwise_35   |                                Conv2D_[46]              
       nl_36_nl (Nonlinearity, CONV_2D)               [b:1,h:60,w:60,c:128]                                 460,800                  conv2d_36   |          -460,800(-100.0%)     
------ ---------------------------------------------- ------------------------- --------------------- ------------- -------------------------- --- -------- --------------------- ------------------------ 
37     conv2d_37 (Conv2D, DEPTHWISE_CONV_2D)          [b:1,h:60,w:60,c:128]     1,280/1,664               4,147,328                   nl_36_nl   |                                Pad_/Conv2D_[47, 48]     
       nl_37_nl (Nonlinearity, DEPTHWISE_CONV_2D)     [b:1,h:60,w:60,c:128]                                 460,800                  conv2d_37   |          -460,800(-100.0%)     
------ ---------------------------------------------- ------------------------- --------------------- ------------- -------------------------- --- -------- --------------------- ------------------------ 
38     conv2d_38 (Conv2D, CONV_2D)                    [b:1,h:60,w:60,c:128]     16,512/16,896            58,982,528                   nl_37_nl   |                                Conv2D_[49]              
       nl_38_nl (Nonlinearity, CONV_2D)               [b:1,h:60,w:60,c:128]                                 460,800                  conv2d_38   |          -460,800(-100.0%)     
------ ---------------------------------------------- ------------------------- --------------------- ------------- -------------------------- --- -------- --------------------- ------------------------ 
39     eltwise_39 (Eltwise, ADD)                      [b:1,h:60,w:60,c:128]                                 460,800                 eltwise_35   |                                Eltwise/add_[50]         
                                                                                                                                      nl_38_nl   | 
------ ---------------------------------------------- ------------------------- --------------------- ------------- -------------------------- --- -------- --------------------- ------------------------ 
40     conv2d_40 (Conv2D, CONV_2D)                    [b:1,h:60,w:60,c:128]     16,512/16,896            58,982,528                 eltwise_39   |                                Conv2D_[51]              
       nl_40_nl (Nonlinearity, CONV_2D)               [b:1,h:60,w:60,c:128]                                 460,800                  conv2d_40   |          -460,800(-100.0%)     
------ ---------------------------------------------- ------------------------- --------------------- ------------- -------------------------- --- -------- --------------------- ------------------------ 
41     conv2d_41 (Conv2D, DEPTHWISE_CONV_2D)          [b:1,h:60,w:60,c:128]     1,280/1,664               4,147,328                   nl_40_nl   |                                Pad_/Conv2D_[52, 53]     
       nl_41_nl (Nonlinearity, DEPTHWISE_CONV_2D)     [b:1,h:60,w:60,c:128]                                 460,800                  conv2d_41   |          -460,800(-100.0%)     
------ ---------------------------------------------- ------------------------- --------------------- ------------- -------------------------- --- -------- --------------------- ------------------------ 
42     conv2d_42 (Conv2D, CONV_2D)                    [b:1,h:60,w:60,c:128]     16,512/16,896            58,982,528                   nl_41_nl   |                                Conv2D_[54]              
       nl_42_nl (Nonlinearity, CONV_2D)               [b:1,h:60,w:60,c:128]                                 460,800                  conv2d_42   |          -460,800(-100.0%)     
------ ---------------------------------------------- ------------------------- --------------------- ------------- -------------------------- --- -------- --------------------- ------------------------ 
43     eltwise_43 (Eltwise, ADD)                      [b:1,h:60,w:60,c:128]                                 460,800                 eltwise_39   |                                Eltwise/add_[55]         
                                                                                                                                      nl_42_nl   | 
------ ---------------------------------------------- ------------------------- --------------------- ------------- -------------------------- --- -------- --------------------- ------------------------ 
44     conv2d_44 (Conv2D, CONV_2D)                    [b:1,h:60,w:60,c:128]     16,512/16,896            58,982,528                 eltwise_43   |                                Conv2D_[56]              
       nl_44_nl (Nonlinearity, CONV_2D)               [b:1,h:60,w:60,c:128]                                 460,800                  conv2d_44   |          -460,800(-100.0%)     
------ ---------------------------------------------- ------------------------- --------------------- ------------- -------------------------- --- -------- --------------------- ------------------------ 
45     conv2d_45 (Conv2D, DEPTHWISE_CONV_2D)          [b:1,h:60,w:60,c:128]     1,280/1,664               4,147,328                   nl_44_nl   |                                Pad_/Conv2D_[57, 58]     
       nl_45_nl (Nonlinearity, DEPTHWISE_CONV_2D)     [b:1,h:60,w:60,c:128]                                 460,800                  conv2d_45   |          -460,800(-100.0%)     
------ ---------------------------------------------- ------------------------- --------------------- ------------- -------------------------- --- -------- --------------------- ------------------------ 
46     conv2d_46 (Conv2D, CONV_2D)                    [b:1,h:60,w:60,c:128]     16,512/16,896            58,982,528                   nl_45_nl   |                                Conv2D_[59]              
       nl_46_nl (Nonlinearity, CONV_2D)               [b:1,h:60,w:60,c:128]                                 460,800                  conv2d_46   |          -460,800(-100.0%)     
------ ---------------------------------------------- ------------------------- --------------------- ------------- -------------------------- --- -------- --------------------- ------------------------ 
47     eltwise_47 (Eltwise, ADD)                      [b:1,h:60,w:60,c:128]                                 460,800                 eltwise_43   |                                Eltwise/add_[60]         
                                                                                                                                      nl_46_nl   | 
------ ---------------------------------------------- ------------------------- --------------------- ------------- -------------------------- --- -------- --------------------- ------------------------ 
48     conv2d_48 (Conv2D, CONV_2D)                    [b:1,h:60,w:60,c:128]     16,512/16,896            58,982,528                 eltwise_47   |                                Conv2D_[61]              
       nl_48_nl (Nonlinearity, CONV_2D)               [b:1,h:60,w:60,c:128]                                 460,800                  conv2d_48   |          -460,800(-100.0%)     
------ ---------------------------------------------- ------------------------- --------------------- ------------- -------------------------- --- -------- --------------------- ------------------------ 
49     conv2d_49 (Conv2D, DEPTHWISE_CONV_2D)          [b:1,h:60,w:60,c:128]     1,280/1,664               4,147,328                   nl_48_nl   |                                Pad_/Conv2D_[62, 63]     
       nl_49_nl (Nonlinearity, DEPTHWISE_CONV_2D)     [b:1,h:60,w:60,c:128]                                 460,800                  conv2d_49   |          -460,800(-100.0%)     
------ ---------------------------------------------- ------------------------- --------------------- ------------- -------------------------- --- -------- --------------------- ------------------------ 
50     conv2d_50 (Conv2D, CONV_2D)                    [b:1,h:60,w:60,c:128]     16,512/16,896            58,982,528                   nl_49_nl   |                                Conv2D_[64]              
       nl_50_nl (Nonlinearity, CONV_2D)               [b:1,h:60,w:60,c:128]                                 460,800                  conv2d_50   |          -460,800(-100.0%)     
------ ---------------------------------------------- ------------------------- --------------------- ------------- -------------------------- --- -------- --------------------- ------------------------ 
51     eltwise_51 (Eltwise, ADD)                      [b:1,h:60,w:60,c:128]                                 460,800                 eltwise_47   |                                Eltwise/add_[65]         
                                                                                                                                      nl_50_nl   | 
------ ---------------------------------------------- ------------------------- --------------------- ------------- -------------------------- --- -------- --------------------- ------------------------ 
52     conv2d_52 (Conv2D, CONV_2D)                    [b:1,h:60,w:60,c:128]     16,512/16,896            58,982,528                 eltwise_51   |                                Conv2D_[66]              
       nl_52_nl (Nonlinearity, CONV_2D)               [b:1,h:60,w:60,c:128]                                 460,800                  conv2d_52   |          -460,800(-100.0%)     
------ ---------------------------------------------- ------------------------- --------------------- ------------- -------------------------- --- -------- --------------------- ------------------------ 
53     conv2d_53 (Conv2D, DEPTHWISE_CONV_2D)          [b:1,h:60,w:60,c:128]     1,280/1,664               4,147,328                   nl_52_nl   |                                Pad_/Conv2D_[67, 68]     
       nl_53_nl (Nonlinearity, DEPTHWISE_CONV_2D)     [b:1,h:60,w:60,c:128]                                 460,800                  conv2d_53   |          -460,800(-100.0%)     
------ ---------------------------------------------- ------------------------- --------------------- ------------- -------------------------- --- -------- --------------------- ------------------------ 
54     conv2d_54 (Conv2D, CONV_2D)                    [b:1,h:60,w:60,c:128]     16,512/16,896            58,982,528                   nl_53_nl   |                                Conv2D_[69]              
       nl_54_nl (Nonlinearity, CONV_2D)               [b:1,h:60,w:60,c:128]                                 460,800                  conv2d_54   |          -460,800(-100.0%)     
------ ---------------------------------------------- ------------------------- --------------------- ------------- -------------------------- --- -------- --------------------- ------------------------ 
55     eltwise_55 (Eltwise, ADD)                      [b:1,h:60,w:60,c:128]                                 460,800                 eltwise_51   |                                Eltwise/add_[70]         
                                                                                                                                      nl_54_nl   | 
------ ---------------------------------------------- ------------------------- --------------------- ------------- -------------------------- --- -------- --------------------- ------------------------ 
56     conv2d_56 (Conv2D, CONV_2D)                    [b:1,h:60,w:60,c:128]     16,512/16,896            58,982,528                 eltwise_55   |                                Conv2D_[71]              
       nl_56_nl (Nonlinearity, CONV_2D)               [b:1,h:60,w:60,c:128]                                 460,800                  conv2d_56   |          -460,800(-100.0%)     
------ ---------------------------------------------- ------------------------- --------------------- ------------- -------------------------- --- -------- --------------------- ------------------------ 
57     conv2d_57 (Conv2D, DEPTHWISE_CONV_2D)          [b:1,h:60,w:60,c:128]     1,280/1,664               4,147,328                   nl_56_nl   |                                Pad_/Conv2D_[72, 73]     
       nl_57_nl (Nonlinearity, DEPTHWISE_CONV_2D)     [b:1,h:60,w:60,c:128]                                 460,800                  conv2d_57   |          -460,800(-100.0%)     
------ ---------------------------------------------- ------------------------- --------------------- ------------- -------------------------- --- -------- --------------------- ------------------------ 
58     conv2d_58 (Conv2D, CONV_2D)                    [b:1,h:60,w:60,c:128]     16,512/16,896            58,982,528                   nl_57_nl   |                                Conv2D_[74]              
       nl_58_nl (Nonlinearity, CONV_2D)               [b:1,h:60,w:60,c:128]                                 460,800                  conv2d_58   |          -460,800(-100.0%)     
------ ---------------------------------------------- ------------------------- --------------------- ------------- -------------------------- --- -------- --------------------- ------------------------ 
59     eltwise_59 (Eltwise, ADD)                      [b:1,h:60,w:60,c:128]                                 460,800                 eltwise_55   |                                Eltwise/add_[75]         
                                                                                                                                      nl_58_nl   | 
------ ---------------------------------------------- ------------------------- --------------------- ------------- -------------------------- --- -------- --------------------- ------------------------ 
60     conv2d_60 (Conv2D, CONV_2D)                    [b:1,h:60,w:60,c:128]     32,896/33,280           117,964,928                   nl_22_nl   |                                Conv2D_[29]              
       nl_60_nl (Nonlinearity, CONV_2D)               [b:1,h:60,w:60,c:128]                                 460,800                  conv2d_60   |          -460,800(-100.0%)     
------ ---------------------------------------------- ------------------------- --------------------- ------------- -------------------------- --- -------- --------------------- ------------------------ 
61     concat_61 (Concat, CONCATENATION)              [b:1,h:60,w:60,c:256]                                                         eltwise_59   |                                Concat_[76]              
                                                                                                                                      nl_60_nl   | 
------ ---------------------------------------------- ------------------------- --------------------- ------------- -------------------------- --- -------- --------------------- ------------------------ 
62     conv2d_62 (Conv2D, CONV_2D)                    [b:1,h:60,w:60,c:256]     65,792/66,560           235,929,856                  concat_61   |                                Conv2D_[77]              
       nl_62_nl (Nonlinearity, CONV_2D)               [b:1,h:60,w:60,c:256]                                 921,600                  conv2d_62   |          -921,600(-100.0%)     
------ ---------------------------------------------- ------------------------- --------------------- ------------- -------------------------- --- -------- --------------------- ------------------------ 
63     conv2d_63 (Conv2D, DEPTHWISE_CONV_2D)          [b:1,h:30,w:30,c:256]     2,560/3,328               2,073,856                   nl_62_nl   |                                Pad_/Conv2D_[78, 79]     
       nl_63_nl (Nonlinearity, DEPTHWISE_CONV_2D)     [b:1,h:30,w:30,c:256]                                 230,400                  conv2d_63   |          -230,400(-100.0%)     
------ ---------------------------------------------- ------------------------- --------------------- ------------- -------------------------- --- -------- --------------------- ------------------------ 
64     conv2d_64 (Conv2D, CONV_2D)                    [b:1,h:30,w:30,c:512]     131,584/133,120         117,965,312                   nl_63_nl   |                                Conv2D_[80]              
       nl_64_nl (Nonlinearity, CONV_2D)               [b:1,h:30,w:30,c:512]                                 460,800                  conv2d_64   |          -460,800(-100.0%)     
------ ---------------------------------------------- ------------------------- --------------------- ------------- -------------------------- --- -------- --------------------- ------------------------ 
65     conv2d_65 (Conv2D, CONV_2D)                    [b:1,h:30,w:30,c:256]     131,328/132,096         117,965,056                   nl_64_nl   |                                Conv2D_[82]              
       nl_65_nl (Nonlinearity, CONV_2D)               [b:1,h:30,w:30,c:256]                                 230,400                  conv2d_65   |          -230,400(-100.0%)     
------ ---------------------------------------------- ------------------------- --------------------- ------------- -------------------------- --- -------- --------------------- ------------------------ 
66     conv2d_66 (Conv2D, CONV_2D)                    [b:1,h:30,w:30,c:256]     65,792/66,560            58,982,656                   nl_65_nl   |                                Conv2D_[83]              
       nl_66_nl (Nonlinearity, CONV_2D)               [b:1,h:30,w:30,c:256]                                 230,400                  conv2d_66   |          -230,400(-100.0%)     
------ ---------------------------------------------- ------------------------- --------------------- ------------- -------------------------- --- -------- --------------------- ------------------------ 
67     conv2d_67 (Conv2D, DEPTHWISE_CONV_2D)          [b:1,h:30,w:30,c:256]     2,560/3,328               2,073,856                   nl_66_nl   |                                Pad_/Conv2D_[84, 85]     
       nl_67_nl (Nonlinearity, DEPTHWISE_CONV_2D)     [b:1,h:30,w:30,c:256]                                 230,400                  conv2d_67   |          -230,400(-100.0%)     
------ ---------------------------------------------- ------------------------- --------------------- ------------- -------------------------- --- -------- --------------------- ------------------------ 
68     conv2d_68 (Conv2D, CONV_2D)                    [b:1,h:30,w:30,c:256]     65,792/66,560            58,982,656                   nl_67_nl   |                                Conv2D_[86]              
       nl_68_nl (Nonlinearity, CONV_2D)               [b:1,h:30,w:30,c:256]                                 230,400                  conv2d_68   |          -230,400(-100.0%)     
------ ---------------------------------------------- ------------------------- --------------------- ------------- -------------------------- --- -------- --------------------- ------------------------ 
69     eltwise_69 (Eltwise, ADD)                      [b:1,h:30,w:30,c:256]                                 230,400                   nl_65_nl   |                                Eltwise/add_[87]         
                                                                                                                                      nl_68_nl   | 
------ ---------------------------------------------- ------------------------- --------------------- ------------- -------------------------- --- -------- --------------------- ------------------------ 
70     conv2d_70 (Conv2D, CONV_2D)                    [b:1,h:30,w:30,c:256]     65,792/66,560            58,982,656                 eltwise_69   |                                Conv2D_[88]              
       nl_70_nl (Nonlinearity, CONV_2D)               [b:1,h:30,w:30,c:256]                                 230,400                  conv2d_70   |          -230,400(-100.0%)     
------ ---------------------------------------------- ------------------------- --------------------- ------------- -------------------------- --- -------- --------------------- ------------------------ 
71     conv2d_71 (Conv2D, DEPTHWISE_CONV_2D)          [b:1,h:30,w:30,c:256]     2,560/3,328               2,073,856                   nl_70_nl   |                                Pad_/Conv2D_[89, 90]     
       nl_71_nl (Nonlinearity, DEPTHWISE_CONV_2D)     [b:1,h:30,w:30,c:256]                                 230,400                  conv2d_71   |          -230,400(-100.0%)     
------ ---------------------------------------------- ------------------------- --------------------- ------------- -------------------------- --- -------- --------------------- ------------------------ 
72     conv2d_72 (Conv2D, CONV_2D)                    [b:1,h:30,w:30,c:256]     65,792/66,560            58,982,656                   nl_71_nl   |                                Conv2D_[91]              
       nl_72_nl (Nonlinearity, CONV_2D)               [b:1,h:30,w:30,c:256]                                 230,400                  conv2d_72   |          -230,400(-100.0%)     
------ ---------------------------------------------- ------------------------- --------------------- ------------- -------------------------- --- -------- --------------------- ------------------------ 
73     eltwise_73 (Eltwise, ADD)                      [b:1,h:30,w:30,c:256]                                 230,400                 eltwise_69   |                                Eltwise/add_[92]         
                                                                                                                                      nl_72_nl   | 
------ ---------------------------------------------- ------------------------- --------------------- ------------- -------------------------- --- -------- --------------------- ------------------------ 
74     conv2d_74 (Conv2D, CONV_2D)                    [b:1,h:30,w:30,c:256]     65,792/66,560            58,982,656                 eltwise_73   |                                Conv2D_[93]              
       nl_74_nl (Nonlinearity, CONV_2D)               [b:1,h:30,w:30,c:256]                                 230,400                  conv2d_74   |          -230,400(-100.0%)     
------ ---------------------------------------------- ------------------------- --------------------- ------------- -------------------------- --- -------- --------------------- ------------------------ 
75     conv2d_75 (Conv2D, DEPTHWISE_CONV_2D)          [b:1,h:30,w:30,c:256]     2,560/3,328               2,073,856                   nl_74_nl   |                                Pad_/Conv2D_[94, 95]     
       nl_75_nl (Nonlinearity, DEPTHWISE_CONV_2D)     [b:1,h:30,w:30,c:256]                                 230,400                  conv2d_75   |          -230,400(-100.0%)     
------ ---------------------------------------------- ------------------------- --------------------- ------------- -------------------------- --- -------- --------------------- ------------------------ 
76     conv2d_76 (Conv2D, CONV_2D)                    [b:1,h:30,w:30,c:256]     65,792/66,560            58,982,656                   nl_75_nl   |                                Conv2D_[96]              
       nl_76_nl (Nonlinearity, CONV_2D)               [b:1,h:30,w:30,c:256]                                 230,400                  conv2d_76   |          -230,400(-100.0%)     
------ ---------------------------------------------- ------------------------- --------------------- ------------- -------------------------- --- -------- --------------------- ------------------------ 
77     eltwise_77 (Eltwise, ADD)                      [b:1,h:30,w:30,c:256]                                 230,400                 eltwise_73   |                                Eltwise/add_[97]         
                                                                                                                                      nl_76_nl   | 
------ ---------------------------------------------- ------------------------- --------------------- ------------- -------------------------- --- -------- --------------------- ------------------------ 
78     conv2d_78 (Conv2D, CONV_2D)                    [b:1,h:30,w:30,c:256]     65,792/66,560            58,982,656                 eltwise_77   |                                Conv2D_[98]              
       nl_78_nl (Nonlinearity, CONV_2D)               [b:1,h:30,w:30,c:256]                                 230,400                  conv2d_78   |          -230,400(-100.0%)     
------ ---------------------------------------------- ------------------------- --------------------- ------------- -------------------------- --- -------- --------------------- ------------------------ 
79     conv2d_79 (Conv2D, DEPTHWISE_CONV_2D)          [b:1,h:30,w:30,c:256]     2,560/3,328               2,073,856                   nl_78_nl   |                                Pad_/Conv2D_[99, 100]    
       nl_79_nl (Nonlinearity, DEPTHWISE_CONV_2D)     [b:1,h:30,w:30,c:256]                                 230,400                  conv2d_79   |          -230,400(-100.0%)     
------ ---------------------------------------------- ------------------------- --------------------- ------------- -------------------------- --- -------- --------------------- ------------------------ 
80     conv2d_80 (Conv2D, CONV_2D)                    [b:1,h:30,w:30,c:256]     65,792/66,560            58,982,656                   nl_79_nl   |                                Conv2D_[101]             
       nl_80_nl (Nonlinearity, CONV_2D)               [b:1,h:30,w:30,c:256]                                 230,400                  conv2d_80   |          -230,400(-100.0%)     
------ ---------------------------------------------- ------------------------- --------------------- ------------- -------------------------- --- -------- --------------------- ------------------------ 
81     eltwise_81 (Eltwise, ADD)                      [b:1,h:30,w:30,c:256]                                 230,400                 eltwise_77   |                                Eltwise/add_[102]        
                                                                                                                                      nl_80_nl   | 
------ ---------------------------------------------- ------------------------- --------------------- ------------- -------------------------- --- -------- --------------------- ------------------------ 
82     conv2d_82 (Conv2D, CONV_2D)                    [b:1,h:30,w:30,c:256]     65,792/66,560            58,982,656                 eltwise_81   |                                Conv2D_[103]             
       nl_82_nl (Nonlinearity, CONV_2D)               [b:1,h:30,w:30,c:256]                                 230,400                  conv2d_82   |          -230,400(-100.0%)     
------ ---------------------------------------------- ------------------------- --------------------- ------------- -------------------------- --- -------- --------------------- ------------------------ 
83     conv2d_83 (Conv2D, DEPTHWISE_CONV_2D)          [b:1,h:30,w:30,c:256]     2,560/3,328               2,073,856                   nl_82_nl   |                                Pad_/Conv2D_[104, 105]   
       nl_83_nl (Nonlinearity, DEPTHWISE_CONV_2D)     [b:1,h:30,w:30,c:256]                                 230,400                  conv2d_83   |          -230,400(-100.0%)     
------ ---------------------------------------------- ------------------------- --------------------- ------------- -------------------------- --- -------- --------------------- ------------------------ 
84     conv2d_84 (Conv2D, CONV_2D)                    [b:1,h:30,w:30,c:256]     65,792/66,560            58,982,656                   nl_83_nl   |                                Conv2D_[106]             
       nl_84_nl (Nonlinearity, CONV_2D)               [b:1,h:30,w:30,c:256]                                 230,400                  conv2d_84   |          -230,400(-100.0%)     
------ ---------------------------------------------- ------------------------- --------------------- ------------- -------------------------- --- -------- --------------------- ------------------------ 
85     eltwise_85 (Eltwise, ADD)                      [b:1,h:30,w:30,c:256]                                 230,400                 eltwise_81   |                                Eltwise/add_[107]        
                                                                                                                                      nl_84_nl   | 
------ ---------------------------------------------- ------------------------- --------------------- ------------- -------------------------- --- -------- --------------------- ------------------------ 
86     conv2d_86 (Conv2D, CONV_2D)                    [b:1,h:30,w:30,c:256]     65,792/66,560            58,982,656                 eltwise_85   |                                Conv2D_[108]             
       nl_86_nl (Nonlinearity, CONV_2D)               [b:1,h:30,w:30,c:256]                                 230,400                  conv2d_86   |          -230,400(-100.0%)     
------ ---------------------------------------------- ------------------------- --------------------- ------------- -------------------------- --- -------- --------------------- ------------------------ 
87     conv2d_87 (Conv2D, DEPTHWISE_CONV_2D)          [b:1,h:30,w:30,c:256]     2,560/3,328               2,073,856                   nl_86_nl   |                                Pad_/Conv2D_[109, 110]   
       nl_87_nl (Nonlinearity, DEPTHWISE_CONV_2D)     [b:1,h:30,w:30,c:256]                                 230,400                  conv2d_87   |          -230,400(-100.0%)     
------ ---------------------------------------------- ------------------------- --------------------- ------------- -------------------------- --- -------- --------------------- ------------------------ 
88     conv2d_88 (Conv2D, CONV_2D)                    [b:1,h:30,w:30,c:256]     65,792/66,560            58,982,656                   nl_87_nl   |                                Conv2D_[111]             
       nl_88_nl (Nonlinearity, CONV_2D)               [b:1,h:30,w:30,c:256]                                 230,400                  conv2d_88   |          -230,400(-100.0%)     
------ ---------------------------------------------- ------------------------- --------------------- ------------- -------------------------- --- -------- --------------------- ------------------------ 
89     eltwise_89 (Eltwise, ADD)                      [b:1,h:30,w:30,c:256]                                 230,400                 eltwise_85   |                                Eltwise/add_[112]        
                                                                                                                                      nl_88_nl   | 
------ ---------------------------------------------- ------------------------- --------------------- ------------- -------------------------- --- -------- --------------------- ------------------------ 
90     conv2d_90 (Conv2D, CONV_2D)                    [b:1,h:30,w:30,c:256]     65,792/66,560            58,982,656                 eltwise_89   |                                Conv2D_[113]             
       nl_90_nl (Nonlinearity, CONV_2D)               [b:1,h:30,w:30,c:256]                                 230,400                  conv2d_90   |          -230,400(-100.0%)     
------ ---------------------------------------------- ------------------------- --------------------- ------------- -------------------------- --- -------- --------------------- ------------------------ 
91     conv2d_91 (Conv2D, DEPTHWISE_CONV_2D)          [b:1,h:30,w:30,c:256]     2,560/3,328               2,073,856                   nl_90_nl   |                                Pad_/Conv2D_[114, 115]   
       nl_91_nl (Nonlinearity, DEPTHWISE_CONV_2D)     [b:1,h:30,w:30,c:256]                                 230,400                  conv2d_91   |          -230,400(-100.0%)     
------ ---------------------------------------------- ------------------------- --------------------- ------------- -------------------------- --- -------- --------------------- ------------------------ 
92     conv2d_92 (Conv2D, CONV_2D)                    [b:1,h:30,w:30,c:256]     65,792/66,560            58,982,656                   nl_91_nl   |                                Conv2D_[116]             
       nl_92_nl (Nonlinearity, CONV_2D)               [b:1,h:30,w:30,c:256]                                 230,400                  conv2d_92   |          -230,400(-100.0%)     
------ ---------------------------------------------- ------------------------- --------------------- ------------- -------------------------- --- -------- --------------------- ------------------------ 
93     eltwise_93 (Eltwise, ADD)                      [b:1,h:30,w:30,c:256]                                 230,400                 eltwise_89   |                                Eltwise/add_[117]        
                                                                                                                                      nl_92_nl   | 
------ ---------------------------------------------- ------------------------- --------------------- ------------- -------------------------- --- -------- --------------------- ------------------------ 
94     conv2d_94 (Conv2D, CONV_2D)                    [b:1,h:30,w:30,c:256]     65,792/66,560            58,982,656                 eltwise_93   |                                Conv2D_[118]             
       nl_94_nl (Nonlinearity, CONV_2D)               [b:1,h:30,w:30,c:256]                                 230,400                  conv2d_94   |          -230,400(-100.0%)     
------ ---------------------------------------------- ------------------------- --------------------- ------------- -------------------------- --- -------- --------------------- ------------------------ 
95     conv2d_95 (Conv2D, DEPTHWISE_CONV_2D)          [b:1,h:30,w:30,c:256]     2,560/3,328               2,073,856                   nl_94_nl   |                                Pad_/Conv2D_[119, 120]   
       nl_95_nl (Nonlinearity, DEPTHWISE_CONV_2D)     [b:1,h:30,w:30,c:256]                                 230,400                  conv2d_95   |          -230,400(-100.0%)     
------ ---------------------------------------------- ------------------------- --------------------- ------------- -------------------------- --- -------- --------------------- ------------------------ 
96     conv2d_96 (Conv2D, CONV_2D)                    [b:1,h:30,w:30,c:256]     65,792/66,560            58,982,656                   nl_95_nl   |                                Conv2D_[121]             
       nl_96_nl (Nonlinearity, CONV_2D)               [b:1,h:30,w:30,c:256]                                 230,400                  conv2d_96   |          -230,400(-100.0%)     
------ ---------------------------------------------- ------------------------- --------------------- ------------- -------------------------- --- -------- --------------------- ------------------------ 
97     eltwise_97 (Eltwise, ADD)                      [b:1,h:30,w:30,c:256]                                 230,400                 eltwise_93   |                                Eltwise/add_[122]        
                                                                                                                                      nl_96_nl   | 
------ ---------------------------------------------- ------------------------- --------------------- ------------- -------------------------- --- -------- --------------------- ------------------------ 
98     conv2d_98 (Conv2D, CONV_2D)                    [b:1,h:30,w:30,c:256]     65,792/66,560            58,982,656                 eltwise_97   |                                Conv2D_[123]             
       nl_98_nl (Nonlinearity, CONV_2D)               [b:1,h:30,w:30,c:256]                                 230,400                  conv2d_98   |          -230,400(-100.0%)     
------ ---------------------------------------------- ------------------------- --------------------- ------------- -------------------------- --- -------- --------------------- ------------------------ 
99     conv2d_99 (Conv2D, DEPTHWISE_CONV_2D)          [b:1,h:30,w:30,c:256]     2,560/3,328               2,073,856                   nl_98_nl   |                                Pad_/Conv2D_[124, 125]   
       nl_99_nl (Nonlinearity, DEPTHWISE_CONV_2D)     [b:1,h:30,w:30,c:256]                                 230,400                  conv2d_99   |          -230,400(-100.0%)     
------ ---------------------------------------------- ------------------------- --------------------- ------------- -------------------------- --- -------- --------------------- ------------------------ 
100    conv2d_100 (Conv2D, CONV_2D)                   [b:1,h:30,w:30,c:256]     65,792/66,560            58,982,656                   nl_99_nl   |                                Conv2D_[126]             
       nl_100_nl (Nonlinearity, CONV_2D)              [b:1,h:30,w:30,c:256]                                 230,400                 conv2d_100   |          -230,400(-100.0%)     
------ ---------------------------------------------- ------------------------- --------------------- ------------- -------------------------- --- -------- --------------------- ------------------------ 
101    eltwise_101 (Eltwise, ADD)                     [b:1,h:30,w:30,c:256]                                 230,400                 eltwise_97   |                                Eltwise/add_[127]        
                                                                                                                                     nl_100_nl   | 
------ ---------------------------------------------- ------------------------- --------------------- ------------- -------------------------- --- -------- --------------------- ------------------------ 
102    conv2d_102 (Conv2D, CONV_2D)                   [b:1,h:30,w:30,c:256]     131,328/132,096         117,965,056                   nl_64_nl   |                                Conv2D_[81]              
       nl_102_nl (Nonlinearity, CONV_2D)              [b:1,h:30,w:30,c:256]                                 230,400                 conv2d_102   |          -230,400(-100.0%)     
------ ---------------------------------------------- ------------------------- --------------------- ------------- -------------------------- --- -------- --------------------- ------------------------ 
103    concat_103 (Concat, CONCATENATION)             [b:1,h:30,w:30,c:512]                                                        eltwise_101   |                                Concat_[128]             
                                                                                                                                     nl_102_nl   | 
------ ---------------------------------------------- ------------------------- --------------------- ------------- -------------------------- --- -------- --------------------- ------------------------ 
104    conv2d_104 (Conv2D, CONV_2D)                   [b:1,h:30,w:30,c:512]     262,656/264,192         235,930,112                 concat_103   |                                Conv2D_[129]             
       nl_104_nl (Nonlinearity, CONV_2D)              [b:1,h:30,w:30,c:512]                                 460,800                 conv2d_104   |          -460,800(-100.0%)     
------ ---------------------------------------------- ------------------------- --------------------- ------------- -------------------------- --- -------- --------------------- ------------------------ 
105    conv2d_105 (Conv2D, DEPTHWISE_CONV_2D)         [b:1,h:15,w:15,c:512]     5,120/6,656               1,037,312                  nl_104_nl   |                                Pad_/Conv2D_[130, 131]   
       nl_105_nl (Nonlinearity, DEPTHWISE_CONV_2D)    [b:1,h:15,w:15,c:512]                                 115,200                 conv2d_105   |          -115,200(-100.0%)     
------ ---------------------------------------------- ------------------------- --------------------- ------------- -------------------------- --- -------- --------------------- ------------------------ 
106    conv2d_106 (Conv2D, CONV_2D)                   [b:1,h:15,w:15,c:1024]    525,312/528,384         117,965,824                  nl_105_nl   |                                Conv2D_[132]             
       nl_106_nl (Nonlinearity, CONV_2D)              [b:1,h:15,w:15,c:1024]                                230,400                 conv2d_106   |          -230,400(-100.0%)     
------ ---------------------------------------------- ------------------------- --------------------- ------------- -------------------------- --- -------- --------------------- ------------------------ 
107    conv2d_107 (Conv2D, CONV_2D)                   [b:1,h:15,w:15,c:512]     524,800/526,336         117,965,312                  nl_106_nl   |                                Conv2D_[133]             
       nl_107_nl (Nonlinearity, CONV_2D)              [b:1,h:15,w:15,c:512]                                 115,200                 conv2d_107   |          -115,200(-100.0%)     
------ ---------------------------------------------- ------------------------- --------------------- ------------- -------------------------- --- -------- --------------------- ------------------------ 
108    pool_108 (Pool, MAX_POOL_2D)                   [b:1,h:15,w:15,c:512]                               2,880,000                  nl_107_nl   |                                Pool_[136]               
------ ---------------------------------------------- ------------------------- --------------------- ------------- -------------------------- --- -------- --------------------- ------------------------ 
109    pool_109 (Pool, MAX_POOL_2D)                   [b:1,h:15,w:15,c:512]                               9,331,200                  nl_107_nl   |                                Pool_[135]               
------ ---------------------------------------------- ------------------------- --------------------- ------------- -------------------------- --- -------- --------------------- ------------------------ 
110    pool_110 (Pool, MAX_POOL_2D)                   [b:1,h:15,w:15,c:512]                              19,468,800                  nl_107_nl   |                                Pool_[134]               
------ ---------------------------------------------- ------------------------- --------------------- ------------- -------------------------- --- -------- --------------------- ------------------------ 
111    concat_111 (Concat, CONCATENATION)             [b:1,h:15,w:15,c:2048]                                                         nl_107_nl   |                                Concat_[137]             
                                                                                                                                      pool_108   | 
                                                                                                                                      pool_109   | 
                                                                                                                                      pool_110   | 
------ ---------------------------------------------- ------------------------- --------------------- ------------- -------------------------- --- -------- --------------------- ------------------------ 
112    conv2d_112 (Conv2D, CONV_2D)                   [b:1,h:15,w:15,c:1024]    2,098,176/2,101,248     471,860,224                 concat_111   |                                Conv2D_[138]             
       nl_112_nl (Nonlinearity, CONV_2D)              [b:1,h:15,w:15,c:1024]                                230,400                 conv2d_112   |          -230,400(-100.0%)     
------ ---------------------------------------------- ------------------------- --------------------- ------------- -------------------------- --- -------- --------------------- ------------------------ 
113    conv2d_113 (Conv2D, CONV_2D)                   [b:1,h:15,w:15,c:512]     524,800/526,336         117,965,312                  nl_112_nl   |                                Conv2D_[140]             
       nl_113_nl (Nonlinearity, CONV_2D)              [b:1,h:15,w:15,c:512]                                 115,200                 conv2d_113   |          -115,200(-100.0%)     
------ ---------------------------------------------- ------------------------- --------------------- ------------- -------------------------- --- -------- --------------------- ------------------------ 
114    conv2d_114 (Conv2D, CONV_2D)                   [b:1,h:15,w:15,c:512]     262,656/264,192          58,982,912                  nl_113_nl   |                                Conv2D_[141]             
       nl_114_nl (Nonlinearity, CONV_2D)              [b:1,h:15,w:15,c:512]                                 115,200                 conv2d_114   |          -115,200(-100.0%)     
------ ---------------------------------------------- ------------------------- --------------------- ------------- -------------------------- --- -------- --------------------- ------------------------ 
115    conv2d_115 (Conv2D, DEPTHWISE_CONV_2D)         [b:1,h:15,w:15,c:512]     5,120/6,656               1,037,312                  nl_114_nl   |                                Pad_/Conv2D_[142, 143]   
       nl_115_nl (Nonlinearity, DEPTHWISE_CONV_2D)    [b:1,h:15,w:15,c:512]                                 115,200                 conv2d_115   |          -115,200(-100.0%)     
------ ---------------------------------------------- ------------------------- --------------------- ------------- -------------------------- --- -------- --------------------- ------------------------ 
116    conv2d_116 (Conv2D, CONV_2D)                   [b:1,h:15,w:15,c:512]     262,656/264,192          58,982,912                  nl_115_nl   |                                Conv2D_[144]             
       nl_116_nl (Nonlinearity, CONV_2D)              [b:1,h:15,w:15,c:512]                                 115,200                 conv2d_116   |          -115,200(-100.0%)     
------ ---------------------------------------------- ------------------------- --------------------- ------------- -------------------------- --- -------- --------------------- ------------------------ 
117    conv2d_117 (Conv2D, CONV_2D)                   [b:1,h:15,w:15,c:512]     262,656/264,192          58,982,912                  nl_116_nl   |                                Conv2D_[145]             
       nl_117_nl (Nonlinearity, CONV_2D)              [b:1,h:15,w:15,c:512]                                 115,200                 conv2d_117   |          -115,200(-100.0%)     
------ ---------------------------------------------- ------------------------- --------------------- ------------- -------------------------- --- -------- --------------------- ------------------------ 
118    conv2d_118 (Conv2D, DEPTHWISE_CONV_2D)         [b:1,h:15,w:15,c:512]     5,120/6,656               1,037,312                  nl_117_nl   |                                Pad_/Conv2D_[146, 147]   
       nl_118_nl (Nonlinearity, DEPTHWISE_CONV_2D)    [b:1,h:15,w:15,c:512]                                 115,200                 conv2d_118   |          -115,200(-100.0%)     
------ ---------------------------------------------- ------------------------- --------------------- ------------- -------------------------- --- -------- --------------------- ------------------------ 
119    conv2d_119 (Conv2D, CONV_2D)                   [b:1,h:15,w:15,c:512]     262,656/264,192          58,982,912                  nl_118_nl   |                                Conv2D_[148]             
       nl_119_nl (Nonlinearity, CONV_2D)              [b:1,h:15,w:15,c:512]                                 115,200                 conv2d_119   |          -115,200(-100.0%)     
------ ---------------------------------------------- ------------------------- --------------------- ------------- -------------------------- --- -------- --------------------- ------------------------ 
120    conv2d_120 (Conv2D, CONV_2D)                   [b:1,h:15,w:15,c:512]     262,656/264,192          58,982,912                  nl_119_nl   |                                Conv2D_[149]             
       nl_120_nl (Nonlinearity, CONV_2D)              [b:1,h:15,w:15,c:512]                                 115,200                 conv2d_120   |          -115,200(-100.0%)     
------ ---------------------------------------------- ------------------------- --------------------- ------------- -------------------------- --- -------- --------------------- ------------------------ 
121    conv2d_121 (Conv2D, DEPTHWISE_CONV_2D)         [b:1,h:15,w:15,c:512]     5,120/6,656               1,037,312                  nl_120_nl   |                                Pad_/Conv2D_[150, 151]   
       nl_121_nl (Nonlinearity, DEPTHWISE_CONV_2D)    [b:1,h:15,w:15,c:512]                                 115,200                 conv2d_121   |          -115,200(-100.0%)     
------ ---------------------------------------------- ------------------------- --------------------- ------------- -------------------------- --- -------- --------------------- ------------------------ 
122    conv2d_122 (Conv2D, CONV_2D)                   [b:1,h:15,w:15,c:512]     262,656/264,192          58,982,912                  nl_121_nl   |                                Conv2D_[152]             
       nl_122_nl (Nonlinearity, CONV_2D)              [b:1,h:15,w:15,c:512]                                 115,200                 conv2d_122   |          -115,200(-100.0%)     
------ ---------------------------------------------- ------------------------- --------------------- ------------- -------------------------- --- -------- --------------------- ------------------------ 
123    conv2d_123 (Conv2D, CONV_2D)                   [b:1,h:15,w:15,c:512]     524,800/526,336         117,965,312                  nl_112_nl   |                                Conv2D_[139]             
       nl_123_nl (Nonlinearity, CONV_2D)              [b:1,h:15,w:15,c:512]                                 115,200                 conv2d_123   |          -115,200(-100.0%)     
------ ---------------------------------------------- ------------------------- --------------------- ------------- -------------------------- --- -------- --------------------- ------------------------ 
124    concat_124 (Concat, CONCATENATION)             [b:1,h:15,w:15,c:1024]                                                         nl_122_nl   |                                Concat_[153]             
                                                                                                                                     nl_123_nl   | 
------ ---------------------------------------------- ------------------------- --------------------- ------------- -------------------------- --- -------- --------------------- ------------------------ 
125    conv2d_125 (Conv2D, CONV_2D)                   [b:1,h:15,w:15,c:1024]    1,049,600/1,052,672     235,930,624                 concat_124   |                                Conv2D_[154]             
       nl_125_nl (Nonlinearity, CONV_2D)              [b:1,h:15,w:15,c:1024]                                230,400                 conv2d_125   |          -230,400(-100.0%)     
------ ---------------------------------------------- ------------------------- --------------------- ------------- -------------------------- --- -------- --------------------- ------------------------ 
126    conv2d_126 (Conv2D, CONV_2D)                   [b:1,h:15,w:15,c:512]     524,800/526,336         117,965,312                  nl_125_nl   |                                Conv2D_[155]             
       nl_126_nl (Nonlinearity, CONV_2D)              [b:1,h:15,w:15,c:512]                                 115,200                 conv2d_126   |          -115,200(-100.0%)     
------ ---------------------------------------------- ------------------------- --------------------- ------------- -------------------------- --- -------- --------------------- ------------------------ 
127    resize_127 (Resize, RESIZE_NEAREST_NEIGHBOR)   [b:1,h:30,w:30,c:512]                                                          nl_126_nl   |                                Resize_[156]             
------ ---------------------------------------------- ------------------------- --------------------- ------------- -------------------------- --- -------- --------------------- ------------------------ 
128    concat_128 (Concat, CONCATENATION)             [b:1,h:30,w:30,c:1024]                                                        resize_127   |                                Concat_[157]             
                                                                                                                                     nl_104_nl   | 
------ ---------------------------------------------- ------------------------- --------------------- ------------- -------------------------- --- -------- --------------------- ------------------------ 
129    conv2d_129 (Conv2D, CONV_2D)                   [b:1,h:30,w:30,c:256]     262,400/263,168         235,929,856                 concat_128   |                                Conv2D_[159]             
       nl_129_nl (Nonlinearity, CONV_2D)              [b:1,h:30,w:30,c:256]                                 230,400                 conv2d_129   |          -230,400(-100.0%)     
------ ---------------------------------------------- ------------------------- --------------------- ------------- -------------------------- --- -------- --------------------- ------------------------ 
130    conv2d_130 (Conv2D, CONV_2D)                   [b:1,h:30,w:30,c:256]     65,792/66,560            58,982,656                  nl_129_nl   |                                Conv2D_[160]             
       nl_130_nl (Nonlinearity, CONV_2D)              [b:1,h:30,w:30,c:256]                                 230,400                 conv2d_130   |          -230,400(-100.0%)     
------ ---------------------------------------------- ------------------------- --------------------- ------------- -------------------------- --- -------- --------------------- ------------------------ 
131    conv2d_131 (Conv2D, DEPTHWISE_CONV_2D)         [b:1,h:30,w:30,c:256]     2,560/3,328               2,073,856                  nl_130_nl   |                                Pad_/Conv2D_[161, 162]   
       nl_131_nl (Nonlinearity, DEPTHWISE_CONV_2D)    [b:1,h:30,w:30,c:256]                                 230,400                 conv2d_131   |          -230,400(-100.0%)     
------ ---------------------------------------------- ------------------------- --------------------- ------------- -------------------------- --- -------- --------------------- ------------------------ 
132    conv2d_132 (Conv2D, CONV_2D)                   [b:1,h:30,w:30,c:256]     65,792/66,560            58,982,656                  nl_131_nl   |                                Conv2D_[163]             
       nl_132_nl (Nonlinearity, CONV_2D)              [b:1,h:30,w:30,c:256]                                 230,400                 conv2d_132   |          -230,400(-100.0%)     
------ ---------------------------------------------- ------------------------- --------------------- ------------- -------------------------- --- -------- --------------------- ------------------------ 
133    conv2d_133 (Conv2D, CONV_2D)                   [b:1,h:30,w:30,c:256]     65,792/66,560            58,982,656                  nl_132_nl   |                                Conv2D_[164]             
       nl_133_nl (Nonlinearity, CONV_2D)              [b:1,h:30,w:30,c:256]                                 230,400                 conv2d_133   |          -230,400(-100.0%)     
------ ---------------------------------------------- ------------------------- --------------------- ------------- -------------------------- --- -------- --------------------- ------------------------ 
134    conv2d_134 (Conv2D, DEPTHWISE_CONV_2D)         [b:1,h:30,w:30,c:256]     2,560/3,328               2,073,856                  nl_133_nl   |                                Pad_/Conv2D_[165, 166]   
       nl_134_nl (Nonlinearity, DEPTHWISE_CONV_2D)    [b:1,h:30,w:30,c:256]                                 230,400                 conv2d_134   |          -230,400(-100.0%)     
------ ---------------------------------------------- ------------------------- --------------------- ------------- -------------------------- --- -------- --------------------- ------------------------ 
135    conv2d_135 (Conv2D, CONV_2D)                   [b:1,h:30,w:30,c:256]     65,792/66,560            58,982,656                  nl_134_nl   |                                Conv2D_[167]             
       nl_135_nl (Nonlinearity, CONV_2D)              [b:1,h:30,w:30,c:256]                                 230,400                 conv2d_135   |          -230,400(-100.0%)     
------ ---------------------------------------------- ------------------------- --------------------- ------------- -------------------------- --- -------- --------------------- ------------------------ 
136    conv2d_136 (Conv2D, CONV_2D)                   [b:1,h:30,w:30,c:256]     65,792/66,560            58,982,656                  nl_135_nl   |                                Conv2D_[168]             
       nl_136_nl (Nonlinearity, CONV_2D)              [b:1,h:30,w:30,c:256]                                 230,400                 conv2d_136   |          -230,400(-100.0%)     
------ ---------------------------------------------- ------------------------- --------------------- ------------- -------------------------- --- -------- --------------------- ------------------------ 
137    conv2d_137 (Conv2D, DEPTHWISE_CONV_2D)         [b:1,h:30,w:30,c:256]     2,560/3,328               2,073,856                  nl_136_nl   |                                Pad_/Conv2D_[169, 170]   
       nl_137_nl (Nonlinearity, DEPTHWISE_CONV_2D)    [b:1,h:30,w:30,c:256]                                 230,400                 conv2d_137   |          -230,400(-100.0%)     
------ ---------------------------------------------- ------------------------- --------------------- ------------- -------------------------- --- -------- --------------------- ------------------------ 
138    conv2d_138 (Conv2D, CONV_2D)                   [b:1,h:30,w:30,c:256]     65,792/66,560            58,982,656                  nl_137_nl   |                                Conv2D_[171]             
       nl_138_nl (Nonlinearity, CONV_2D)              [b:1,h:30,w:30,c:256]                                 230,400                 conv2d_138   |          -230,400(-100.0%)     
------ ---------------------------------------------- ------------------------- --------------------- ------------- -------------------------- --- -------- --------------------- ------------------------ 
139    conv2d_139 (Conv2D, CONV_2D)                   [b:1,h:30,w:30,c:256]     262,400/263,168         235,929,856                 concat_128   |                                Conv2D_[158]             
       nl_139_nl (Nonlinearity, CONV_2D)              [b:1,h:30,w:30,c:256]                                 230,400                 conv2d_139   |          -230,400(-100.0%)     
------ ---------------------------------------------- ------------------------- --------------------- ------------- -------------------------- --- -------- --------------------- ------------------------ 
140    concat_140 (Concat, CONCATENATION)             [b:1,h:30,w:30,c:512]                                                          nl_138_nl   |                                Concat_[172]             
                                                                                                                                     nl_139_nl   | 
------ ---------------------------------------------- ------------------------- --------------------- ------------- -------------------------- --- -------- --------------------- ------------------------ 
141    conv2d_141 (Conv2D, CONV_2D)                   [b:1,h:30,w:30,c:512]     262,656/264,192         235,930,112                 concat_140   |                                Conv2D_[173]             
       nl_141_nl (Nonlinearity, CONV_2D)              [b:1,h:30,w:30,c:512]                                 460,800                 conv2d_141   |          -460,800(-100.0%)     
------ ---------------------------------------------- ------------------------- --------------------- ------------- -------------------------- --- -------- --------------------- ------------------------ 
142    conv2d_142 (Conv2D, CONV_2D)                   [b:1,h:30,w:30,c:256]     131,328/132,096         117,965,056                  nl_141_nl   |                                Conv2D_[174]             
       nl_142_nl (Nonlinearity, CONV_2D)              [b:1,h:30,w:30,c:256]                                 230,400                 conv2d_142   |          -230,400(-100.0%)     
------ ---------------------------------------------- ------------------------- --------------------- ------------- -------------------------- --- -------- --------------------- ------------------------ 
143    conversion_143 (Conversion, QUANTIZE)          [b:1,h:30,w:30,c:256]                                 460,800                  nl_142_nl   |                                Conversion_[175]         
------ ---------------------------------------------- ------------------------- --------------------- ------------- -------------------------- --- -------- --------------------- ------------------------ 
144    resize_144 (Resize, RESIZE_NEAREST_NEIGHBOR)   [b:1,h:60,w:60,c:256]                                                     conversion_143   |                                Resize_[176]             
------ ---------------------------------------------- ------------------------- --------------------- ------------- -------------------------- --- -------- --------------------- ------------------------ 
145    concat_145 (Concat, CONCATENATION)             [b:1,h:60,w:60,c:512]                                                         resize_144   |                                Concat_[177]             
                                                                                                                                      nl_62_nl   | 
------ ---------------------------------------------- ------------------------- --------------------- ------------- -------------------------- --- -------- --------------------- ------------------------ 
146    conv2d_146 (Conv2D, CONV_2D)                   [b:1,h:60,w:60,c:128]     65,664/66,048           235,929,728                 concat_145   |                                Conv2D_[179]             
       nl_146_nl (Nonlinearity, CONV_2D)              [b:1,h:60,w:60,c:128]                                 460,800                 conv2d_146   |          -460,800(-100.0%)     
------ ---------------------------------------------- ------------------------- --------------------- ------------- -------------------------- --- -------- --------------------- ------------------------ 
147    conv2d_147 (Conv2D, CONV_2D)                   [b:1,h:60,w:60,c:128]     16,512/16,896            58,982,528                  nl_146_nl   |                                Conv2D_[180]             
       nl_147_nl (Nonlinearity, CONV_2D)              [b:1,h:60,w:60,c:128]                                 460,800                 conv2d_147   |          -460,800(-100.0%)     
------ ---------------------------------------------- ------------------------- --------------------- ------------- -------------------------- --- -------- --------------------- ------------------------ 
148    conv2d_148 (Conv2D, DEPTHWISE_CONV_2D)         [b:1,h:60,w:60,c:128]     1,280/1,664               4,147,328                  nl_147_nl   |                                Pad_/Conv2D_[181, 182]   
       nl_148_nl (Nonlinearity, DEPTHWISE_CONV_2D)    [b:1,h:60,w:60,c:128]                                 460,800                 conv2d_148   |          -460,800(-100.0%)     
------ ---------------------------------------------- ------------------------- --------------------- ------------- -------------------------- --- -------- --------------------- ------------------------ 
149    conv2d_149 (Conv2D, CONV_2D)                   [b:1,h:60,w:60,c:128]     16,512/16,896            58,982,528                  nl_148_nl   |                                Conv2D_[183]             
       nl_149_nl (Nonlinearity, CONV_2D)              [b:1,h:60,w:60,c:128]                                 460,800                 conv2d_149   |          -460,800(-100.0%)     
------ ---------------------------------------------- ------------------------- --------------------- ------------- -------------------------- --- -------- --------------------- ------------------------ 
150    conv2d_150 (Conv2D, CONV_2D)                   [b:1,h:60,w:60,c:128]     16,512/16,896            58,982,528                  nl_149_nl   |                                Conv2D_[184]             
       nl_150_nl (Nonlinearity, CONV_2D)              [b:1,h:60,w:60,c:128]                                 460,800                 conv2d_150   |          -460,800(-100.0%)     
------ ---------------------------------------------- ------------------------- --------------------- ------------- -------------------------- --- -------- --------------------- ------------------------ 
151    conv2d_151 (Conv2D, DEPTHWISE_CONV_2D)         [b:1,h:60,w:60,c:128]     1,280/1,664               4,147,328                  nl_150_nl   |                                Pad_/Conv2D_[185, 186]   
       nl_151_nl (Nonlinearity, DEPTHWISE_CONV_2D)    [b:1,h:60,w:60,c:128]                                 460,800                 conv2d_151   |          -460,800(-100.0%)     
------ ---------------------------------------------- ------------------------- --------------------- ------------- -------------------------- --- -------- --------------------- ------------------------ 
152    conv2d_152 (Conv2D, CONV_2D)                   [b:1,h:60,w:60,c:128]     16,512/16,896            58,982,528                  nl_151_nl   |                                Conv2D_[187]             
       nl_152_nl (Nonlinearity, CONV_2D)              [b:1,h:60,w:60,c:128]                                 460,800                 conv2d_152   |          -460,800(-100.0%)     
------ ---------------------------------------------- ------------------------- --------------------- ------------- -------------------------- --- -------- --------------------- ------------------------ 
153    conv2d_153 (Conv2D, CONV_2D)                   [b:1,h:60,w:60,c:128]     16,512/16,896            58,982,528                  nl_152_nl   |                                Conv2D_[188]             
       nl_153_nl (Nonlinearity, CONV_2D)              [b:1,h:60,w:60,c:128]                                 460,800                 conv2d_153   |          -460,800(-100.0%)     
------ ---------------------------------------------- ------------------------- --------------------- ------------- -------------------------- --- -------- --------------------- ------------------------ 
154    conv2d_154 (Conv2D, DEPTHWISE_CONV_2D)         [b:1,h:60,w:60,c:128]     1,280/1,664               4,147,328                  nl_153_nl   |                                Pad_/Conv2D_[189, 190]   
       nl_154_nl (Nonlinearity, DEPTHWISE_CONV_2D)    [b:1,h:60,w:60,c:128]                                 460,800                 conv2d_154   |          -460,800(-100.0%)     
------ ---------------------------------------------- ------------------------- --------------------- ------------- -------------------------- --- -------- --------------------- ------------------------ 
155    conv2d_155 (Conv2D, CONV_2D)                   [b:1,h:60,w:60,c:128]     16,512/16,896            58,982,528                  nl_154_nl   |                                Conv2D_[191]             
       nl_155_nl (Nonlinearity, CONV_2D)              [b:1,h:60,w:60,c:128]                                 460,800                 conv2d_155   |          -460,800(-100.0%)     
------ ---------------------------------------------- ------------------------- --------------------- ------------- -------------------------- --- -------- --------------------- ------------------------ 
156    conv2d_156 (Conv2D, CONV_2D)                   [b:1,h:60,w:60,c:128]     65,664/66,048           235,929,728                 concat_145   |                                Conv2D_[178]             
       nl_156_nl (Nonlinearity, CONV_2D)              [b:1,h:60,w:60,c:128]                                 460,800                 conv2d_156   |          -460,800(-100.0%)     
------ ---------------------------------------------- ------------------------- --------------------- ------------- -------------------------- --- -------- --------------------- ------------------------ 
157    concat_157 (Concat, CONCATENATION)             [b:1,h:60,w:60,c:256]                                                          nl_155_nl   |                                Concat_[192]             
                                                                                                                                     nl_156_nl   | 
------ ---------------------------------------------- ------------------------- --------------------- ------------- -------------------------- --- -------- --------------------- ------------------------ 
158    conv2d_158 (Conv2D, CONV_2D)                   [b:1,h:60,w:60,c:256]     65,792/66,560           235,929,856                 concat_157   |                                Conv2D_[193]             
       nl_158_nl (Nonlinearity, CONV_2D)              [b:1,h:60,w:60,c:256]                                 921,600                 conv2d_158   |          -921,600(-100.0%)     
------ ---------------------------------------------- ------------------------- --------------------- ------------- -------------------------- --- -------- --------------------- ------------------------ 
159    conv2d_159 (Conv2D, CONV_2D)                   [b:1,h:60,w:60,c:256]     65,792/66,560           235,929,856                  nl_158_nl   |                                Conv2D_[270]             
       nl_159_nl (Nonlinearity, CONV_2D)              [b:1,h:60,w:60,c:256]                                 921,600                 conv2d_159   |          -921,600(-100.0%)     
------ ---------------------------------------------- ------------------------- --------------------- ------------- -------------------------- --- -------- --------------------- ------------------------ 
160    conv2d_160 (Conv2D, DEPTHWISE_CONV_2D)         [b:1,h:60,w:60,c:256]     2,560/3,328               8,294,656                  nl_159_nl   |                                Pad_/Conv2D_[271, 272]   
       nl_160_nl (Nonlinearity, DEPTHWISE_CONV_2D)    [b:1,h:60,w:60,c:256]                                 921,600                 conv2d_160   |          -921,600(-100.0%)     
------ ---------------------------------------------- ------------------------- --------------------- ------------- -------------------------- --- -------- --------------------- ------------------------ 
161    conv2d_161 (Conv2D, CONV_2D)                   [b:1,h:60,w:60,c:256]     65,792/66,560           235,929,856                  nl_160_nl   |                                Conv2D_[273]             
       nl_161_nl (Nonlinearity, CONV_2D)              [b:1,h:60,w:60,c:256]                                 921,600                 conv2d_161   |          -921,600(-100.0%)     
------ ---------------------------------------------- ------------------------- --------------------- ------------- -------------------------- --- -------- --------------------- ------------------------ 
162    conv2d_162 (Conv2D, DEPTHWISE_CONV_2D)         [b:1,h:60,w:60,c:256]     2,560/3,328               8,294,656                  nl_161_nl   |                                Pad_/Conv2D_[274, 275]   
       nl_162_nl (Nonlinearity, DEPTHWISE_CONV_2D)    [b:1,h:60,w:60,c:256]                                 921,600                 conv2d_162   |          -921,600(-100.0%)     
------ ---------------------------------------------- ------------------------- --------------------- ------------- -------------------------- --- -------- --------------------- ------------------------ 
163    conv2d_163 (Conv2D, CONV_2D)                   [b:1,h:60,w:60,c:256]     65,792/66,560           235,929,856                  nl_162_nl   |                                Conv2D_[276]             
       nl_163_nl (Nonlinearity, CONV_2D)              [b:1,h:60,w:60,c:256]                                 921,600                 conv2d_163   |          -921,600(-100.0%)     
------ ---------------------------------------------- ------------------------- --------------------- ------------- -------------------------- --- -------- --------------------- ------------------------ 
164    conv2d_164 (Conv2D, CONV_2D)                   [b:1,h:60,w:60,c:3]       771/780                   2,764,803                  nl_163_nl   |                                Conv2D_[277]             
------ ---------------------------------------------- ------------------------- --------------------- ------------- -------------------------- --- -------- --------------------- ------------------------ 
165    conv2d_165 (Conv2D, DEPTHWISE_CONV_2D)         [b:1,h:60,w:60,c:256]     2,560/3,328               8,294,656                  nl_159_nl   |                                Pad_/Conv2D_[278, 279]   
       nl_165_nl (Nonlinearity, DEPTHWISE_CONV_2D)    [b:1,h:60,w:60,c:256]                                 921,600                 conv2d_165   |          -921,600(-100.0%)     
------ ---------------------------------------------- ------------------------- --------------------- ------------- -------------------------- --- -------- --------------------- ------------------------ 
166    conv2d_166 (Conv2D, CONV_2D)                   [b:1,h:60,w:60,c:256]     65,792/66,560           235,929,856                  nl_165_nl   |                                Conv2D_[280]             
       nl_166_nl (Nonlinearity, CONV_2D)              [b:1,h:60,w:60,c:256]                                 921,600                 conv2d_166   |          -921,600(-100.0%)     
------ ---------------------------------------------- ------------------------- --------------------- ------------- -------------------------- --- -------- --------------------- ------------------------ 
167    conv2d_167 (Conv2D, DEPTHWISE_CONV_2D)         [b:1,h:60,w:60,c:256]     2,560/3,328               8,294,656                  nl_166_nl   |                                Pad_/Conv2D_[281, 282]   
       nl_167_nl (Nonlinearity, DEPTHWISE_CONV_2D)    [b:1,h:60,w:60,c:256]                                 921,600                 conv2d_167   |          -921,600(-100.0%)     
------ ---------------------------------------------- ------------------------- --------------------- ------------- -------------------------- --- -------- --------------------- ------------------------ 
168    conv2d_168 (Conv2D, CONV_2D)                   [b:1,h:60,w:60,c:256]     65,792/66,560           235,929,856                  nl_167_nl   |                                Conv2D_[283]             
       nl_168_nl (Nonlinearity, CONV_2D)              [b:1,h:60,w:60,c:256]                                 921,600                 conv2d_168   |          -921,600(-100.0%)     
------ ---------------------------------------------- ------------------------- --------------------- ------------- -------------------------- --- -------- --------------------- ------------------------ 
169    conv2d_169 (Conv2D, CONV_2D)                   [b:1,h:60,w:60,c:3]       771/780                   2,764,803                  nl_168_nl   |                                Conv2D_[285]             
------ ---------------------------------------------- ------------------------- --------------------- ------------- -------------------------- --- -------- --------------------- ------------------------ 
170    conv2d_170 (Conv2D, CONV_2D)                   [b:1,h:60,w:60,c:12]      3,084/3,120              11,059,212                  nl_168_nl   |                                Conv2D_[284]             
------ ---------------------------------------------- ------------------------- --------------------- ------------- -------------------------- --- -------- --------------------- ------------------------ 
171    concat_171 (Concat, CONCATENATION)             [b:1,h:60,w:60,c:18]                                                          conv2d_170   |                                Concat_[286]             
                                                                                                                                    conv2d_169   | 
                                                                                                                                    conv2d_164   | 
------ ---------------------------------------------- ------------------------- --------------------- ------------- -------------------------- --- -------- --------------------- ------------------------ 
172    conversion_172 (Conversion, DEQUANTIZE)        [b:1,h:60,w:60,c:18]                                  129,600                 concat_171   |                                Conversion_[o][287]      
------ ---------------------------------------------- ------------------------- --------------------- ------------- -------------------------- --- -------- --------------------- ------------------------ 
173    conv2d_173 (Conv2D, DEPTHWISE_CONV_2D)         [b:1,h:30,w:30,c:256]     2,560/3,328               2,073,856                  nl_158_nl   |                                Pad_/Conv2D_[194, 195]   
       nl_173_nl (Nonlinearity, DEPTHWISE_CONV_2D)    [b:1,h:30,w:30,c:256]                                 230,400                 conv2d_173   |          -230,400(-100.0%)     
------ ---------------------------------------------- ------------------------- --------------------- ------------- -------------------------- --- -------- --------------------- ------------------------ 
174    conv2d_174 (Conv2D, CONV_2D)                   [b:1,h:30,w:30,c:256]     65,792/66,560            58,982,656                  nl_173_nl   |                                Conv2D_[196]             
       nl_174_nl (Nonlinearity, CONV_2D)              [b:1,h:30,w:30,c:256]                                 230,400                 conv2d_174   |          -230,400(-100.0%)     
------ ---------------------------------------------- ------------------------- --------------------- ------------- -------------------------- --- -------- --------------------- ------------------------ 
175    concat_175 (Concat, CONCATENATION)             [b:1,h:30,w:30,c:512]                                                          nl_174_nl   |                                Concat_[197]             
                                                                                                                                     nl_142_nl   | 
------ ---------------------------------------------- ------------------------- --------------------- ------------- -------------------------- --- -------- --------------------- ------------------------ 
176    conv2d_176 (Conv2D, CONV_2D)                   [b:1,h:30,w:30,c:256]     131,328/132,096         117,965,056                 concat_175   |                                Conv2D_[199]             
       nl_176_nl (Nonlinearity, CONV_2D)              [b:1,h:30,w:30,c:256]                                 230,400                 conv2d_176   |          -230,400(-100.0%)     
------ ---------------------------------------------- ------------------------- --------------------- ------------- -------------------------- --- -------- --------------------- ------------------------ 
177    conv2d_177 (Conv2D, CONV_2D)                   [b:1,h:30,w:30,c:256]     65,792/66,560            58,982,656                  nl_176_nl   |                                Conv2D_[200]             
       nl_177_nl (Nonlinearity, CONV_2D)              [b:1,h:30,w:30,c:256]                                 230,400                 conv2d_177   |          -230,400(-100.0%)     
------ ---------------------------------------------- ------------------------- --------------------- ------------- -------------------------- --- -------- --------------------- ------------------------ 
178    conv2d_178 (Conv2D, DEPTHWISE_CONV_2D)         [b:1,h:30,w:30,c:256]     2,560/3,328               2,073,856                  nl_177_nl   |                                Pad_/Conv2D_[201, 202]   
       nl_178_nl (Nonlinearity, DEPTHWISE_CONV_2D)    [b:1,h:30,w:30,c:256]                                 230,400                 conv2d_178   |          -230,400(-100.0%)     
------ ---------------------------------------------- ------------------------- --------------------- ------------- -------------------------- --- -------- --------------------- ------------------------ 
179    conv2d_179 (Conv2D, CONV_2D)                   [b:1,h:30,w:30,c:256]     65,792/66,560            58,982,656                  nl_178_nl   |                                Conv2D_[203]             
       nl_179_nl (Nonlinearity, CONV_2D)              [b:1,h:30,w:30,c:256]                                 230,400                 conv2d_179   |          -230,400(-100.0%)     
------ ---------------------------------------------- ------------------------- --------------------- ------------- -------------------------- --- -------- --------------------- ------------------------ 
180    conv2d_180 (Conv2D, CONV_2D)                   [b:1,h:30,w:30,c:256]     65,792/66,560            58,982,656                  nl_179_nl   |                                Conv2D_[204]             
       nl_180_nl (Nonlinearity, CONV_2D)              [b:1,h:30,w:30,c:256]                                 230,400                 conv2d_180   |          -230,400(-100.0%)     
------ ---------------------------------------------- ------------------------- --------------------- ------------- -------------------------- --- -------- --------------------- ------------------------ 
181    conv2d_181 (Conv2D, DEPTHWISE_CONV_2D)         [b:1,h:30,w:30,c:256]     2,560/3,328               2,073,856                  nl_180_nl   |                                Pad_/Conv2D_[205, 206]   
       nl_181_nl (Nonlinearity, DEPTHWISE_CONV_2D)    [b:1,h:30,w:30,c:256]                                 230,400                 conv2d_181   |          -230,400(-100.0%)     
------ ---------------------------------------------- ------------------------- --------------------- ------------- -------------------------- --- -------- --------------------- ------------------------ 
182    conv2d_182 (Conv2D, CONV_2D)                   [b:1,h:30,w:30,c:256]     65,792/66,560            58,982,656                  nl_181_nl   |                                Conv2D_[207]             
       nl_182_nl (Nonlinearity, CONV_2D)              [b:1,h:30,w:30,c:256]                                 230,400                 conv2d_182   |          -230,400(-100.0%)     
------ ---------------------------------------------- ------------------------- --------------------- ------------- -------------------------- --- -------- --------------------- ------------------------ 
183    conv2d_183 (Conv2D, CONV_2D)                   [b:1,h:30,w:30,c:256]     65,792/66,560            58,982,656                  nl_182_nl   |                                Conv2D_[208]             
       nl_183_nl (Nonlinearity, CONV_2D)              [b:1,h:30,w:30,c:256]                                 230,400                 conv2d_183   |          -230,400(-100.0%)     
------ ---------------------------------------------- ------------------------- --------------------- ------------- -------------------------- --- -------- --------------------- ------------------------ 
184    conv2d_184 (Conv2D, DEPTHWISE_CONV_2D)         [b:1,h:30,w:30,c:256]     2,560/3,328               2,073,856                  nl_183_nl   |                                Pad_/Conv2D_[209, 210]   
       nl_184_nl (Nonlinearity, DEPTHWISE_CONV_2D)    [b:1,h:30,w:30,c:256]                                 230,400                 conv2d_184   |          -230,400(-100.0%)     
------ ---------------------------------------------- ------------------------- --------------------- ------------- -------------------------- --- -------- --------------------- ------------------------ 
185    conv2d_185 (Conv2D, CONV_2D)                   [b:1,h:30,w:30,c:256]     65,792/66,560            58,982,656                  nl_184_nl   |                                Conv2D_[211]             
       nl_185_nl (Nonlinearity, CONV_2D)              [b:1,h:30,w:30,c:256]                                 230,400                 conv2d_185   |          -230,400(-100.0%)     
------ ---------------------------------------------- ------------------------- --------------------- ------------- -------------------------- --- -------- --------------------- ------------------------ 
186    conv2d_186 (Conv2D, CONV_2D)                   [b:1,h:30,w:30,c:256]     131,328/132,096         117,965,056                 concat_175   |                                Conv2D_[198]             
       nl_186_nl (Nonlinearity, CONV_2D)              [b:1,h:30,w:30,c:256]                                 230,400                 conv2d_186   |          -230,400(-100.0%)     
------ ---------------------------------------------- ------------------------- --------------------- ------------- -------------------------- --- -------- --------------------- ------------------------ 
187    concat_187 (Concat, CONCATENATION)             [b:1,h:30,w:30,c:512]                                                          nl_185_nl   |                                Concat_[212]             
                                                                                                                                     nl_186_nl   | 
------ ---------------------------------------------- ------------------------- --------------------- ------------- -------------------------- --- -------- --------------------- ------------------------ 
188    conv2d_188 (Conv2D, CONV_2D)                   [b:1,h:30,w:30,c:512]     262,656/264,192         235,930,112                 concat_187   |                                Conv2D_[213]             
       nl_188_nl (Nonlinearity, CONV_2D)              [b:1,h:30,w:30,c:512]                                 460,800                 conv2d_188   |          -460,800(-100.0%)     
------ ---------------------------------------------- ------------------------- --------------------- ------------- -------------------------- --- -------- --------------------- ------------------------ 
189    conv2d_189 (Conv2D, CONV_2D)                   [b:1,h:30,w:30,c:256]     131,328/132,096         117,965,056                  nl_188_nl   |                                Conv2D_[252]             
       nl_189_nl (Nonlinearity, CONV_2D)              [b:1,h:30,w:30,c:256]                                 230,400                 conv2d_189   |          -230,400(-100.0%)     
------ ---------------------------------------------- ------------------------- --------------------- ------------- -------------------------- --- -------- --------------------- ------------------------ 
190    conv2d_190 (Conv2D, DEPTHWISE_CONV_2D)         [b:1,h:30,w:30,c:256]     2,560/3,328               2,073,856                  nl_189_nl   |                                Pad_/Conv2D_[253, 254]   
       nl_190_nl (Nonlinearity, DEPTHWISE_CONV_2D)    [b:1,h:30,w:30,c:256]                                 230,400                 conv2d_190   |          -230,400(-100.0%)     
------ ---------------------------------------------- ------------------------- --------------------- ------------- -------------------------- --- -------- --------------------- ------------------------ 
191    conv2d_191 (Conv2D, CONV_2D)                   [b:1,h:30,w:30,c:256]     65,792/66,560            58,982,656                  nl_190_nl   |                                Conv2D_[255]             
       nl_191_nl (Nonlinearity, CONV_2D)              [b:1,h:30,w:30,c:256]                                 230,400                 conv2d_191   |          -230,400(-100.0%)     
------ ---------------------------------------------- ------------------------- --------------------- ------------- -------------------------- --- -------- --------------------- ------------------------ 
192    conv2d_192 (Conv2D, DEPTHWISE_CONV_2D)         [b:1,h:30,w:30,c:256]     2,560/3,328               2,073,856                  nl_191_nl   |                                Pad_/Conv2D_[256, 257]   
       nl_192_nl (Nonlinearity, DEPTHWISE_CONV_2D)    [b:1,h:30,w:30,c:256]                                 230,400                 conv2d_192   |          -230,400(-100.0%)     
------ ---------------------------------------------- ------------------------- --------------------- ------------- -------------------------- --- -------- --------------------- ------------------------ 
193    conv2d_193 (Conv2D, CONV_2D)                   [b:1,h:30,w:30,c:256]     65,792/66,560            58,982,656                  nl_192_nl   |                                Conv2D_[258]             
       nl_193_nl (Nonlinearity, CONV_2D)              [b:1,h:30,w:30,c:256]                                 230,400                 conv2d_193   |          -230,400(-100.0%)     
------ ---------------------------------------------- ------------------------- --------------------- ------------- -------------------------- --- -------- --------------------- ------------------------ 
194    conv2d_194 (Conv2D, CONV_2D)                   [b:1,h:30,w:30,c:3]       771/780                     691,203                  nl_193_nl   |                                Conv2D_[259]             
------ ---------------------------------------------- ------------------------- --------------------- ------------- -------------------------- --- -------- --------------------- ------------------------ 
195    conv2d_195 (Conv2D, DEPTHWISE_CONV_2D)         [b:1,h:30,w:30,c:256]     2,560/3,328               2,073,856                  nl_189_nl   |                                Pad_/Conv2D_[260, 261]   
       nl_195_nl (Nonlinearity, DEPTHWISE_CONV_2D)    [b:1,h:30,w:30,c:256]                                 230,400                 conv2d_195   |          -230,400(-100.0%)     
------ ---------------------------------------------- ------------------------- --------------------- ------------- -------------------------- --- -------- --------------------- ------------------------ 
196    conv2d_196 (Conv2D, CONV_2D)                   [b:1,h:30,w:30,c:256]     65,792/66,560            58,982,656                  nl_195_nl   |                                Conv2D_[262]             
       nl_196_nl (Nonlinearity, CONV_2D)              [b:1,h:30,w:30,c:256]                                 230,400                 conv2d_196   |          -230,400(-100.0%)     
------ ---------------------------------------------- ------------------------- --------------------- ------------- -------------------------- --- -------- --------------------- ------------------------ 
197    conv2d_197 (Conv2D, DEPTHWISE_CONV_2D)         [b:1,h:30,w:30,c:256]     2,560/3,328               2,073,856                  nl_196_nl   |                                Pad_/Conv2D_[263, 264]   
       nl_197_nl (Nonlinearity, DEPTHWISE_CONV_2D)    [b:1,h:30,w:30,c:256]                                 230,400                 conv2d_197   |          -230,400(-100.0%)     
------ ---------------------------------------------- ------------------------- --------------------- ------------- -------------------------- --- -------- --------------------- ------------------------ 
198    conv2d_198 (Conv2D, CONV_2D)                   [b:1,h:30,w:30,c:256]     65,792/66,560            58,982,656                  nl_197_nl   |                                Conv2D_[265]             
       nl_198_nl (Nonlinearity, CONV_2D)              [b:1,h:30,w:30,c:256]                                 230,400                 conv2d_198   |          -230,400(-100.0%)     
------ ---------------------------------------------- ------------------------- --------------------- ------------- -------------------------- --- -------- --------------------- ------------------------ 
199    conv2d_199 (Conv2D, CONV_2D)                   [b:1,h:30,w:30,c:3]       771/780                     691,203                  nl_198_nl   |                                Conv2D_[267]             
------ ---------------------------------------------- ------------------------- --------------------- ------------- -------------------------- --- -------- --------------------- ------------------------ 
200    conv2d_200 (Conv2D, CONV_2D)                   [b:1,h:30,w:30,c:12]      3,084/3,120               2,764,812                  nl_198_nl   |                                Conv2D_[266]             
------ ---------------------------------------------- ------------------------- --------------------- ------------- -------------------------- --- -------- --------------------- ------------------------ 
201    concat_201 (Concat, CONCATENATION)             [b:1,h:30,w:30,c:18]                                                          conv2d_200   |                                Concat_[268]             
                                                                                                                                    conv2d_199   | 
                                                                                                                                    conv2d_194   | 
------ ---------------------------------------------- ------------------------- --------------------- ------------- -------------------------- --- -------- --------------------- ------------------------ 
202    conversion_202 (Conversion, DEQUANTIZE)        [b:1,h:30,w:30,c:18]                                   32,400                 concat_201   |                                Conversion_[o][269]      
------ ---------------------------------------------- ------------------------- --------------------- ------------- -------------------------- --- -------- --------------------- ------------------------ 
203    conv2d_203 (Conv2D, DEPTHWISE_CONV_2D)         [b:1,h:15,w:15,c:512]     5,120/6,656               1,037,312                  nl_188_nl   |                                Pad_/Conv2D_[214, 215]   
       nl_203_nl (Nonlinearity, DEPTHWISE_CONV_2D)    [b:1,h:15,w:15,c:512]                                 115,200                 conv2d_203   |          -115,200(-100.0%)     
…
                                                                          O: concat_171_output                 int8(1x60x60x18) (7)        
------ ----------------------- ----- -------------- ----------- --------- ------------------------------------ --------------------------- 
287    conversion_172          172   Conversion     129600      0         I: concat_171_output                 int8(1x60x60x18) (7)        
                                                                          O: conversion_172_output             f32(1x60x60x18) (817)       
------ ----------------------- ----- -------------- ----------- --------- ------------------------------------ --------------------------- 



Number of operations per c-layer
------- ------ ----------------------------- ---------------- ------------- 
c_id    m_id   name (type)                                #op          type 
------- ------ ----------------------------- ---------------- ------------- 
0       0      conversion_0 (Conversion)            1,382,400    smul_u8_s8 
1       1      conv2d_1 (Conv2D)                   18,662,412    smul_s8_s8 
2       2      conv2d_2_pad_before (Pad)                    0    smul_s8_s8 
3       2      conv2d_2 (Conv2D)                  398,131,264    smul_s8_s8 
4       3      conv2d_3_pad_before (Pad)                    0    smul_s8_s8 
5       3      conv2d_3 (Conv2D)                    8,294,464    smul_s8_s8 
6       4      conv2d_4 (Conv2D)                  117,964,928    smul_s8_s8 
7       18     conv2d_18 (Conv2D)                 117,964,864    smul_s8_s8 
8       5      conv2d_5 (Conv2D)                  117,964,864    smul_s8_s8 
9       6      conv2d_6 (Conv2D)                   58,982,464    smul_s8_s8 
10      7      conv2d_7_pad_before (Pad)                    0    smul_s8_s8 
11      7      conv2d_7 (Conv2D)                    8,294,464    smul_s8_s8 
12      8      conv2d_8 (Conv2D)                   58,982,464    smul_s8_s8 
13      9      eltwise_9 (Eltwise/add)                921,600      op_s8_s8 
14      10     conv2d_10 (Conv2D)                  58,982,464    smul_s8_s8 
15      11     conv2d_11_pad_before (Pad)                   0    smul_s8_s8 
16      11     conv2d_11 (Conv2D)                   8,294,464    smul_s8_s8 
17      12     conv2d_12 (Conv2D)                  58,982,464    smul_s8_s8 
18      13     eltwise_13 (Eltwise/add)               921,600      op_s8_s8 
19      14     conv2d_14 (Conv2D)                  58,982,464    smul_s8_s8 
20      15     conv2d_15_pad_before (Pad)                   0    smul_s8_s8 
21      15     conv2d_15 (Conv2D)                   8,294,464    smul_s8_s8 
22      16     conv2d_16 (Conv2D)                  58,982,464    smul_s8_s8 
23      17     eltwise_17 (Eltwise/add)               921,600      op_s8_s8 
24      19     concat_19 (Concat)                           0    smul_s8_s8 
25      20     conv2d_20 (Conv2D)                 235,929,728    smul_s8_s8 
26      21     conv2d_21_pad_before (Pad)                   0    smul_s8_s8 
27      21     conv2d_21 (Conv2D)                   4,147,328    smul_s8_s8 
28      22     conv2d_22 (Conv2D)                 117,965,056    smul_s8_s8 
29      60     conv2d_60 (Conv2D)                 117,964,928    smul_s8_s8 
30      23     conv2d_23 (Conv2D)                 117,964,928    smul_s8_s8 
31      24     conv2d_24 (Conv2D)                  58,982,528    smul_s8_s8 
32      25     conv2d_25_pad_before (Pad)                   0    smul_s8_s8 
33      25     conv2d_25 (Conv2D)                   4,147,328    smul_s8_s8 
34      26     conv2d_26 (Conv2D)                  58,982,528    smul_s8_s8 
35      27     eltwise_27 (Eltwise/add)               460,800      op_s8_s8 
36      28     conv2d_28 (Conv2D)                  58,982,528    smul_s8_s8 
37      29     conv2d_29_pad_before (Pad)                   0    smul_s8_s8 
38      29     conv2d_29 (Conv2D)                   4,147,328    smul_s8_s8 
39      30     conv2d_30 (Conv2D)                  58,982,528    smul_s8_s8 
40      31     eltwise_31 (Eltwise/add)               460,800      op_s8_s8 
41      32     conv2d_32 (Conv2D)                  58,982,528    smul_s8_s8 
42      33     conv2d_33_pad_before (Pad)                   0    smul_s8_s8 
43      33     conv2d_33 (Conv2D)                   4,147,328    smul_s8_s8 
44      34     conv2d_34 (Conv2D)                  58,982,528    smul_s8_s8 
45      35     eltwise_35 (Eltwise/add)               460,800      op_s8_s8 
46      36     conv2d_36 (Conv2D)                  58,982,528    smul_s8_s8 
47      37     conv2d_37_pad_before (Pad)                   0    smul_s8_s8 
48      37     conv2d_37 (Conv2D)                   4,147,328    smul_s8_s8 
49      38     conv2d_38 (Conv2D)                  58,982,528    smul_s8_s8 
50      39     eltwise_39 (Eltwise/add)               460,800      op_s8_s8 
51      40     conv2d_40 (Conv2D)                  58,982,528    smul_s8_s8 
52      41     conv2d_41_pad_before (Pad)                   0    smul_s8_s8 
53      41     conv2d_41 (Conv2D)                   4,147,328    smul_s8_s8 
54      42     conv2d_42 (Conv2D)                  58,982,528    smul_s8_s8 
55      43     eltwise_43 (Eltwise/add)               460,800      op_s8_s8 
56      44     conv2d_44 (Conv2D)                  58,982,528    smul_s8_s8 
57      45     conv2d_45_pad_before (Pad)                   0    smul_s8_s8 
58      45     conv2d_45 (Conv2D)                   4,147,328    smul_s8_s8 
59      46     conv2d_46 (Conv2D)                  58,982,528    smul_s8_s8 
60      47     eltwise_47 (Eltwise/add)               460,800      op_s8_s8 
61      48     conv2d_48 (Conv2D)                  58,982,528    smul_s8_s8 
62      49     conv2d_49_pad_before (Pad)                   0    smul_s8_s8 
63      49     conv2d_49 (Conv2D)                   4,147,328    smul_s8_s8 
64      50     conv2d_50 (Conv2D)                  58,982,528    smul_s8_s8 
65      51     eltwise_51 (Eltwise/add)               460,800      op_s8_s8 
66      52     conv2d_52 (Conv2D)                  58,982,528    smul_s8_s8 
67      53     conv2d_53_pad_before (Pad)                   0    smul_s8_s8 
68      53     conv2d_53 (Conv2D)                   4,147,328    smul_s8_s8 
69      54     conv2d_54 (Conv2D)                  58,982,528    smul_s8_s8 
70      55     eltwise_55 (Eltwise/add)               460,800      op_s8_s8 
71      56     conv2d_56 (Conv2D)                  58,982,528    smul_s8_s8 
72      57     conv2d_57_pad_before (Pad)                   0    smul_s8_s8 
73      57     conv2d_57 (Conv2D)                   4,147,328    smul_s8_s8 
74      58     conv2d_58 (Conv2D)                  58,982,528    smul_s8_s8 
75      59     eltwise_59 (Eltwise/add)               460,800      op_s8_s8 
76      61     concat_61 (Concat)                           0    smul_s8_s8 
77      62     conv2d_62 (Conv2D)                 235,929,856    smul_s8_s8 
78      63     conv2d_63_pad_before (Pad)                   0    smul_s8_s8 
79      63     conv2d_63 (Conv2D)                   2,073,856    smul_s8_s8 
80      64     conv2d_64 (Conv2D)                 117,965,312    smul_s8_s8 
81      102    conv2d_102 (Conv2D)                117,965,056    smul_s8_s8 
82      65     conv2d_65 (Conv2D)                 117,965,056    smul_s8_s8 
83      66     conv2d_66 (Conv2D)                  58,982,656    smul_s8_s8 
84      67     conv2d_67_pad_before (Pad)                   0    smul_s8_s8 
85      67     conv2d_67 (Conv2D)                   2,073,856    smul_s8_s8 
86      68     conv2d_68 (Conv2D)                  58,982,656    smul_s8_s8 
87      69     eltwise_69 (Eltwise/add)               230,400      op_s8_s8 
88      70     conv2d_70 (Conv2D)                  58,982,656    smul_s8_s8 
89      71     conv2d_71_pad_before (Pad)                   0    smul_s8_s8 
90      71     conv2d_71 (Conv2D)                   2,073,856    smul_s8_s8 
91      72     conv2d_72 (Conv2D)                  58,982,656    smul_s8_s8 
92      73     eltwise_73 (Eltwise/add)               230,400      op_s8_s8 
93      74     conv2d_74 (Conv2D)                  58,982,656    smul_s8_s8 
94      75     conv2d_75_pad_before (Pad)                   0    smul_s8_s8 
95      75     conv2d_75 (Conv2D)                   2,073,856    smul_s8_s8 
96      76     conv2d_76 (Conv2D)                  58,982,656    smul_s8_s8 
97      77     eltwise_77 (Eltwise/add)               230,400      op_s8_s8 
98      78     conv2d_78 (Conv2D)                  58,982,656    smul_s8_s8 
99      79     conv2d_79_pad_before (Pad)                   0    smul_s8_s8 
100     79     conv2d_79 (Conv2D)                   2,073,856    smul_s8_s8 
101     80     conv2d_80 (Conv2D)                  58,982,656    smul_s8_s8 
102     81     eltwise_81 (Eltwise/add)               230,400      op_s8_s8 
103     82     conv2d_82 (Conv2D)                  58,982,656    smul_s8_s8 
104     83     conv2d_83_pad_before (Pad)                   0    smul_s8_s8 
105     83     conv2d_83 (Conv2D)                   2,073,856    smul_s8_s8 
106     84     conv2d_84 (Conv2D)                  58,982,656    smul_s8_s8 
107     85     eltwise_85 (Eltwise/add)               230,400      op_s8_s8 
108     86     conv2d_86 (Conv2D)                  58,982,656    smul_s8_s8 
109     87     conv2d_87_pad_before (Pad)                   0    smul_s8_s8 
110     87     conv2d_87 (Conv2D)                   2,073,856    smul_s8_s8 
111     88     conv2d_88 (Conv2D)                  58,982,656    smul_s8_s8 
112     89     eltwise_89 (Eltwise/add)               230,400      op_s8_s8 
113     90     conv2d_90 (Conv2D)                  58,982,656    smul_s8_s8 
114     91     conv2d_91_pad_before (Pad)                   0    smul_s8_s8 
115     91     conv2d_91 (Conv2D)                   2,073,856    smul_s8_s8 
116     92     conv2d_92 (Conv2D)                  58,982,656    smul_s8_s8 
117     93     eltwise_93 (Eltwise/add)               230,400      op_s8_s8 
118     94     conv2d_94 (Conv2D)                  58,982,656    smul_s8_s8 
119     95     conv2d_95_pad_before (Pad)                   0    smul_s8_s8 
120     95     conv2d_95 (Conv2D)                   2,073,856    smul_s8_s8 
121     96     conv2d_96 (Conv2D)                  58,982,656    smul_s8_s8 
122     97     eltwise_97 (Eltwise/add)               230,400      op_s8_s8 
123     98     conv2d_98 (Conv2D)                  58,982,656    smul_s8_s8 
124     99     conv2d_99_pad_before (Pad)                   0    smul_s8_s8 
125     99     conv2d_99 (Conv2D)                   2,073,856    smul_s8_s8 
126     100    conv2d_100 (Conv2D)                 58,982,656    smul_s8_s8 
127     101    eltwise_101 (Eltwise/add)              230,400      op_s8_s8 
128     103    concat_103 (Concat)                          0    smul_s8_s8 
129     104    conv2d_104 (Conv2D)                235,930,112    smul_s8_s8 
130     105    conv2d_105_pad_before (Pad)                  0    smul_s8_s8 
131     105    conv2d_105 (Conv2D)                  1,037,312    smul_s8_s8 
132     106    conv2d_106 (Conv2D)                117,965,824    smul_s8_s8 
133     107    conv2d_107 (Conv2D)                117,965,312    smul_s8_s8 
134     110    pool_110 (Pool)                     19,468,800    smul_s8_s8 
135     109    pool_109 (Pool)                      9,331,200    smul_s8_s8 
136     108    pool_108 (Pool)                      2,880,000    smul_s8_s8 
137     111    concat_111 (Concat)                          0    smul_s8_s8 
138     112    conv2d_112 (Conv2D)                471,860,224    smul_s8_s8 
139     123    conv2d_123 (Conv2D)                117,965,312    smul_s8_s8 
140     113    conv2d_113 (Conv2D)                117,965,312    smul_s8_s8 
141     114    conv2d_114 (Conv2D)                 58,982,912    smul_s8_s8 
142     115    conv2d_115_pad_before (Pad)                  0    smul_s8_s8 
143     115    conv2d_115 (Conv2D)                  1,037,312    smul_s8_s8 
144     116    conv2d_116 (Conv2D)                 58,982,912    smul_s8_s8 
145     117    conv2d_117 (Conv2D)                 58,982,912    smul_s8_s8 
146     118    conv2d_118_pad_before (Pad)                  0    smul_s8_s8 
147     118    conv2d_118 (Conv2D)                  1,037,312    smul_s8_s8 
148     119    conv2d_119 (Conv2D)                 58,982,912    smul_s8_s8 
149     120    conv2d_120 (Conv2D)                 58,982,912    smul_s8_s8 
150     121    conv2d_121_pad_before (Pad)                  0    smul_s8_s8 
151     121    conv2d_121 (Conv2D)                  1,037,312    smul_s8_s8 
152     122    conv2d_122 (Conv2D)                 58,982,912    smul_s8_s8 
153     124    concat_124 (Concat)                          0    smul_s8_s8 
154     125    conv2d_125 (Conv2D)                235,930,624    smul_s8_s8 
155     126    conv2d_126 (Conv2D)                117,965,312    smul_s8_s8 
156     127    resize_127 (Resize)                          0    smul_s8_s8 
157     128    concat_128 (Concat)                          0    smul_s8_s8 
158     139    conv2d_139 (Conv2D)                235,929,856    smul_s8_s8 
159     129    conv2d_129 (Conv2D)                235,929,856    smul_s8_s8 
160     130    conv2d_130 (Conv2D)                 58,982,656    smul_s8_s8 
161     131    conv2d_131_pad_before (Pad)                  0    smul_s8_s8 
162     131    conv2d_131 (Conv2D)                  2,073,856    smul_s8_s8 
163     132    conv2d_132 (Conv2D)                 58,982,656    smul_s8_s8 
164     133    conv2d_133 (Conv2D)                 58,982,656    smul_s8_s8 
165     134    conv2d_134_pad_before (Pad)                  0    smul_s8_s8 
166     134    conv2d_134 (Conv2D)                  2,073,856    smul_s8_s8 
167     135    conv2d_135 (Conv2D)                 58,982,656    smul_s8_s8 
168     136    conv2d_136 (Conv2D)                 58,982,656    smul_s8_s8 
169     137    conv2d_137_pad_before (Pad)                  0    smul_s8_s8 
170     137    conv2d_137 (Conv2D)                  2,073,856    smul_s8_s8 
171     138    conv2d_138 (Conv2D)                 58,982,656    smul_s8_s8 
172     140    concat_140 (Concat)                          0    smul_s8_s8 
173     141    conv2d_141 (Conv2D)                235,930,112    smul_s8_s8 
174     142    conv2d_142 (Conv2D)                117,965,056    smul_s8_s8 
175     143    conversion_143 (Conversion)            460,800    smul_s8_s8 
176     144    resize_144 (Resize)                          0    smul_s8_s8 
177     145    concat_145 (Concat)                          0    smul_s8_s8 
178     156    conv2d_156 (Conv2D)                235,929,728    smul_s8_s8 
179     146    conv2d_146 (Conv2D)                235,929,728    smul_s8_s8 
180     147    conv2d_147 (Conv2D)                 58,982,528    smul_s8_s8 
181     148    conv2d_148_pad_before (Pad)                  0    smul_s8_s8 
182     148    conv2d_148 (Conv2D)                  4,147,328    smul_s8_s8 
183     149    conv2d_149 (Conv2D)                 58,982,528    smul_s8_s8 
184     150    conv2d_150 (Conv2D)                 58,982,528    smul_s8_s8 
185     151    conv2d_151_pad_before (Pad)                  0    smul_s8_s8 
186     151    conv2d_151 (Conv2D)                  4,147,328    smul_s8_s8 
187     152    conv2d_152 (Conv2D)                 58,982,528    smul_s8_s8 
188     153    conv2d_153 (Conv2D)                 58,982,528    smul_s8_s8 
189     154    conv2d_154_pad_before (Pad)                  0    smul_s8_s8 
190     154    conv2d_154 (Conv2D)                  4,147,328    smul_s8_s8 
191     155    conv2d_155 (Conv2D)                 58,982,528    smul_s8_s8 
192     157    concat_157 (Concat)                          0    smul_s8_s8 
193     158    conv2d_158 (Conv2D)                235,929,856    smul_s8_s8 
194     173    conv2d_173_pad_before (Pad)                  0    smul_s8_s8 
195     173    conv2d_173 (Conv2D)                  2,073,856    smul_s8_s8 
196     174    conv2d_174 (Conv2D)                 58,982,656    smul_s8_s8 
197     175    concat_175 (Concat)                          0    smul_s8_s8 
198     186    conv2d_186 (Conv2D)                117,965,056    smul_s8_s8 
199     176    conv2d_176 (Conv2D)                117,965,056    smul_s8_s8 
200     177    conv2d_177 (Conv2D)                 58,982,656    smul_s8_s8 
201     178    conv2d_178_pad_before (Pad)                  0    smul_s8_s8 
202     178    conv2d_178 (Conv2D)                  2,073,856    smul_s8_s8 
203     179    conv2d_179 (Conv2D)                 58,982,656    smul_s8_s8 
204     180    conv2d_180 (Conv2D)                 58,982,656    smul_s8_s8 
205     181    conv2d_181_pad_before (Pad)                  0    smul_s8_s8 
206     181    conv2d_181 (Conv2D)                  2,073,856    smul_s8_s8 
207     182    conv2d_182 (Conv2D)                 58,982,656    smul_s8_s8 
208     183    conv2d_183 (Conv2D)                 58,982,656    smul_s8_s8 
209     184    conv2d_184_pad_before (Pad)                  0    smul_s8_s8 
210     184    conv2d_184 (Conv2D)                  2,073,856    smul_s8_s8 
211     185    conv2d_185 (Conv2D)                 58,982,656    smul_s8_s8 
212     187    concat_187 (Concat)                          0    smul_s8_s8 
213     188    conv2d_188 (Conv2D)                235,930,112    smul_s8_s8 
214     203    conv2d_203_pad_before (Pad)                  0    smul_s8_s8 
215     203    conv2d_203 (Conv2D)                  1,037,312    smul_s8_s8 
216     204    conv2d_204 (Conv2D)                 58,982,912    smul_s8_s8 
217     205    concat_205 (Concat)                          0    smul_s8_s8 
218     216    conv2d_216 (Conv2D)                117,965,312    smul_s8_s8 
219     206    conv2d_206 (Conv2D)                117,965,312    smul_s8_s8 
220     207    conv2d_207 (Conv2D)                 58,982,912    smul_s8_s8 
221     208    conv2d_208_pad_before (Pad)                  0    smul_s8_s8 
222     208    conv2d_208 (Conv2D)                  1,037,312    smul_s8_s8 
223     209    conv2d_209 (Conv2D)                 58,982,912    smul_s8_s8 
224     210    conv2d_210 (Conv2D)                 58,982,912    smul_s8_s8 
225     211    conv2d_211_pad_before (Pad)                  0    smul_s8_s8 
226     211    conv2d_211 (Conv2D)                  1,037,312    smul_s8_s8 
227     212    conv2d_212 (Conv2D)                 58,982,912    smul_s8_s8 
228     213    conv2d_213 (Conv2D)                 58,982,912    smul_s8_s8 
229     214    conv2d_214_pad_before (Pad)                  0    smul_s8_s8 
230     214    conv2d_214 (Conv2D)                  1,037,312    smul_s8_s8 
231     215    conv2d_215 (Conv2D)                 58,982,912    smul_s8_s8 
232     217    concat_217 (Concat)                          0    smul_s8_s8 
233     218    conv2d_218 (Conv2D)                235,930,624    smul_s8_s8 
234     219    conv2d_219 (Conv2D)                 58,982,656    smul_s8_s8 
235     220    conv2d_220_pad_before (Pad)                  0    smul_s8_s8 
236     220    conv2d_220 (Conv2D)                    518,656    smul_s8_s8 
237     221    conv2d_221 (Conv2D)                 14,745,856    smul_s8_s8 
238     222    conv2d_222_pad_before (Pad)                  0    smul_s8_s8 
239     222    conv2d_222 (Conv2D)                    518,656    smul_s8_s8 
240     223    conv2d_223 (Conv2D)                 14,745,856    smul_s8_s8 
241     224    conv2d_224 (Conv2D)                    172,803    smul_s8_s8 
242     225    conv2d_225_pad_before (Pad)                  0    smul_s8_s8 
243     225    conv2d_225 (Conv2D)                    518,656    smul_s8_s8 
244     226    conv2d_226 (Conv2D)                 14,745,856    smul_s8_s8 
245     227    conv2d_227_pad_before (Pad)                  0    smul_s8_s8 
246     227    conv2d_227 (Conv2D)                    518,656    smul_s8_s8 
247     228    conv2d_228 (Conv2D)                 14,745,856    smul_s8_s8 
248     230    conv2d_230 (Conv2D)                    691,212    smul_s8_s8 
249     229    conv2d_229 (Conv2D)                    172,803    smul_s8_s8 
250     231    concat_231 (Concat)                          0    smul_s8_s8 
251     232    conversion_232 (Conversion)              8,100   smul_s8_f32 
252     189    conv2d_189 (Conv2D)                117,965,056    smul_s8_s8 
253     190    conv2d_190_pad_before (Pad)                  0    smul_s8_s8 
254     190    conv2d_190 (Conv2D)                  2,073,856    smul_s8_s8 
255     191    conv2d_191 (Conv2D)                 58,982,656    smul_s8_s8 
256     192    conv2d_192_pad_before (Pad)                  0    smul_s8_s8 
257     192    conv2d_192 (Conv2D)                  2,073,856    smul_s8_s8 
258     193    conv2d_193 (Conv2D)                 58,982,656    smul_s8_s8 
259     194    conv2d_194 (Conv2D)                    691,203    smul_s8_s8 
260     195    conv2d_195_pad_before (Pad)                  0    smul_s8_s8 
261     195    conv2d_195 (Conv2D)                  2,073,856    smul_s8_s8 
262     196    conv2d_196 (Conv2D)                 58,982,656    smul_s8_s8 
263     197    conv2d_197_pad_before (Pad)                  0    smul_s8_s8 
264     197    conv2d_197 (Conv2D)                  2,073,856    smul_s8_s8 
265     198    conv2d_198 (Conv2D)                 58,982,656    smul_s8_s8 
266     200    conv2d_200 (Conv2D)                  2,764,812    smul_s8_s8 
267     199    conv2d_199 (Conv2D)                    691,203    smul_s8_s8 
268     201    concat_201 (Concat)                          0    smul_s8_s8 
269     202    conversion_202 (Conversion)             32,400   smul_s8_f32 
270     159    conv2d_159 (Conv2D)                235,929,856    smul_s8_s8 
271     160    conv2d_160_pad_before (Pad)                  0    smul_s8_s8 
272     160    conv2d_160 (Conv2D)                  8,294,656    smul_s8_s8 
273     161    conv2d_161 (Conv2D)                235,929,856    smul_s8_s8 
274     162    conv2d_162_pad_before (Pad)                  0    smul_s8_s8 
275     162    conv2d_162 (Conv2D)                  8,294,656    smul_s8_s8 
276     163    conv2d_163 (Conv2D)                235,929,856    smul_s8_s8 
277     164    conv2d_164 (Conv2D)                  2,764,803    smul_s8_s8 
278     165    conv2d_165_pad_before (Pad)                  0    smul_s8_s8 
279     165    conv2d_165 (Conv2D)                  8,294,656    smul_s8_s8 
280     166    conv2d_166 (Conv2D)                235,929,856    smul_s8_s8 
281     167    conv2d_167_pad_before (Pad)                  0    smul_s8_s8 
282     167    conv2d_167 (Conv2D)                  8,294,656    smul_s8_s8 
283     168    conv2d_168 (Conv2D)                235,929,856    smul_s8_s8 
284     170    conv2d_170 (Conv2D)                 11,059,212    smul_s8_s8 
285     169    conv2d_169 (Conv2D)                  2,764,803    smul_s8_s8 
286     171    concat_171 (Concat)                          0    smul_s8_s8 
287     172    conversion_172 (Conversion)            129,600   smul_s8_f32 
------- ------ ----------------------------- ---------------- ------------- 
total                                          12,216,026,230 

Number of operation types
---------------- ---------------- ----------- 
operation type                  #           % 
---------------- ---------------- ----------- 
smul_u8_s8              1,382,400        0.0% 
smul_s8_s8         12,205,488,130       99.9% 
op_s8_s8                8,985,600        0.1% 
smul_s8_f32               170,100        0.0% 

Complexity report (model)
------ -------------------------- ------------------------- ------------------------- ------------ 
m_id   name                       c_macc                    c_rom                     c_id         
------ -------------------------- ------------------------- ------------------------- ------------ 
0      serving_default_input_10   |                  0.0%   |                  0.0%   [0]          
1      conv2d_1                   |                  0.2%   |                  0.0%   [1]          
2      conv2d_2                   |||||||||||||      3.3%   |                  0.0%   [2, 3]       
3      conv2d_3                   |                  0.1%   |                  0.0%   [4, 5]       
4      conv2d_4                   ||||               1.0%   |                  0.0%   [6]          
5      conv2d_5                   ||||               1.0%   |                  0.0%   [8]          
6      conv2d_6                   ||                 0.5%   |                  0.0%   [9]          
7      conv2d_7                   |                  0.1%   |                  0.0%   [10, 11]     
8      conv2d_8                   ||                 0.5%   |                  0.0%   [12]         
9      eltwise_9                  |                  0.0%   |                  0.0%   [13]         
10     conv2d_10                  ||                 0.5%   |                  0.0%   [14]         
11     conv2d_11                  |                  0.1%   |                  0.0%   [15, 16]     
12     conv2d_12                  ||                 0.5%   |                  0.0%   [17]         
13     eltwise_13                 |                  0.0%   |                  0.0%   [18]         
14     conv2d_14                  ||                 0.5%   |                  0.0%   [19]         
15     conv2d_15                  |                  0.1%   |                  0.0%   [20, 21]     
16     conv2d_16                  ||                 0.5%   |                  0.0%   [22]         
17     eltwise_17                 |                  0.0%   |                  0.0%   [23]         
18     conv2d_18                  ||||               1.0%   |                  0.0%   [7]          
19     concat_19                  |                  0.0%   |                  0.0%   [24]         
20     conv2d_20                  ||||||||           1.9%   |                  0.1%   [25]         
21     conv2d_21                  |                  0.0%   |                  0.0%   [26, 27]     
22     conv2d_22                  ||||               1.0%   |                  0.2%   [28]         
23     conv2d_23                  ||||               1.0%   |                  0.2%   [30]         
24     conv2d_24                  ||                 0.5%   |                  0.1%   [31]         
25     conv2d_25                  |                  0.0%   |                  0.0%   [32, 33]     
26     conv2d_26                  ||                 0.5%   |                  0.1%   [34]         
27     eltwise_27                 |                  0.0%   |                  0.0%   [35]         
28     conv2d_28                  ||                 0.5%   |                  0.1%   [36]         
29     conv2d_29                  |                  0.0%   |                  0.0%   [37, 38]     
30     conv2d_30                  ||                 0.5%   |                  0.1%   [39]         
31     eltwise_31                 |                  0.0%   |                  0.0%   [40]         
32     conv2d_32                  ||                 0.5%   |                  0.1%   [41]         
33     conv2d_33                  |                  0.0%   |                  0.0%   [42, 43]     
34     conv2d_34                  ||                 0.5%   |                  0.1%   [44]         
35     eltwise_35                 |                  0.0%   |                  0.0%   [45]         
36     conv2d_36                  ||                 0.5%   |                  0.1%   [46]         
37     conv2d_37                  |                  0.0%   |                  0.0%   [47, 48]     
38     conv2d_38                  ||                 0.5%   |                  0.1%   [49]         
39     eltwise_39                 |                  0.0%   |                  0.0%   [50]         
40     conv2d_40                  ||                 0.5%   |                  0.1%   [51]         
41     conv2d_41                  |                  0.0%   |                  0.0%   [52, 53]     
42     conv2d_42                  ||                 0.5%   |                  0.1%   [54]         
43     eltwise_43                 |                  0.0%   |                  0.0%   [55]         
44     conv2d_44                  ||                 0.5%   |                  0.1%   [56]         
45     conv2d_45                  |                  0.0%   |                  0.0%   [57, 58]     
46     conv2d_46                  ||                 0.5%   |                  0.1%   [59]         
47     eltwise_47                 |                  0.0%   |                  0.0%   [60]         
48     conv2d_48                  ||                 0.5%   |                  0.1%   [61]         
49     conv2d_49                  |                  0.0%   |                  0.0%   [62, 63]     
50     conv2d_50                  ||                 0.5%   |                  0.1%   [64]         
51     eltwise_51                 |                  0.0%   |                  0.0%   [65]         
52     conv2d_52                  ||                 0.5%   |                  0.1%   [66]         
53     conv2d_53                  |                  0.0%   |                  0.0%   [67, 68]     
54     conv2d_54                  ||                 0.5%   |                  0.1%   [69]         
55     eltwise_55                 |                  0.0%   |                  0.0%   [70]         
56     conv2d_56                  ||                 0.5%   |                  0.1%   [71]         
57     conv2d_57                  |                  0.0%   |                  0.0%   [72, 73]     
58     conv2d_58                  ||                 0.5%   |                  0.1%   [74]         
59     eltwise_59                 |                  0.0%   |                  0.0%   [75]         
60     conv2d_60                  ||||               1.0%   |                  0.2%   [29]         
61     concat_61                  |                  0.0%   |                  0.0%   [76]         
62     conv2d_62                  ||||||||           1.9%   |                  0.4%   [77]         
63     conv2d_63                  |                  0.0%   |                  0.0%   [78, 79]     
64     conv2d_64                  ||||               1.0%   |                  0.7%   [80]         
65     conv2d_65                  ||||               1.0%   |                  0.7%   [82]         
66     conv2d_66                  ||                 0.5%   |                  0.4%   [83]         
67     conv2d_67                  |                  0.0%   |                  0.0%   [84, 85]     
68     conv2d_68                  ||                 0.5%   |                  0.4%   [86]         
69     eltwise_69                 |                  0.0%   |                  0.0%   [87]         
70     conv2d_70                  ||                 0.5%   |                  0.4%   [88]         
71     conv2d_71                  |                  0.0%   |                  0.0%   [89, 90]     
72     conv2d_72                  ||                 0.5%   |                  0.4%   [91]         
73     eltwise_73                 |                  0.0%   |                  0.0%   [92]         
74     conv2d_74                  ||                 0.5%   |                  0.4%   [93]         
75     conv2d_75                  |                  0.0%   |                  0.0%   [94, 95]     
76     conv2d_76                  ||                 0.5%   |                  0.4%   [96]         
77     eltwise_77                 |                  0.0%   |                  0.0%   [97]         
78     conv2d_78                  ||                 0.5%   |                  0.4%   [98]         
79     conv2d_79                  |                  0.0%   |                  0.0%   [99, 100]    
80     conv2d_80                  ||                 0.5%   |                  0.4%   [101]        
81     eltwise_81                 |                  0.0%   |                  0.0%   [102]        
82     conv2d_82                  ||                 0.5%   |                  0.4%   [103]        
83     conv2d_83                  |                  0.0%   |                  0.0%   [104, 105]   
84     conv2d_84                  ||                 0.5%   |                  0.4%   [106]        
85     eltwise_85                 |                  0.0%   |                  0.0%   [107]        
86     conv2d_86                  ||                 0.5%   |                  0.4%   [108]        
87     conv2d_87                  |                  0.0%   |                  0.0%   [109, 110]   
88     conv2d_88                  ||                 0.5%   |                  0.4%   [111]        
89     eltwise_89                 |                  0.0%   |                  0.0%   [112]        
90     conv2d_90                  ||                 0.5%   |                  0.4%   [113]        
91     conv2d_91                  |                  0.0%   |                  0.0%   [114, 115]   
92     conv2d_92                  ||                 0.5%   |                  0.4%   [116]        
93     eltwise_93                 |                  0.0%   |                  0.0%   [117]        
94     conv2d_94                  ||                 0.5%   |                  0.4%   [118]        
95     conv2d_95                  |                  0.0%   |                  0.0%   [119, 120]   
96     conv2d_96                  ||                 0.5%   |                  0.4%   [121]        
97     eltwise_97                 |                  0.0%   |                  0.0%   [122]        
98     conv2d_98                  ||                 0.5%   |                  0.4%   [123]        
99     conv2d_99                  |                  0.0%   |                  0.0%   [124, 125]   
100    conv2d_100                 ||                 0.5%   |                  0.4%   [126]        
101    eltwise_101                |                  0.0%   |                  0.0%   [127]        
102    conv2d_102                 ||||               1.0%   |                  0.7%   [81]         
103    concat_103                 |                  0.0%   |                  0.0%   [128]        
104    conv2d_104                 ||||||||           1.9%   ||                 1.5%   [129]        
105    conv2d_105                 |                  0.0%   |                  0.0%   [130, 131]   
106    conv2d_106                 ||||               1.0%   ||||               3.0%   [132]        
107    conv2d_107                 ||||               1.0%   ||||               3.0%   [133]        
108    pool_108                   |                  0.0%   |                  0.0%   [136]        
109    pool_109                   |                  0.1%   |                  0.0%   [135]        
110    pool_110                   |                  0.2%   |                  0.0%   [134]        
111    concat_111                 |                  0.0%   |                  0.0%   [137]        
112    conv2d_112                 ||||||||||||||||   3.9%   ||||||||||||||||  11.8%   [138]        
113    conv2d_113                 ||||               1.0%   ||||               3.0%   [140]        
114    conv2d_114                 ||                 0.5%   ||                 1.5%   [141]        
115    conv2d_115                 |                  0.0%   |                  0.0%   [142, 143]   
116    conv2d_116                 ||                 0.5%   ||                 1.5%   [144]        
117    conv2d_117                 ||                 0.5%   ||                 1.5%   [145]        
118    conv2d_118                 |                  0.0%   |                  0.0%   [146, 147]   
119    conv2d_119                 ||                 0.5%   ||                 1.5%   [148]        
120    conv2d_120                 ||                 0.5%   ||                 1.5%   [149]        
121    conv2d_121                 |                  0.0%   |                  0.0%   [150, 151]   
122    conv2d_122                 ||                 0.5%   ||                 1.5%   [152]        
123    conv2d_123                 ||||               1.0%   ||||               3.0%   [139]        
124    concat_124                 |                  0.0%   |                  0.0%   [153]        
125    conv2d_125                 ||||||||           1.9%   ||||||||           5.9%   [154]        
126    conv2d_126                 ||||               1.0%   ||||               3.0%   [155]        
127    resize_127                 |                  0.0%   |                  0.0%   [156]        
128    concat_128                 |                  0.0%   |                  0.0%   [157]        
129    conv2d_129                 ||||||||           1.9%   ||                 1.5%   [159]        
130    conv2d_130                 ||                 0.5%   |                  0.4%   [160]        
131    conv2d_131                 |                  0.0%   |                  0.0%   [161, 162]   
132    conv2d_132                 ||                 0.5%   |                  0.4%   [163]        
133    conv2d_133                 ||                 0.5%   |                  0.4%   [164]        
134    conv2d_134                 |                  0.0%   |                  0.0%   [165, 166]   
135    conv2d_135                 ||                 0.5%   |                  0.4%   [167]        
136    conv2d_136                 ||                 0.5%   |                  0.4%   [168]        
137    conv2d_137                 |                  0.0%   |                  0.0%   [169, 170]   
138    conv2d_138                 ||                 0.5%   |                  0.4%   [171]        
139    conv2d_139                 ||||||||           1.9%   ||                 1.5%   [158]        
140    concat_140                 |                  0.0%   |                  0.0%   [172]        
141    conv2d_141                 ||||||||           1.9%   ||                 1.5%   [173]        
142    conv2d_142                 ||||               1.0%   |                  0.7%   [174]        
143    conversion_143             |                  0.0%   |                  0.0%   [175]        
144    resize_144                 |                  0.0%   |                  0.0%   [176]        
145    concat_145                 |                  0.0%   |                  0.0%   [177]        
146    conv2d_146                 ||||||||           1.9%   |                  0.4%   [179]        
147    conv2d_147                 ||                 0.5%   |                  0.1%   [180]        
148    conv2d_148                 |                  0.0%   |                  0.0%   [181, 182]   
149    conv2d_149                 ||                 0.5%   |                  0.1%   [183]        
150    conv2d_150                 ||                 0.5%   |                  0.1%   [184]        
151    conv2d_151                 |                  0.0%   |                  0.0%   [185, 186]   
152    conv2d_152                 ||                 0.5%   |                  0.1%   [187]        
153    conv2d_153                 ||                 0.5%   |                  0.1%   [188]        
154    conv2d_154                 |                  0.0%   |                  0.0%   [189, 190]   
155    conv2d_155                 ||                 0.5%   |                  0.1%   [191]        
156    conv2d_156                 ||||||||           1.9%   |                  0.4%   [178]        
157    concat_157                 |                  0.0%   |                  0.0%   [192]        
158    conv2d_158                 ||||||||           1.9%   |                  0.4%   [193]        
159    conv2d_159                 ||||||||           1.9%   |                  0.4%   [270]        
160    conv2d_160                 |                  0.1%   |                  0.0%   [271, 272]   
161    conv2d_161                 ||||||||           1.9%   |                  0.4%   [273]        
162    conv2d_162                 |                  0.1%   |                  0.0%   [274, 275]   
163    conv2d_163                 ||||||||           1.9%   |                  0.4%   [276]        
164    conv2d_164                 |                  0.0%   |                  0.0%   [277]        
165    conv2d_165                 |                  0.1%   |                  0.0%   [278, 279]   
166    conv2d_166                 ||||||||           1.9%   |                  0.4%   [280]        
167    conv2d_167                 |                  0.1%   |                  0.0%   [281, 282]   
168    conv2d_168                 ||||||||           1.9%   |                  0.4%   [283]        
169    conv2d_169                 |                  0.0%   |                  0.0%   [285]        
170    conv2d_170                 |                  0.1%   |                  0.0%   [284]        
171    concat_171                 |                  0.0%   |                  0.0%   [286]        
172    conversion_172             |                  0.0%   |                  0.0%   [287]        
173    conv2d_173                 |                  0.0%   |                  0.0%   [194, 195]   
174    conv2d_174                 ||                 0.5%   |                  0.4%   [196]        
175    concat_175                 |                  0.0%   |                  0.0%   [197]        
176    conv2d_176                 ||||               1.0%   |                  0.7%   [199]        
177    conv2d_177                 ||                 0.5%   |                  0.4%   [200]        
178    conv2d_178                 |                  0.0%   |                  0.0%   [201, 202]   
179    conv2d_179                 ||                 0.5%   |                  0.4%   [203]        
180    conv2d_180                 ||                 0.5%   |                  0.4%   [204]        
181    conv2d_181                 |                  0.0%   |                  0.0%   [205, 206]   
182    conv2d_182                 ||                 0.5%   |                  0.4%   [207]        
183    conv2d_183                 ||                 0.5%   |                  0.4%   [208]        
184    conv2d_184                 |                  0.0%   |                  0.0%   [209, 210]   
185    conv2d_185                 ||                 0.5%   |                  0.4%   [211]        
186    conv2d_186                 ||||               1.0%   |                  0.7%   [198]        
187    concat_187                 |                  0.0%   |                  0.0%   [212]        
188    conv2d_188                 ||||||||           1.9%   ||                 1.5%   [213]        
189    conv2d_189                 ||||               1.0%   |                  0.7%   [252]        
190    conv2d_190                 |                  0.0%   |                  0.0%   [253, 254]   
191    conv2d_191                 ||                 0.5%   |                  0.4%   [255]        
192    conv2d_192                 |                  0.0%   |                  0.0%   [256, 257]   
193    conv2d_193                 ||                 0.5%   |                  0.4%   [258]        
194    conv2d_194                 |                  0.0%   |                  0.0%   [259]        
195    conv2d_195                 |                  0.0%   |                  0.0%   [260, 261]   
196    conv2d_196                 ||                 0.5%   |                  0.4%   [262]        
197    conv2d_197                 |                  0.0%   |                  0.0%   [263, 264]   
198    conv2d_198                 ||                 0.5%   |                  0.4%   [265]        
199    conv2d_199                 |                  0.0%   |                  0.0%   [267]        
200    conv2d_200                 |                  0.0%   |                  0.0%   [266]        
201    concat_201                 |                  0.0%   |                  0.0%   [268]        
202    conversion_202             |                  0.0%   |                  0.0%   [269]        
203    conv2d_203                 |                  0.0%   |                  0.0%   [214, 215]   
204    conv2d_204                 ||                 0.5%   ||                 1.5%   [216]        
205    concat_205                 |                  0.0%   |                  0.0%   [217]        
206    conv2d_206                 ||||               1.0%   ||||               3.0%   [219]        
207    conv2d_207                 ||                 0.5%   ||                 1.5%   [220]        
208    conv2d_208                 |                  0.0%   |                  0.0%   [221, 222]   
209    conv2d_209                 ||                 0.5%   ||                 1.5%   [223]        
210    conv2d_210                 ||                 0.5%   ||                 1.5%   [224]        
211    conv2d_211                 |                  0.0%   |                  0.0%   [225, 226]   
212    conv2d_212                 ||                 0.5%   ||                 1.5%   [227]        
213    conv2d_213                 ||                 0.5%   ||                 1.5%   [228]        
214    conv2d_214                 |                  0.0%   |                  0.0%   [229, 230]   
215    conv2d_215                 ||                 0.5%   ||                 1.5%   [231]        
216    conv2d_216                 ||||               1.0%   ||||               3.0%   [218]        
217    concat_217                 |                  0.0%   |                  0.0%   [232]        
218    conv2d_218                 ||||||||           1.9%   ||||||||           5.9%   [233]        
219    conv2d_219                 ||                 0.5%   ||                 1.5%   [234]        
220    conv2d_220                 |                  0.0%   |                  0.0%   [235, 236]   
221    conv2d_221                 |                  0.1%   |                  0.4%   [237]        
222    conv2d_222                 |                  0.0%   |                  0.0%   [238, 239]   
223    conv2d_223                 |                  0.1%   |                  0.4%   [240]        
224    conv2d_224                 |                  0.0%   |                  0.0%   [241]        
225    conv2d_225                 |                  0.0%   |                  0.0%   [242, 243]   
226    conv2d_226                 |                  0.1%   |                  0.4%   [244]        
227    conv2d_227                 |                  0.0%   |                  0.0%   [245, 246]   
228    conv2d_228                 |                  0.1%   |                  0.4%   [247]        
229    conv2d_229                 |                  0.0%   |                  0.0%   [249]        
230    conv2d_230                 |                  0.0%   |                  0.0%   [248]        
231    concat_231                 |                  0.0%   |                  0.0%   [250]        
232    conversion_232             |                  0.0%   |                  0.0%   [251]        
------ -------------------------- ------------------------- ------------------------- ------------ 
macc=12,216,026,230 weights=17,799,884 act=4,198,100 ram_io=0
 
 Requested memory size by section - "stm32h7" target
 ------------------------------ -------- ------------ --------- ----------- 
 module                             text       rodata      data         bss 
 ------------------------------ -------- ------------ --------- ----------- 
 network.o                        14,196      252,935   101,560       5,484 
 NetworkRuntime1000_CM7_GCC.a     31,056           16         0           0 
 network_data.o                       48           16    16,500           0 
 lib (toolchain)*                    902          624         0           0 
 ------------------------------ -------- ------------ --------- ----------- 
 RT total**                       46,202      253,591   118,060       5,484 
 ------------------------------ -------- ------------ --------- ----------- 
 weights                               0   17,799,912         0           0 
 activations                           0            0         0   4,198,100 
 io                                    0            0         0           0 
 ------------------------------ -------- ------------ --------- ----------- 
 TOTAL                            46,202   18,053,503   118,060   4,203,584 
 ------------------------------ -------- ------------ --------- ----------- 
 *  toolchain objects (libm/libgcc*)
 ** RT AI runtime objects (kernels+infrastructure)
  
  Summary - "stm32h7" target
  --------------------------------------------------
               FLASH (ro)     %*    RAM (rw)      % 
  --------------------------------------------------
  RT total        417,853   2.3%     123,544   2.9% 
  --------------------------------------------------
  TOTAL        18,217,765          4,321,644        
  --------------------------------------------------
  *  rt/total


Generated files (7)
-------------------------------------------------------------------------------------------------------------- 
C:\Users\alert\repos\stm32ai-modelzoo-services\experiments_outputs\2025_04_25_15_45_27\network_data_params.h   
C:\Users\alert\repos\stm32ai-modelzoo-services\experiments_outputs\2025_04_25_15_45_27\network_data_params.c   
C:\Users\alert\repos\stm32ai-modelzoo-services\experiments_outputs\2025_04_25_15_45_27\network_data.h          
C:\Users\alert\repos\stm32ai-modelzoo-services\experiments_outputs\2025_04_25_15_45_27\network_data.c          
C:\Users\alert\repos\stm32ai-modelzoo-services\experiments_outputs\2025_04_25_15_45_27\network_config.h        
C:\Users\alert\repos\stm32ai-modelzoo-services\experiments_outputs\2025_04_25_15_45_27\network.h               
C:\Users\alert\repos\stm32ai-modelzoo-services\experiments_outputs\2025_04_25_15_45_27\network.c               
